deploy/models/booster_gym_exp_knee/model_7500.pt (torch, 296190 bytes, 8 tensors)

weight f4 [256, 80]
000000 6b be 0e bf 69 0d b1 3f b5 bf 60 3d a0 5c 05 be
       -0.55759305 1.3832217 0.054870326 -0.13023615
000010 32 23 91 be 4b 5f e4 be a2 a8 e0 3d 71 f1 b0 3d
       -0.28347164 -0.44603953 0.10969664 0.08639801
000020 55 eb 85 bd 5e 12 dc 3d b1 f7 e1 3c 21 68 45 3e
       -0.06539027 0.10745691 0.027583929 0.19278003
000030 3a 8f bb be 4e 16 57 3d 25 93 08 be 4c 14 f7 bc
       -0.3663271 0.052511506 -0.13337381 -0.030161045
000040 2f 1c 89 be eb b2 a5 3d 46 31 5a be 0f 72 11 3c
       -0.26779315 0.080907665 -0.21307859 0.008877291
000050 68 e1 d0 3d 58 a8 e2 bf e8 90 4d bf d9 c4 a6 be
       0.10199243 -1.7707624 -0.80299234 -0.32572058
000060 fa 89 c0 bd c1 c9 a2 bd d2 b3 3b be 7f bb 9c bf
       -0.09401317 -0.07948638 -0.18330315 -1.2244719
000070 7f 5e 8d bf 02 8f 84 3e ba 19 45 bf 8f cd 58 be
       -1.1044463 0.25890356 -0.7699238 -0.21172164
000080 5b 5e 74 be 6d 8d a0 be 1e ee 0a 3f cd 7b 72 3f
       -0.23864119 -0.313579 0.5426959 0.94720155
000090 a7 ac 14 3f 1d d2 7b bd fc 45 8a 3d 59 21 5a bd
       0.58075947 -0.061479677 0.0675163 -0.05325446
0000a0 e5 af e2 bc f4 66 8b bc b9 77 43 bd 6f 1f 2b bf
       -0.027671764 -0.017016865 -0.0477216 -0.6684484
0000b0 a7 3c e2 bf 18 00 7a bf 4b 04 21 bf 8f 5f c6 3e
       -1.767476 -0.97656393 -0.62897176 0.3874478
0000c0 fb 6d fb 3d ee 1f 30 3e 6a 7f a1 3d 86 43 9e bf
       0.122768365 0.1719968 0.078856304 -1.2364357
0000d0 86 73 33 3f 3f 81 e5 3e a1 40 95 be b9 aa 88 3e
       0.7009815 0.4482517 -0.2915087 0.2669275
0000e0 65 be 07 3d ac ab 94 3c 2c fd 3e bf 72 2c 15 bd
       0.03314056 0.018148266 -0.7460506 -0.03641934
0000f0 17 2d 77 be ec 4d 96 be a5 64 52 be b7 a6 83 3b
       -0.24138294 -0.29356325 -0.20546205 0.0040176767
000100 42 b0 28 be 08 8e 29 be f9 c2 5a 3e d5 7b 90 bf
       -0.16473487 -0.16558087 0.21363439 -1.128779
000110 e6 f5 a0 bf a5 03 ff be b7 eb 5d 3f 89 92 6b 3e
       -1.2575042 -0.49807468 0.866878 0.23005117
000120 ec 87 e9 bd a0 0f a9 be 16 58 91 bf 0f d8 04 bc
       -0.11402878 -0.33019733 -1.1355007 -0.008108153
000130 18 de 39 be bc dc 5a 3d 53 43 08 be 98 3c 0f 3d
       -0.18151128 0.053433165 -0.13306932 0.034969896
000140 37 9b a8 bf 33 5f de be 5c 56 9b 3c 17 a8 a6 be
       -1.3172368 -0.43432006 0.018962078 -0.32550117
000150 7f be ba 3d 40 1e 0f 3e 77 5d 6b bd 32 6d 9b bd
       0.091183655 0.13976383 -0.057462182 -0.07589187
000160 c8 26 56 3d 72 e6 2a bd 61 dd c4 bd f7 36 28 bd
       0.05228308 -0.041723676 -0.09612537 -0.041068044
000170 83 79 91 3b d5 38 19 bd ac 0b da bd 7c 12 c8 bc
       0.004439534 -0.037407715 -0.106467575 -0.024422877
000180 96 8d 68 be 54 6f 88 3d ce 41 08 3e 1d 62 6c 3c
       -0.22710261 0.06661859 0.13306352 0.014427689
000190 91 24 18 3e e0 02 ec bf 2b 8d 0c 3f 6a 55 73 bd
       0.14857699 -1.8438377 0.54902905 -0.05940763
0001a0 0c cd d7 bf 4f 88 07 3e 0c 0e 40 be a8 d9 ba be
       -1.685945 0.13235591 -0.18755358 -0.36494184
0001b0 b0 90 a2 3e 43 aa 2e bf 41 66 12 bd 5f 0a 89 3d
       0.31751013 -0.6822855 -0.03574205 0.06691431
0001c0 cd 8e c8 be 5a 08 4d 3e 72 6c a6 3d 83 1c 40 bf
       -0.39171448 0.20022717 0.08126153 -0.75043505
0001d0 28 c9 8a 3d 1e 4c 7c 3e 6a ce 98 3d b4 14 d5 be
       0.06776649 0.24638411 0.07461245 -0.41617358
0001e0 d9 f1 da bd 5a 90 01 3f f3 c1 0a 3c 54 bb 78 3d
       -0.1069066 0.5061089 0.008469093 0.060725525
0001f0 ee 13 ec be 73 c0 d8 bc 97 7f e8 be 6c 2a e7 3b
       -0.46108955 -0.026458954 -0.45409843 0.0070546176
000200 c9 ee 04 3f 43 b8 9d bd 77 e4 41 bd b9 9d 2d 3e
       0.5192686 -0.07701161 -0.04733702 0.16954698
000210 6b b9 36 3f e9 bf c4 be c0 32 d2 bc 6c 85 7b bd
       0.71376675 -0.38427666 -0.025658965 -0.061406538
000220 14 8b a9 3d 0e f5 5e be ee ca 47 bd dc 75 c2 3c
       0.0827848 -0.21773168 -0.048777513 0.02373784
000230 25 c7 e1 bd 43 8a 47 bd 06 bf b3 bd 63 29 e9 bd
       -0.11024312 -0.04871584 -0.08776669 -0.11384847
000240 e7 2e 53 bd d2 51 8b bd ba 73 25 3e cc d2 85 be
       -0.0515584 -0.06802715 0.16157427 -0.26137388
000250 56 2f a6 be 9f 48 11 be 9e 52 9d bc 3b f3 de 3e
       -0.3245799 -0.14187859 -0.019204434 0.43544945
000260 9f 6b f7 bd 1c 2a 8c be f7 a0 8f be 62 51 b0 3c
       -0.12081074 -0.27375877 -0.28052494 0.021523181
000270 3a c5 1a 3e 24 35 22 3e 92 15 09 be b6 d3 fc be
       0.15114298 0.15840584 -0.13387135 -0.49380273
000280 a0 e2 a6 3d 3a 4d 15 be ca 2d 72 3c f4 f4 9f bd
       0.08148694 -0.14580241 0.014781425 -0.07810393
000290 57 b4 93 bc 5b 68 5a 3d 55 3f 1d bd 59 36 eb bc
       -0.018030329 0.053322177 -0.038390476 -0.028712438
0002a0 a3 e4 e5 3c e2 90 d5 3d ca fa 2f bc d3 75 2b 3e
       0.028063124 0.10428025 -0.010740945 0.16744165
0002b0 49 58 cd 3c b2 e6 39 3d 1b 43 38 3c 56 19 ad bc
       0.025066512 0.045386024 0.011246468 -0.021130245
0002c0 79 ba 5b bd 39 dc 45 be ae 59 7c 3e ef 67 53 3c
       -0.05364463 -0.1932229 0.24643585 0.012903198
0002d0 dd eb e2 3d 42 c0 91 bf 9a 89 e5 be bb 60 fa bb
       0.110801436 -1.1386797 -0.44831544 -0.0076409257
0002e0 32 af 8f bf 7a 82 12 3e 24 ec 41 3d 3e dd 05 be
       -1.122534 0.14307585 0.047344342 -0.13072678
0002f0 64 a2 63 bf 42 9a c5 be 14 fa c6 3d 27 2a 37 be
       -0.88919663 -0.38594252 0.09715667 -0.17887174
000300 4d 20 2e 3e 33 ca 26 3e 7d a8 ad bc 8c 97 39 bb
       0.1700451 0.1628807 -0.021198506 -0.0028319089
000310 14 81 5c be d1 2c d3 3e 51 a9 46 bc 06 09 32 be
       -0.21533614 0.4124513 -0.012125329 -0.17386255
000320 8e a3 db be 84 2c 79 bd 5e df 48 3d e6 9b 99 be
       -0.4289822 -0.06083347 0.049041145 -0.30001754
000330 7d 59 15 bc e7 54 52 3f e6 62 06 3f 2a a5 86 be
       -0.009115574 0.821608 0.5249466 -0.26297885
000340 de cf 2a 3f ce 8f 52 3e f3 3e 4c bd 54 50 46 be
       0.6672343 0.2056267 -0.04986472 -0.1936658
000350 8e 06 b3 be c4 af d4 3d 99 0e 78 be d6 9a 62 3d
       -0.34965938 0.10385087 -0.24224319 0.055323444
000360 4e f7 02 3d 93 c2 a0 bd 96 13 4c bd 18 05 1f 3e
       0.03197413 -0.07849612 -0.049823366 0.15529287
000370 fd dc 65 bd 76 a7 ad 3c 9f 66 ce bd e8 ea 86 3d
       -0.056118954 0.021198016 -0.10078167 0.065877736
000380 e3 fb ad bc e3 8d dd 3d 38 f9 30 3d 92 7c 99 3e
       -0.021238273 0.10818078 0.043206424 0.29977852
000390 2f a6 4e 3f ef 01 02 3e 0b 60 10 3f 06 66 c0 3d
       0.80722326 0.1269605 0.5639655 0.093944594
0003a0 87 f1 b6 bd ae 13 1b be 0e 36 27 3f 16 fd 59 be
       -0.089327864 -0.15144226 0.65316856 -0.21287951
0003b0 40 d6 a7 3e 3e c8 7a be a1 e4 64 bd 5e 46 11 be
       0.32780647 -0.24490449 -0.0558821 -0.14186999
0003c0 6f de 86 bd fa 07 7a 3f 7b a7 0e 3e 62 44 90 b8
       -0.065853946 0.9766842 0.13931076 -6.8791924e-05
0003d0 a4 c5 94 3d 30 f7 08 3c 6c f0 8b bd 73 d1 dd 3d
       0.072642595 0.008359715 -0.06832966 0.10830965
0003e0 af 8c 92 bd 47 9a 0c 3d e1 4c d6 3d ca 83 ff 3c
       -0.071557395 0.034326818 0.10463882 0.031190772
0003f0 3d 36 8d 3d 68 46 44 3d 66 5c 8b 3e a9 95 fe bc
       0.06895111 0.047918707 0.27218932 -0.031077223

bias f4 [256]
000000 44 6d 7d be 4a 87 f4 bd d4 68 66 bb 9c 6a 4c 3d
       -0.24748713 -0.11939867 -0.0035157697 0.049906358
000010 e0 1d d5 3d 1f 4c 32 bc 49 e0 82 bd 05 bd 95 bd
       0.10406089 -0.0108824065 -0.06390435 -0.07311443
000020 db 7b bf bd b5 3b f7 3a c0 d7 83 bc 9f 40 eb bd
       -0.093497954 0.0018862399 -0.016094089 -0.11486935
000030 09 33 43 3e 9a fc 13 ba 87 48 16 be 7a b3 0a be
       0.19062437 -0.00056452455 -0.14676104 -0.13545027
000040 fd 03 17 bd f9 88 83 3d d7 1b f7 3d 0f 0d 50 be
       -0.036869038 0.0642261 0.12065857 -0.20317481
000050 99 42 21 bd d2 1b 52 3c 8e af 38 3d 52 9f 57 be
       -0.039370153 0.012824016 0.045089297 -0.2105687
000060 9b f6 08 be 98 29 8f bd 68 67 77 3e 89 89 8e 3d
       -0.13375323 -0.06990355 0.2416054 0.069598265
000070 09 60 fc 3d 4f f3 4a bb 7d ce 67 bc 61 7f 1b be
       0.12323005 -0.0030967777 -0.014148352 -0.1518531
000080 0e 1c ec 3d bb 51 43 bd df b1 97 3d 62 ca e2 bd
       0.115287885 -0.047685366 0.07406973 -0.11073758
000090 d2 f0 ef bc e0 99 8e be 6b e2 92 3c 79 04 dc 3d
       -0.029289637 -0.27851772 0.01793023 0.107430406
0000a0 3c 3b ff 3d 67 6f 31 be f1 39 d2 3d 83 c6 e0 3a
       0.1246247 -0.17327653 0.10264958 0.0017149005
0000b0 47 06 33 bd 1a d9 16 bd 02 93 a3 3e ec 0d c7 3d
       -0.04370716 -0.036828138 0.31948096 0.09719452
0000c0 9f 9b cd 3b 9b c8 e1 bd 72 3d 6e 3c af 27 89 be
       0.006274655 -0.110245906 0.014541017 -0.2678809
0000d0 31 25 95 bd 88 e2 e9 bc 2a c0 d6 3d 07 06 9f bd
       -0.07282484 -0.028550401 0.10485871 -0.077648215
0000e0 36 ce c8 bd bf 56 b3 bc 82 0b 68 bd 83 00 c8 3b
       -0.098049566 -0.02189195 -0.0566516 0.0061035766
0000f0 8c 60 23 3d c6 61 94 bd f7 ca e0 3b bb 2a 5e 3e
       0.039886996 -0.07245211 0.006860133 0.21695988
000100 40 c1 a3 be 66 74 55 be cd 12 98 be d9 bb 26 be
       -0.31983376 -0.20845184 -0.29701844 -0.16282596
000110 c7 42 12 bd 4e c7 1c be 16 a5 47 be 08 b9 db bb
       -0.035708215 -0.15310404 -0.19496569 -0.006705407
000120 bf 6d c9 bd 38 61 c3 3d 84 fb 23 3e b0 54 d7 3c
       -0.098353855 0.095400274 0.16013914 0.0262855
000130 52 cc 9c bd 10 67 67 bd 47 a0 8e 3c b2 4f d3 3c
       -0.076561585 -0.056494772 0.01741041 0.025794838
000140 8e 27 3b bd da 3d 46 3e 2b ac 5a be 7f cb 30 bc
       -0.04569202 0.19359532 -0.2135474 -0.010790705
000150 12 32 98 3d 24 74 8d be 57 29 af be af 91 d6 bd
       0.07431425 -0.2762767 -0.34211227 -0.10477006
000160 c1 58 de 3d 39 71 f5 bd 8b dd 6d 3d ce 47 5d be
       0.10856772 -0.11984486 0.058072608 -0.21609423
000170 df fe a5 bd 29 68 cc 3d 04 02 84 3c 36 5a 8e be
       -0.081052534 0.099808045 0.016114242 -0.278032
000180 03 63 cd bd aa 1b 46 bd f1 d1 d9 3d 24 23 e7 bd
       -0.100286506 -0.048366226 0.10635746 -0.112859994
000190 78 4a d3 3d 59 cd 8a 3d ce 4e a7 be 11 c9 6e 3e
       0.10316938 0.06777448 -0.3267731 0.23318888
0001a0 9c c0 31 3e b4 ed 32 be 72 1c 8d bc 8d 27 2d be
       0.17358631 -0.17473489 -0.017225478 -0.16909619
0001b0 e6 72 b5 bd 46 49 f9 bc 0d 43 30 3e 87 07 ed bc
       -0.08859806 -0.030430447 0.17213078 -0.028934253
0001c0 3b d0 3e 3d 73 15 a9 3d 8a f0 da bd 1d a3 c9 3d
       0.046585303 0.08256044 -0.106904104 0.098455645
0001d0 3c ac 1b be 72 4d 89 bd a7 fa 00 be 3c 9f 8e be
       -0.15202421 -0.06704225 -0.12595616 -0.2785586
0001e0 d3 6d 86 3d 2f 25 18 bc 2b 04 b8 be fc 75 a3 3b
       0.06563916 -0.009286209 -0.3594068 0.00498843
0001f0 01 c2 5e be 2c f9 30 be 59 6a 6c bd 29 4a 6b bb
       -0.21753694 -0.17282552 -0.05771861 -0.0035902357
000200 ec 12 12 be 4e 13 42 bb b7 ce e4 3d 77 46 eb bb
       -0.1426503 -0.0029613557 0.1117224 -0.007180031
000210 86 e1 88 be 4d b1 52 be d0 3d 03 3e f5 8f 16 3e
       -0.2673456 -0.20575447 0.12816548 0.14703353
000220 b4 60 52 3e dc c1 79 3e d1 dc 44 be c1 d8 2c be
       0.20544702 0.24390358 -0.1922486 -0.1687956
000230 6d b4 90 3d 8c d1 be be 97 bf 59 3d 9f b9 b4 bd
       0.070656635 -0.37269247 0.05316123 -0.08824467
000240 9b db 70 be a8 cd 9d be bd 6a 41 be 7e a0 c4 bd
       -0.23521273 -0.30820966 -0.18888374 -0.09600924
000250 ba c9 5c 3d 6c 66 9b be be 2b 22 3d e1 ac 0b 3e
       0.05390332 -0.3035158 0.039592497 0.13640167
000260 68 54 d1 bd 12 5c ae be bc 1d 76 bd b8 95 ad bd
       -0.10221177 -0.3405462 -0.06008695 -0.08475822
000270 29 94 cb bd 95 9c 47 bd 46 ac a9 be 08 98 d0 3d
       -0.09940369 -0.048733313 -0.33139247 0.10185248
000280 5f 4f 9a 3c 8b f2 fd bd 5b 1c 17 3e 0f ab be 3d
       0.018836675 -0.12399777 0.1475691 0.093099706
000290 90 7d d8 3c 41 db a1 3d 87 a8 bb 3b 37 b4 06 be
       0.02642706 0.079031475 0.005726877 -0.13154684
0002a0 a8 8d 4f 3d 3b d5 45 be cd d6 73 bb 52 f7 a1 3d
       0.050672203 -0.19319622 -0.0037206889 0.07908501
0002b0 17 83 8c be e2 ac 41 be f2 04 b2 bc be 95 f9 3c
       -0.27443764 -0.18913606 -0.021730874 0.03046691
0002c0 c3 73 96 be 8a 98 82 be 94 b3 85 bd 5f 1e f9 3d
       -0.29385194 -0.25507003 -0.065283924 0.12163996
0002d0 87 6a 33 bd b6 ad 34 bd 85 9d 3d be 2b 9b 30 bd
       -0.043802764 -0.044110976 -0.1851712 -0.04311673
0002e0 ed 06 28 3c 9d e2 5b 3d 55 05 d5 bd de 38 6c bd
       0.0102555575 0.053682912 -0.10401408 -0.05767142
0002f0 0d 70 44 3e 11 a2 50 bf 89 53 aa be 64 49 d2 bd
       0.19183369 -0.81497294 -0.33266857 -0.102679044
000300 4d b4 1e 3e 7f 63 61 3d 36 2d 1d be 13 1c ab bd
       0.15498467 0.055026527 -0.15349278 -0.08354964
000310 11 8d dd bd 51 ce a4 bd 7f c7 38 3e 9d 7b 1e be
       -0.10817922 -0.08047164 0.18044852 -0.15476842
000320 fd d1 f9 bc 18 6f 34 3d 9f 70 96 bd aa 50 21 3c
       -0.030495638 0.04405126 -0.073456995 0.009845892
000330 54 07 89 bc 33 b1 9d 3d 62 1b 00 3b 74 b1 bc bd
       -0.016727127 0.07699814 0.0019547571 -0.09213534
000340 be 59 f9 3d 02 75 8f 3c 50 f3 1d be 27 a9 0c bd
       0.1217532 0.017511848 -0.15424848 -0.034341004
000350 7c b3 24 be a1 ec c7 bd 7b c0 85 bd bb cb cc bb
       -0.16084093 -0.0976193 -0.06530853 -0.0062498725
000360 5a fd 1e 3e 66 ce e9 bd 22 74 c8 bd 1e 6c 9e 3d
       0.15526333 -0.114163205 -0.097877756 0.077354655
000370 66 1a 51 bd 84 49 10 be c1 af 3f 3e 58 32 e6 3d
       -0.051050566 -0.14090544 0.18719389 0.11240071
000380 75 28 8d bd 11 47 12 be 64 a1 c8 3c 69 80 91 be
       -0.06892482 -0.14284922 0.02449102 -0.28418282
000390 ea 90 d1 bd 31 d5 1d 3e dc 8d b6 bd bb e2 01 3e
       -0.10232718 0.15413357 -0.08913776 0.12684147
0003a0 3b 81 5c be bd fa d6 bd c4 08 9f be ed 52 fb bd
       -0.21533673 -0.10497043 -0.31061375 -0.12271676
0003b0 39 46 4c 3d 34 fa c4 be 44 fe 28 3d 02 2c 18 be
       0.049871657 -0.3847214 0.04125811 -0.14860538
0003c0 84 05 27 be 22 00 66 be a7 4b 06 be 87 00 32 bd
       -0.16310698 -0.22460988 -0.13114797 -0.043457534
0003d0 87 b7 9e bd f2 a7 86 3c 26 c8 79 be fc 54 26 bd
       -0.07749849 0.016437504 -0.24392757 -0.04060839
0003e0 6f 1b f3 bd 15 ee 29 be 08 c0 62 3d 2f 13 be 3c
       -0.11870467 -0.16594727 0.055358917 0.023202507
0003f0 e4 b6 f0 bd 06 16 1f be fe db 84 bd f3 8b 17 bc
       -0.117536336 -0.15535745 -0.06487273 -0.009249675

weight f4 [128, 256]
000000 de fd 28 3e 32 14 cc 3e ad 8e e1 3e 86 c6 f1 3e
       0.16503093 0.39859158 0.44054165 0.47221774
000010 fc 47 df 3d 2f 38 00 bf 02 d9 df 3e 90 b8 2d bd
       0.10902402 -0.5008573 0.4372025 -0.04241234
000020 6e c2 2e 3e 81 33 91 3e cd 8d ac bd 8f 5f 45 be
       0.17066357 0.28359607 -0.08425484 -0.19274734
000030 2b bb c8 bd fb 4a 3a be 18 47 ea 3d b9 ae e9 bd
       -0.098013245 -0.18192665 0.11439341 -0.11410279
000040 7b 30 01 bf a9 d8 a3 bc b1 bd 8c 3e 43 6a 3c 3e
       -0.504646 -0.020000773 0.27488473 0.1839991
000050 2e 80 c5 bd 6b d4 8b bd d0 d1 a8 be 3b 7f 2c be
       -0.09643589 -0.06827625 -0.32972574 -0.1684541
000060 eb d5 3f 3e 24 fa 79 3e 67 a4 39 bf 6d d3 36 3f
       0.18733947 0.24411827 -0.72516483 0.7141636
000070 65 06 14 3e b6 f7 9b 3e a1 06 c5 be 9d c3 4d 3e
       0.14455564 0.30462426 -0.3848162 0.20094152
000080 00 15 c5 be ca 3e 34 3e 47 8b ef be b0 c5 92 bd
       -0.38492584 0.17602077 -0.46785948 -0.07166612
000090 20 14 97 3e 14 f4 0a 3f a9 d5 5e 3d ab bf 98 be
       0.29507542 0.54278684 0.05440298 -0.2983373
0000a0 ca 7b 83 be 17 35 06 be c1 d9 a9 3e d8 7e 00 3e
       -0.2568038 -0.1310619 0.33173946 0.12548387
0000b0 25 17 08 3d 6c 1b 28 3e 89 f3 b9 be 5d 6f a5 bd
       0.033225197 0.1641671 -0.36318615 -0.080778815
0000c0 af b7 0c 3e d2 e5 d4 3d 85 f9 ef 3c 2e 9d a9 3e
       0.13741945 0.10395397 0.029293785 0.3312773
0000d0 b2 e6 4c 3e 19 4b 86 bd d9 b0 87 3e 2c 43 23 bf
       0.20009878 -0.065572925 0.26502112 -0.6377437
0000e0 77 8f 45 be 14 83 36 3f a3 bb a9 3e 13 fb 10 bf
       -0.19293009 0.7129376 0.33150968 -0.5663311
0000f0 6f a0 85 be d1 63 cc be a9 c8 cd 3c 29 4f a4 bd
       -0.26098964 -0.39919904 0.025120096 -0.08022911
000100 c5 71 0c 3f 8b 3b 03 3f e3 ac 7c 3f fe b5 82 3e
       0.548611 0.5126273 0.98701304 0.25529474
000110 7b da 95 3d 9b d4 1f 3f ad 10 11 bf a5 f5 dc 3e
       0.073170625 0.62433785 -0.5666607 0.43156162
000120 89 8f 7f 3e 56 c9 9c bd 62 7f a6 be 55 87 4b bd
       0.24957098 -0.07655589 -0.3251906 -0.04968961
000130 56 94 a2 3e a7 9e 9b 3e cf f0 10 bf 28 49 84 be
       0.31753796 0.3039448 -0.56617445 -0.25837064
000140 0c 1b d3 3e 5a f4 a8 3d 79 7b 1b bf 1b fd ee 3d
       0.41231573 0.08249731 -0.6073528 0.1166937
000150 14 00 97 bf dd 6a 07 3f 96 a1 2a 3e 60 05 b0 3e
       -1.1796899 0.52897435 0.16663203 0.343791
000160 0d 35 a0 3d e3 6c f2 3e 5c 70 07 bf 58 09 07 be
       0.07822619 0.473487 -0.5290582 -0.13187158
000170 a4 2c 8a be 27 84 db 3e 4b ec 09 bf 2b 9b 84 3f
       -0.26987183 0.42874262 -0.5387618 1.0359854
000180 92 08 a1 be 19 c2 b7 bd 00 14 d1 3d 0b 1d 23 3f
       -0.3145185 -0.08972568 0.10208893 0.6371619
000190 9b f8 cc be 69 a5 88 3c d1 a0 f6 bd 74 9f 07 3a
       -0.4003342 0.016680436 -0.12042392 0.00051736017
0001a0 94 be d5 be bb 0a 9a be 7c 6d 3d be 1c 0d ab bc
       -0.41746962 -0.30086312 -0.18498796 -0.020880274
0001b0 44 6e 38 3d 0f d3 39 3e 1f 2a a6 bd 92 93 39 bd
       0.045027032 0.18146919 -0.08113503 -0.04530675
0001c0 87 d5 c1 be c3 13 06 be 99 3b 44 3e 8b 5d 87 3e
       -0.3785822 -0.13093476 0.1916336 0.26438555
0001d0 f9 56 a8 bd f1 57 5f bd 64 bb ba 3e 60 15 c3 3d
       -0.08219714 -0.054527227 0.36471093 0.09525561
0001e0 90 7f b0 bd 24 82 be bd d0 f6 42 3f 61 b6 d3 be
       -0.086180806 -0.09302166 0.76157856 -0.41350082
0001f0 64 e4 27 be d0 04 b4 be d1 64 9b bc cd a5 21 3f
       -0.16395718 -0.35159922 -0.018968971 0.63143617
000200 d4 74 fe 3e 2e 37 c6 3c f8 ae 8d 3d 51 b2 5b bc
       0.49698508 0.024196234 0.06918138 -0.013409213
000210 1b 90 b9 be 24 da d5 3e b7 df a0 3e 12 fa e8 be
       -0.36242756 0.4176799 0.3142068 -0.45503289
000220 73 7a 54 3e 51 5b 28 3e 07 bb f2 3e 5d a0 81 bd
       0.20749836 0.16441084 0.47408316 -0.06329415
000230 2d 9d 20 be 40 6a fd 3e d8 a4 85 3c 92 b7 57 3d
       -0.15684958 0.49495125 0.016313955 0.0526653
000240 69 08 69 3e 86 88 f0 3e c3 2d 00 3e 40 1d 25 3e
       0.22757114 0.4697916 0.12517457 0.16124439
000250 ee 86 68 3e 13 9a f2 3e 0a 13 13 3f 2a 45 2a bf
       0.22707722 0.47383174 0.57450926 -0.66511786
000260 b8 51 ce 3e 0d de 82 3f d8 11 9c 3e f7 21 ac 3d
       0.4029672 1.0224015 0.30482364 0.08404916
000270 11 31 0b 3e 06 2c 0e be 51 ce fa 3e a3 8c a9 be
       0.13592936 -0.13883981 0.48985532 -0.3311511
000280 30 4f fd 3c 7a bf 47 bf 51 cd ff be 4b e8 62 bf
       0.030921549 -0.78026545 -0.4996133 -0.886357
000290 60 56 2f 3f 90 3c c8 bd c3 ae 5f bc 94 c6 fe be
       0.6849117 -0.097771764 -0.013652506 -0.49760878
0002a0 47 0a 62 be 51 7d cb bd 42 39 bc 3c 15 9c 9a 3e
       -0.22074233 -0.099360116 0.022976521 0.30197206
0002b0 a7 37 ef 3e 4c 21 c0 be e3 ea 4e be e8 d7 76 be
       0.46722147 -0.37525403 -0.2020679 -0.24105799
0002c0 e0 bf 4a 3e 41 3a 64 3c 1f 92 0b 3e 37 a9 f6 be
       0.19799757 0.013929904 0.1362996 -0.48175976
0002d0 0b f0 b2 3d 09 74 2e 3e 24 0c 06 be 02 97 8a be
       0.08737191 0.17036451 -0.13090569 -0.27068335
0002e0 fa b8 54 bd f0 82 0c 3e ca 4b 19 bf 60 3a 5d 3e
       -0.05193422 0.13721824 -0.5988127 0.216043
0002f0 42 e1 dc be 95 94 9f 3f e1 1b 95 3e aa b5 dc 3e
       -0.43140608 1.2467219 0.29122832 0.4310735
000300 11 c9 dc 3d 8c b7 07 be 13 b0 c7 be 70 39 be be
       0.10780538 -0.13253611 -0.3900152 -0.37153196
000310 60 0a 54 3f e0 9c 3c be 7d bc 46 bd c8 1b bb 3c
       0.8282833 -0.18419218 -0.0485196 0.022840396
000320 1f 00 33 be 1b cc 0d bf ca 4a bc 3e a0 a9 b9 bd
       -0.17480515 -0.55389565 0.3677581 -0.090655565
000330 bb a1 f4 3d 92 be 16 bf 7b c8 41 3e 93 ab 67 3e
       0.1194491 -0.5888454 0.18924133 0.22624044
000340 32 0c f2 be 98 3e 04 3f ac 1d d3 be 58 7b 5e be
       -0.4727493 0.5165801 -0.41233575 -0.2172674
000350 07 ea df be a5 8d 2b bc 75 34 97 3e 12 75 3b 3f
       -0.43733236 -0.010470782 0.2953221 0.7322551
000360 3d 8e 18 be c5 91 66 be b6 b8 85 be 93 82 da be
       -0.1489801 -0.22516544 -0.26117486 -0.42677745
000370 6c b8 dd 3d 74 b6 63 be 4e 2e a3 be 14 0f 4e 3e
       0.10826191 -0.22237569 -0.31871265 0.2012294
000380 a9 42 04 be cf 07 16 be 90 42 96 3e d8 1d 08 be
       -0.12916054 -0.14651416 0.29347658 -0.13292634
000390 1c bf a7 bd 26 47 60 be 73 b9 bf 3d d7 0a 0d 3f
       -0.08190748 -0.21902141 0.093615435 0.55094665
0003a0 7c 5b e8 3e d8 b1 3e 3f 01 df 4a 3f f0 d6 48 bd
       0.45382297 0.7449012 0.79246527 -0.049033105
0003b0 d2 b0 b2 3e a6 7b 4b 3a fe 84 8f be e8 dd 7c be
       0.34900528 0.00077622605 -0.28031152 -0.24694026
0003c0 d7 48 28 3e ee 36 0b 3f 0b 21 67 3e ee ed 0e 3f
       0.16434036 0.5438069 0.22571199 0.558318
0003d0 61 0a d3 be 7b fa 01 3f 5c 2d 9a bd 16 ad 16 bf
       -0.41218856 0.5077283 -0.07528183 -0.5885786
0003e0 18 39 1c bf 87 7d 42 3e 58 d7 70 3d ec e6 06 3d
       -0.6102462 0.18993197 0.058799118 0.032935068
0003f0 c0 84 4b 3f 1e ed 98 3e 3d 5f a4 3e 16 51 aa 3e
       0.79499435 0.29868406 0.3210391 0.3326499

bias f4 [128]
000000 02 33 0e bf a3 9c 63 bd db fc 4d bf 1a 59 ff bd
       -0.5554658 -0.055569302 -0.8046395 -0.12468167
000010 31 03 25 bd ec d6 39 be 27 21 94 bd 92 78 b2 bc
       -0.040286247 -0.18148392 -0.07232886 -0.021786008
000020 38 ed e5 bd b2 76 93 bd 10 4d 11 be 91 c2 01 be
       -0.112268865 -0.07200374 -0.14189553 -0.12671877
000030 ca 15 8d bf 0d 37 44 be fb ff b8 be 7d c8 25 bd
       -1.1022274 -0.19161625 -0.36132798 -0.040474404
000040 8d e6 e3 bd e7 e8 df 3c 0e e1 fc be 14 ef c4 bd
       -0.111279584 0.027332736 -0.49390453 -0.09615913
000050 c9 ed e5 bd 89 b4 2c be 71 25 40 be c2 78 4c be
       -0.112269945 -0.16865744 -0.18764283 -0.1996794
000060 b2 ef ac bd aa 0c ab bd 75 3b 1b bf 4d b7 20 be
       -0.08444156 -0.08352025 -0.606376 -0.15694924
000070 04 07 f1 be e0 79 f1 bd 50 06 6e be df be 20 be
       -0.47075665 -0.11790824 -0.23244596 -0.15697812
000080 f1 6b 82 bd 4f 62 9c be 3d 7c c5 bd b2 f5 ac bd
       -0.063682444 -0.30543754 -0.09642837 -0.084453
000090 52 25 9a bd 93 21 c8 bd aa 9d a8 bc dd 9d df bd
       -0.075266495 -0.09772029 -0.020582993 -0.10918782
0000a0 8a 78 10 bf 42 69 d9 bd 66 15 0d bf cf 54 85 be
       -0.5643393 -0.106157795 -0.55110776 -0.26041266
0000b0 99 44 c1 bb 2b 42 cd be f4 da 25 bf aa 90 e8 be
       -0.00589807 -0.40089545 -0.6478722 -0.4542287
0000c0 44 ac 33 be 5d 21 e0 3b 43 0a e8 bd ce e9 4f be
       -0.17546183 0.0068399147 -0.11330082 -0.20304033
0000d0 39 a1 e2 bd b5 71 44 be df c0 8b bd 00 db e7 be
       -0.11065907 -0.19184001 -0.068238966 -0.4528427
0000e0 c6 6c 80 be 79 c7 03 be 3e 99 b8 be 05 f6 54 3d
       -0.25082988 -0.12869062 -0.36054415 0.051992435
0000f0 a3 b3 0e be 01 dd 22 bd 76 f2 bc bd 5d 15 a5 bf
       -0.13935713 -0.039761547 -0.09225933 -1.2897145
000100 a1 c2 5e be 14 dd 39 3c 45 6a 7a be e0 71 bd be
       -0.21753933 0.011344213 -0.24454601 -0.37000942
000110 4b fd 79 be 73 c4 b9 bd 56 19 56 bd 09 fc 70 bd
       -0.2441303 -0.09070673 -0.052270256 -0.05883411
000120 00 2c d0 be 59 1c 5d be 37 ec 68 be a6 81 24 be
       -0.4065857 -0.21592845 -0.22746359 -0.16065082
000130 e8 e7 50 3d c8 27 a7 be 87 b7 60 bd 93 0d 65 3c
       0.051002413 -0.32647538 -0.054862525 0.013980287
000140 d0 7a aa bd c2 5c 1f be f0 a9 61 bd 5a 0f 26 be
       -0.08324206 -0.15562728 -0.055093706 -0.16216794
000150 57 36 75 bd 95 e0 53 be 17 bc d8 bd a4 2f a1 bd
       -0.059866276 -0.2069114 -0.1058275 -0.07870415
000160 d5 55 bc bd 16 3c f7 be d6 ee 29 be 46 f5 83 bd
       -0.09196059 -0.4828803 -0.16595015 -0.064432666
000170 a9 70 3d be b3 7d 76 be a8 d2 ac be e8 1c a6 bd
       -0.18500008 -0.24071388 -0.33754468 -0.08110982
000180 b0 88 bc bd 8a 6f d8 3b d5 f4 36 be 60 c6 09 bf
       -0.092057586 0.0066050934 -0.17866834 -0.5381832
000190 8c d0 03 3b fd eb 8f be d0 c6 6f be 1c 99 87 be
       0.0020113317 -0.28109732 -0.23415685 -0.26484
0001a0 b8 d0 d6 be 40 49 80 be 9c 65 3d be 54 ab 96 be
       -0.41956115 -0.25055885 -0.18495792 -0.29427588
0001b0 98 0a 4b be 5a 39 24 bf 27 f2 e8 bc f5 9e b5 be
       -0.1982826 -0.6415001 -0.02843578 -0.35472837
0001c0 d2 f2 11 bd e1 fd 17 be ce ef 62 be 31 bd bb 3d
       -0.035631962 -0.14842941 -0.2216179 0.09166945
0001d0 5f 71 73 be 07 d5 8d bf eb 8e 08 be 7f 2e b7 be
       -0.23773716 -1.1080636 -0.13335769 -0.3577766
0001e0 78 83 7a be 02 22 37 be 24 e7 99 be 7a 9d dd bd
       -0.24464214 -0.17884067 -0.3005916 -0.10821052
0001f0 8a 93 1b bd af ec 86 be d0 91 55 be 76 9e bf 3c
       -0.0379825 -0.2635245 -0.20856404 0.02339099

weight f4 [128, 128]
000000 b8 af 8a 3c d0 c7 9a bd f7 a4 af 3d bb 8c bb 3d
       0.016929492 -0.075576425 0.085763864 0.091577016
000010 18 ba 0c 3b 3c 2c d9 bb 45 1e 81 bd e3 59 93 bd
       0.0021473225 -0.0066275876 -0.063046016 -0.07194879
000020 9a 9d b2 3d ec 51 1c 3e 46 ae 40 3c 14 77 ab bb
       0.08721466 0.15265626 0.0117603 -0.005232701
000030 07 95 57 3c 0e 9e 12 bd 55 b9 98 bd 61 7b 30 bd
       0.0131580895 -0.035795264 -0.07457224 -0.043086413
000040 12 9a 09 be 88 8a ca 3d e5 fb 31 3e 22 22 82 3d
       -0.1343768 0.09889704 0.17381246 0.063541666
000050 26 c9 52 3c 83 d4 46 bd 68 24 85 3d 14 dd 0b bc
       0.01286534 -0.04854251 0.065010846 -0.008536596
000060 95 6c 91 bd 95 0e bd 3d 73 58 73 ba 41 d9 1f 3d
       -0.071007885 0.09231297 -0.00092828943 0.03902555
000070 9d b9 c5 bd ef fa 36 3d 63 af 2d 3e b0 0d 98 ba
       -0.096545435 0.044672903 0.16961436 -0.0011600759
000080 1d 58 a5 bd b5 53 72 3b a5 52 22 3d d6 1a 61 bd
       -0.08073447 0.0036976163 0.039629597 -0.054957233
000090 15 d1 8a bc f4 60 f3 bd 27 d6 52 3d e3 87 06 3e
       -0.016945401 -0.11883727 0.051473763 0.13137774
0000a0 b2 e0 9b 3c f8 0f b8 bd 84 47 0e be 99 d2 1b bc
       0.019028042 -0.08987421 -0.13894469 -0.00951066
0000b0 50 ea 92 3d c3 65 74 3d 71 98 a9 3c ef 42 19 bc
       0.07173598 0.05966736 0.020702573 -0.009354337
0000c0 3c ea 37 bd ea 41 ff bc 28 59 f3 bd 0a d9 fb 3d
       -0.044901118 -0.03115936 -0.118822396 0.12297256
0000d0 5d 6b f5 bc 96 4e 5c 3d 03 ea 03 be af 9c 47 bd
       -0.029958421 0.053785883 -0.12882237 -0.04873341
0000e0 ed fa 6a bc 9b e8 3f 3a 51 2a 98 bd 9e 35 36 bd
       -0.014342052 0.00073207327 -0.07429946 -0.044484727
0000f0 aa bd a4 bd 0a aa 89 bd 3b 10 a6 bd e0 cb 87 3c
       -0.08043988 -0.067218855 -0.081085645 0.016576707
000100 de cd 98 3d e2 f5 52 bd b3 ad 3e 3d 33 30 2b bc
       0.07461141 -0.051504023 0.04655237 -0.010448503
000110 e4 d5 2f be 1a 06 96 bb 05 81 85 bd c8 9a 9e bc
       -0.17171437 -0.004578364 -0.06518749 -0.019360915
000120 19 b4 13 bd ce 48 78 3d 4a a9 55 3d 1f f2 cb 3d
       -0.036060426 0.060616307 0.0521634 0.0995829
000130 48 3e 91 3d 66 46 3e bc 1a 2d a6 3d f3 30 b5 bc
       0.07091957 -0.011613464 0.08114071 -0.022118067
000140 61 b3 68 3c 85 c8 60 3d 74 ed 7c bd 42 f9 9e 3d
       0.0142029235 0.05487873 -0.06174989 0.07762386
000150 17 11 cb bc b6 83 4d bd 5a 1e 07 bd 6e cf 69 bd
       -0.024788423 -0.050174437 -0.03298793 -0.057082586
000160 9f 7d 63 3d ab f8 43 bd 0b 7c a1 bc d4 f3 30 3d
       0.055539723 -0.04784457 -0.019712469 0.043201283
000170 a4 45 98 3b d9 54 e3 bc 2c 12 b5 3d af b0 b4 bd
       0.0046469737 -0.02775042 0.08841357 -0.08822762
000180 19 4f ea 3a d3 a4 70 be 3f 7e a0 bb 1b ad 7d bc
       0.0017876356 -0.23500375 -0.004897862 -0.015483166
000190 ef 3b 1e 3b c4 30 62 bd d2 14 a7 bd 13 ae 6a bd
       0.002414461 -0.055222288 -0.08158268 -0.057294916
0001a0 b8 55 00 3e 4f d2 91 3c 9d c7 10 3e 37 25 77 bd
       0.12532699 0.017800478 0.14138646 -0.060338225
0001b0 37 42 77 3d 8b 5c 18 3d b8 21 15 bd 19 7d 5b bc
       0.06036588 0.03719763 -0.03640911 -0.013396525
0001c0 f3 d9 dc 3c 76 82 00 bd a3 c6 ae 3d 45 80 48 bd
       0.026959395 -0.031374417 0.08533981 -0.048950452
0001d0 21 dd 28 3d 5e 72 94 3b 08 b5 40 bb 4b 2a 83 3d
       0.04122651 0.004530235 -0.0029404778 0.06404551
0001e0 d1 fd fe 3d e6 35 a6 bd ea 6e 8e bc 9e c3 b9 3d
       0.124507554 -0.08115749 -0.017386872 0.09070514
0001f0 c6 f0 9e 3c 94 37 dd 3d 07 a9 1e 3e 93 2e c9 3d
       0.01940192 0.10801616 0.15494166 0.098233365
000200 cc 20 24 bc d8 7e 27 bc 7a bd 85 3c 8c 07 29 3d
       -0.010017585 -0.010223113 0.016325701 0.041266963
000210 a6 02 a3 bd 74 1d a7 bc 77 26 e3 ba 2e 28 12 3b
       -0.079594895 -0.020399787 -0.0017330189 0.002230178
000220 38 1e 3b 3d b6 f7 a0 3c 8a 08 24 bd 40 d4 d1 3c
       0.045683116 0.019649368 -0.040047206 0.025613904
000230 13 1e ae 3c 05 d7 77 39 f0 89 2d 3d 5d 18 a8 bc
       0.021254575 0.00023635857 0.042367876 -0.02051943
000240 d7 4c ad 3d 3c 2a 48 bc f4 6e 4d 3d 77 39 a5 bc
       0.08461922 -0.012217101 0.05015464 -0.020169003
000250 32 89 a9 bc 23 30 34 3c 3c 25 58 bd 95 91 db bb
       -0.020695303 0.010997805 -0.052769884 -0.0067007043
000260 70 65 0a bd 70 b9 08 3c 71 e7 85 bc 7f 5e ac bb
       -0.033788145 0.008344993 -0.016345711 -0.0052602882
000270 88 1f 82 3c e6 93 07 bd 8f 3e 4f bd 59 36 0f bd
       0.015884176 -0.03310003 -0.05059677 -0.03496394
000280 63 2d db bc 40 7a cb 3c 83 4f 6a bb 98 9d a8 bc
       -0.02675504 0.024838567 -0.003575296 -0.020582959
000290 fb ee a3 bc 97 48 72 bb 0e 52 37 3d 7a a2 ec bb
       -0.020011416 -0.0036969536 0.044755988 -0.007221517
0002a0 bb d9 02 bd c4 28 81 bd c1 b1 d1 bb 46 75 f8 bc
       -0.031945925 -0.063066036 -0.0063993637 -0.030329358
0002b0 86 e4 36 3d fc a4 00 b8 e3 48 09 bc 5c ae 1c 3d
       0.04465153 -3.067123e-05 -0.008379194 0.03825222
0002c0 2d 0a b0 bd 05 e4 b7 3a 75 89 62 bc 0a 46 09 bd
       -0.08595691 0.0014029747 -0.013826718 -0.03351406
0002d0 2b a8 c2 bc 1c 60 e7 bb 63 ec b6 bc 91 2a 21 3d
       -0.02376183 -0.0070610177 -0.022329515 0.039347235
0002e0 e4 3d 86 bd d0 50 01 3d 06 f9 23 3d 56 54 a6 3b
       -0.065547734 0.03157121 0.04003241 0.0050759716
0002f0 e7 4a 20 3d 6f 27 49 3b d8 3c 2e bd d8 4d 2f 3a
       0.039133932 0.003069367 -0.042538494 0.000668732
000300 f9 71 0f bc be 17 89 bc b0 68 8c 3c 17 75 fd 3c
       -0.008755201 -0.016734954 0.017139763 0.030939622
000310 30 0f 0e bd bb 98 e6 bc 03 b3 1a bd 5f 7a 2b 3c
       -0.034682453 -0.028149 -0.037768375 0.010466187
000320 be 6a cb 3d b3 74 9e 3c 52 dd 33 bb 2a da 85 bc
       0.09932469 0.019342756 -0.002744515 -0.01633938
000330 e3 65 5a 3d a0 79 ab 3c 66 90 39 3c 69 17 a1 3b
       0.053319823 0.020932019 0.011325931 0.004916121
000340 25 76 9b 3c b8 60 4b 3c ab 36 5d bc d1 8c 4f 3c
       0.018977234 0.012413196 -0.013501803 0.012667851
000350 25 22 2e bd 35 97 9e 3d ff 76 c0 bb e7 bd 1e bd
       -0.04251303 0.07743684 -0.0058735604 -0.038755324
000360 4d c4 eb 3c 09 5d 17 3c bf 90 09 bd f0 0d 3e bc
       0.028780127 0.00923849 -0.033585306 -0.011600003
000370 3f fd c9 bd b9 03 01 bc 46 cb a5 3c 48 f8 9d 3d
       -0.09862756 -0.007874423 0.02023853 0.077133715
000380 96 87 3d bc 57 e5 e4 3c 9b fe bb 3c ba 32 dd 3d
       -0.011567971 0.027941389 0.022948554 0.10800691
000390 3d 8e 8f 3c 8f 71 25 3c 73 69 92 bc fa ea d0 3c
       0.01752388 0.010097875 -0.017872548 0.02550267
0003a0 a0 8e 0d bd b1 37 d5 bd 81 31 8b 3d 4c c0 eb 3a
       -0.034559846 -0.10411013 0.067965515 0.0017986386
0003b0 c9 c1 8e 3d 3a c6 19 3c 81 97 82 3d b8 a0 82 3c
       0.06970555 0.00938564 0.06376553 0.015945777
0003c0 34 da 4a 3d c6 66 b0 bc a4 62 9f bc fa c2 af 3b
       0.0495245 -0.021533381 -0.019456215 0.005363819
0003d0 6a 10 e3 bc 6a d2 2a bc 27 df 60 bc a7 c3 53 bd
       -0.027717788 -0.010426143 -0.013725079 -0.05170026
0003e0 c6 4d ac 3c 67 5e 99 3c 62 fe 1b bd 8f fd c4 3b
       0.021033179 0.018721772 -0.038084395 0.006011672
0003f0 ee 19 0b 3d 90 4d 5b bd b6 83 e1 bb 70 f9 00 3d
       0.033960275 -0.053540766 -0.0068821562 0.031487882

bias f4 [128]
000000 a6 23 00 bd 88 a8 ba bc a5 93 0e bd 96 b3 2f be
       -0.031283997 -0.02278544 -0.034808774 -0.1715835
000010 ce 61 c5 3c 0d 30 89 ba 62 6f 06 be 3e 40 c6 bc
       0.024094488 -0.0010466591 -0.13128427 -0.024200555
000020 1a cc 9b bc 4d 1b 15 bd 8e 3b ae ba ee 2b aa 3b
       -0.019018222 -0.03640299 -0.0013292895 0.005193225
000030 8a 91 07 bd 8d 0c 3a bc c1 a1 1d bd c3 82 ec bd
       -0.03309778 -0.011355531 -0.03848434 -0.11548378
000040 e1 67 18 bd 6f 7f d3 39 e5 54 13 bd ec a6 58 bd
       -0.03720844 0.00040340002 -0.035969634 -0.052893564
000050 36 1f e8 bc 06 1a 88 bd 32 6e a8 3b af ea 98 bd
       -0.028335195 -0.066455886 0.0051400894 -0.07466637
000060 42 3d f8 bc d2 b9 66 be d1 d6 c6 bc e4 cb b3 bc
       -0.030302648 -0.22531822 -0.024272354 -0.021947809
000070 26 0f 73 be ab 07 9d bc 83 2e f5 bb 02 eb 6d bd
       -0.23736247 -0.019168695 -0.0074823513 -0.05808545
000080 35 de e6 bc 8f 51 ff bc 94 15 41 be ee b2 6a bc
       -0.028182128 -0.03116682 -0.18855888 -0.014324887
000090 bd 5b bd bc 4c 6c a4 bc d9 df 46 bd b4 10 51 bd
       -0.023115033 -0.020071171 -0.04855332 -0.05104132
0000a0 1b 05 15 be 05 bc 37 be c7 be 1f 3d 9b bc 40 bd
       -0.14552729 -0.17942818 0.0390003 -0.04705487
0000b0 20 78 00 bd 7e 43 a0 bd ca 8d 37 be 40 cc 36 be
       -0.03136456 -0.07825373 -0.17925182 -0.17851353
0000c0 7c c7 ba bd a2 eb 0d 3d 99 85 99 bd 94 61 e4 bb
       -0.0912008 0.034648545 -0.07496185 -0.00696964
0000d0 70 eb 19 bd f6 5f 68 bd 7f fe 80 be f0 f5 4d bd
       -0.037578046 -0.05673214 -0.25194165 -0.050283372
0000e0 7b eb 09 bd 83 4a 74 bd 47 d2 7b bb a9 7a 8e bd
       -0.033671837 -0.059641372 -0.0038424896 -0.06956989
0000f0 4e ff 9b bd e6 85 8b 3c 87 7f 04 bf 92 14 08 bd
       -0.07617055 0.017031621 -0.5175709 -0.033222742
000100 bb ec b3 bc 01 58 5c ba 06 ff 0f bd 9a 13 98 bc
       -0.021963468 -0.00084054476 -0.03515532 -0.018564034
000110 51 2b fb be cd 8c 90 bd a8 1a 08 bd 96 a7 46 bd
       -0.49056485 -0.070581056 -0.033228546 -0.048499666
000120 8c 5a 70 bd ee 46 19 bc d7 2e 5f bd ab 03 ba bc
       -0.058680102 -0.00935529 -0.05448803 -0.022706827
000130 79 99 10 bd 7a 7b 74 3a 72 58 d9 bd 17 3d d4 bd
       -0.035302613 0.0009326261 -0.10612573 -0.103632145
000140 4b 3b fb bc c9 53 c2 bc 5e 77 f0 bc 19 3d d2 bc
       -0.030667922 -0.023721593 -0.029353794 -0.0256639
000150 32 26 a8 bb 5a 13 99 be ed df 81 bb 40 5f 2d 3a
       -0.0051315064 -0.29897577 -0.0039634616 0.00066136196
000160 9e e8 5a bd ce b8 db be bc b4 c3 bd 12 41 48 be
       -0.053444497 -0.42914432 -0.09555957 -0.19556072
000170 8b e7 48 bd fb b8 f2 bd 50 d0 a3 bc e1 44 8c bc
       -0.04904894 -0.118516885 -0.019996792 -0.017122688
000180 fc c2 35 be aa a0 76 bb 11 66 47 bd 3f ad 3e bd
       -0.17750162 -0.0037632384 -0.048681322 -0.04655194
000190 4d 54 e1 bc 09 73 1e be 76 75 bf bc 04 19 3a bd
       -0.027506018 -0.1547357 -0.02337144 -0.045434013
0001a0 a1 60 64 bd 79 bf c4 bd 9d 8a 40 bd 5e aa ca bd
       -0.055756215 -0.09606833 -0.047007192 -0.09895776
0001b0 0f 13 97 bd c3 29 be bd 2d 54 fa bc 93 7b 40 bd
       -0.07376682 -0.09285309 -0.030557716 -0.04699285
0001c0 99 89 91 bd fb 1c 21 bf fb 1b a7 bb 71 37 b0 3d
       -0.07106323 -0.62934846 -0.005099771 0.086043246
0001d0 9c b3 ce bc 42 0f b8 bd b0 aa a6 3c 11 3a 47 be
       -0.025232129 -0.08987285 0.020345062 -0.19455744
0001e0 88 b3 19 bd 74 ae 55 bd 36 4c 98 bd 8f ee ec bd
       -0.03752473 -0.052168325 -0.07436411 -0.11568939
0001f0 7b d9 15 bc 50 db 44 be 46 f7 14 bd b8 a6 e4 3b
       -0.00914609 -0.19224286 -0.03636863 0.0069778822

weight f4 [8, 128]
000000 2d fc 75 bc ae e5 5a bb 3e 81 9e bc f9 9e 86 bb
       -0.015013737 -0.003340106 -0.019348737 -0.0041083065
000010 b0 6c 11 bc c0 44 33 3c 17 e6 a1 3b 1f 67 1c 3c
       -0.008876011 0.010941684 0.004940759 0.00954607
000020 03 cf a2 3b e8 01 fc 3a 68 5f 27 3c 55 0c 4d 3c
       0.0049685254 0.0019226642 0.010215618 0.012515147
000030 01 24 90 ba c8 04 30 3b b4 28 3d 3b 61 05 7e bc
       -0.0010997058 0.0026858319 0.0028863372 -0.015504212
000040 ce b3 8d bc ab e2 f1 bb 51 77 a8 bb 83 35 5c bb
       -0.017297652 -0.0073817573 -0.0051411767 -0.0033601231
000050 5a 25 45 3a 6f 58 82 3b cc b6 29 ba d2 9a 77 3b
       0.00075205194 0.0039778273 -0.0006474077 0.003778149
000060 00 4a b6 3b 64 3e 9b 3b fa 99 57 3c c5 c9 c2 bb
       0.0055630207 0.004737662 0.0131592695 -0.005944463
000070 cb 53 75 bc 2f 71 04 bc 75 cb 90 3c 1d 4f 01 3c
       -0.014973591 -0.008083626 0.01767514 0.007892397
000080 c5 19 9a 3a 73 03 bd 3a 35 59 53 bb f5 02 79 b9
       0.0011756947 0.0014420584 -0.0032249216 -0.00023747592
000090 71 c8 a5 3b 0f 71 8a 3b 9a 5a fc 38 dd 1f 08 3b
       0.005059295 0.0042249034 0.00012033172 0.0020770945
0000a0 65 de 4a ba e3 0d 06 bc 24 21 00 3c 32 ec 64 bb
       -0.0007738828 -0.008182022 0.007820401 -0.0034930822
0000b0 a4 24 02 bb 91 d4 03 bb af bc 99 3a cf 95 3d 3b
       -0.0019858265 -0.0020115713 0.0011729206 0.0028928404
0000c0 2e 64 a6 bb b5 92 a4 3a d2 12 d9 3a ee 7b f7 ba
       -0.0050778603 0.0012555929 0.0016561395 -0.0018881538
0000d0 84 b9 a8 bb cc 48 47 b9 d9 8d d9 bc 2b b8 4e b9
       -0.0051490683 -0.00019005238 -0.026556896 -0.00019714299
0000e0 fe db b5 3b dd 8e 86 3a 45 53 93 bb 44 0c e6 bc
       0.0055499068 0.0010265965 -0.0044960105 -0.02808202
0000f0 f3 31 56 3c bf 99 dc 3a 90 16 13 ba af 47 72 3a
       0.013073432 0.0016830488 -0.0005610967 0.0009242249
000100 88 b8 9f bb fb b9 d8 ba f9 7a 81 bb 47 91 15 bd
       -0.0048742928 -0.0016534919 -0.003951427 -0.0365155
000110 39 79 14 bd 5c d2 32 3b 3f 2a c9 ba 00 07 a6 ba
       -0.03624842 0.0027286028 -0.0015347673 -0.0012666881
000120 2c 28 09 3b 40 b9 c2 3b 94 9a 98 bb 99 33 1a bc
       0.0020928485 0.0059424937 -0.004657099 -0.009411716
000130 c6 0e 6c 3b 21 a9 fb ba 4a 4e 83 3c 2c 1c 88 3b
       0.0036019548 -0.0019200185 0.016028542 0.004153749
000140 02 a8 b7 bb 05 9b b2 bb f8 1c fa 3a 4c 7a b6 3c
       -0.005604745 -0.0054506087 0.001908212 0.022275113
000150 ac ce 2b 3c 55 cb 38 3d 46 31 d4 bb 10 8d c2 bb
       0.010486286 0.045115788 -0.0064756004 -0.005937226
000160 7f 53 8e b9 31 ec 98 3c 76 7e 44 bc bb 50 e7 3c
       -0.0002714656 0.018667312 -0.011993041 0.028236737
000170 12 26 9c 3b 1f 55 d3 bb e7 ba 4c bb b8 7f b2 ba
       0.0047652805 -0.006449356 -0.0031239332 -0.0013618385
000180 16 a9 6e bc 71 b0 22 bb 96 ec 18 3a 79 f9 d1 39
       -0.01456668 -0.0024824406 0.0005833594 0.00040049458
000190 a9 ce 2a 3c ce 81 f3 ba 6c 01 8e 3b 49 c0 9e bb
       0.010425248 -0.0018578114 0.0043336656 -0.0048446995
0001a0 69 32 d6 3b 3a ef 83 b9 66 f3 ce ba c9 31 c8 3b
       0.006536771 -0.00025164505 -0.0015789091 0.0061094505
0001b0 b7 66 14 bc 86 8e 53 bc 33 09 24 3c f6 75 89 bc
       -0.009057692 -0.012912398 0.010011959 -0.016779881
0001c0 17 3e 0d 3c 74 02 ab 3c 9f 00 17 3c 08 f6 13 bc
       0.00862076 0.020875193 0.009216457 -0.009030826
0001d0 a4 35 db b9 fb 22 f7 3b 96 30 d5 bb e5 e7 48 3c
       -0.000418109 0.007542012 -0.006506036 0.012262319
0001e0 3a 01 c8 3a 19 fe 0b 3c c1 bc 92 3a 38 93 04 3d
       0.0015259155 0.008544468 0.0011195169 0.03236696
0001f0 74 c0 1a bc e4 5b 4c 3c c9 b0 c3 3b 6d e1 a2 39
       -0.009445298 0.01247308 0.005972002 0.00031067003
000200 3d c5 2d bc 94 8a 06 bc a4 5f a2 bc 57 86 15 3c
       -0.010606107 -0.008211751 -0.019820996 0.009126267
000210 e5 c4 0d 3c 6f df 75 3b 8e a8 cf 3b 5b 43 36 bc
       0.0086529 0.003751721 0.006337232 -0.011124457
000220 0c f6 92 bc 8d f2 25 3a b4 85 28 bc ed 3e 93 ba
       -0.01793959 0.00063303934 -0.010285784 -0.0011233963
000230 9e ad 61 bb e0 86 2f 3b b9 f2 71 bb 51 e9 5d 3c
       -0.003443576 0.0026783273 -0.0036918356 0.0135443965
000240 b6 fa 23 3c 69 5c 06 bc 49 dd 8a bb 63 b6 12 3c
       0.010008505 -0.008200743 -0.004237805 0.008954617
000250 d4 55 c9 bb 6a 74 22 3b 63 a6 d5 ba 8b 48 03 bc
       -0.0061442647 0.0024788626 -0.0016300197 -0.008012901
000260 1f 62 95 3c 10 e7 04 3d 7f 6d a4 bb af ae 70 bb
       0.018235264 0.03244692 -0.0050179358 -0.0036725213
000270 75 0d 91 bc a1 c9 2f bc ef d7 27 3c e6 f4 87 bc
       -0.017706612 -0.010729224 0.010244354 -0.016596269
000280 7c 3c 8d bb 18 eb 47 bb 93 b3 af 3a 9a 1d 08 bc
       -0.004310189 -0.0030505117 0.0013404958 -0.008307839
000290 c3 74 18 bc 82 68 64 3c 21 f8 c2 3c cc ce 94 3c
       -0.009305182 0.013940932 0.023799958 0.018165015
0002a0 13 8b ed 3b 13 73 74 3c 2d fb 91 bc 07 32 23 bb
       0.007249245 0.014920014 -0.017819965 -0.0024901645
0002b0 b8 f2 5b 3b 8e ee ab bc 5e a9 8e 3b 24 af 95 3c
       0.003356142 -0.020987775 0.0043536862 0.01827199
0002c0 e1 2d 66 3c 9f dc 5b bc 73 14 6b 3b ff 04 9b bb
       0.014049024 -0.013419299 0.0035870343 -0.00473082
0002d0 00 2c 12 bb c3 f1 37 3b b3 14 10 bc 1b 55 80 bb
       -0.0022304058 0.0028067685 -0.008793998 -0.0039163954
0002e0 a3 f8 9e 3c ca 19 d0 3b 34 03 09 3c c8 aa 0b bc
       0.019405669 0.0063507305 0.00836258 -0.008524604
0002f0 86 05 96 bb e1 71 89 3b 67 2c cb 3b 0d a8 8d b9
       -0.004578295 0.0041944836 0.0062003615 -0.00027018823
000300 60 fd 23 bc fe a3 29 bc 64 57 2e bb 13 01 fc bb
       -0.01000914 -0.01035404 -0.0026602382 -0.0076905577
000310 2d 85 04 3c e6 c3 13 3c 15 b5 d0 3c ac 7f de bb
       0.008088392 0.009018874 0.025476972 -0.006790122
000320 d3 44 25 3b 74 21 5f bb 24 08 c2 3b f1 63 30 3b
       0.0025218024 -0.003404704 0.0059213806 0.0026915038
000330 30 bf 25 3c 56 e6 b3 b8 33 df 6c bb 06 d6 05 3b
       0.010116383 -8.5782885e-05 -0.003614378 0.0020421757
000340 ca 58 60 bc 50 a2 08 3b dc ae 28 3c b3 0f 0d bc
       -0.013693044 0.00208487 0.010295596 -0.0086097
000350 af 1c 09 3c 5b f1 57 3c b8 46 89 bb a5 54 8c 3a
       0.008368655 0.013180102 -0.0041893385 0.0010706378
000360 a3 b9 8e bb e8 1f bd 3c ea 5b b7 3c d7 c0 df bc
       -0.0043556257 0.023086503 0.022382695 -0.027313633
000370 ed f1 34 3c 2d 31 6a bc 19 2b 81 3a 1f 6d d3 bb
       0.011044008 -0.014293951 0.0009854763 -0.006452217
000380 a4 30 83 ba d6 18 36 ba f6 e0 8f 3b fe 02 39 3b
       -0.0010009003 -0.000694645 0.004390831 0.0028230543
000390 5c a3 96 b9 17 cf de bc b0 99 0e 3c bd 1a 94 3a
       -0.00028731942 -0.027198358 0.008703634 0.0011299473
0003a0 13 93 b4 3b 66 e7 55 bc ae 6b f8 b9 1b a0 b9 bc
       0.0055106967 -0.013055658 -0.00047382474 -0.022659352
0003b0 b7 c7 fd 3b ea e7 5d bc 55 87 8a bc 6d a4 04 3d
       0.007744755 -0.013544062 -0.016910234 0.03238337
0003c0 b2 b4 6b bb ef 09 79 bc 72 18 b7 bb 7a 3b 94 3b
       -0.0035965857 -0.015200122 -0.005587631 0.0045236917
0003d0 fa 95 89 3c 3d f9 46 3c c8 7f 48 bc 22 9d 74 ba
       0.016795147 0.012144384 -0.012237497 -0.0009331276
0003e0 05 8b 5a bb a6 94 4e bc 0b 0a d7 3b 94 ab 75 bb
       -0.0033347022 -0.012608683 0.0065624765 -0.0037486302
0003f0 cb 6e 5e 3c 1a ba 69 bc a4 9e 2f bb 34 a3 7f ba
       0.01357622 -0.0142655615 -0.0026797438 -0.0009751797

bias f4 [8]
000000 4a 71 4c 3d ac 5f 48 bd 26 fe 09 3e 06 94 82 bd
       0.04991273 -0.048919365 0.13475856 -0.063758895
000010 d4 78 49 bd 99 6e 98 bc 99 57 c8 3d 18 ad 2a 3d
       -0.049187496 -0.018607425 0.09782333 0.04166898
