deploy/models/booster_gym_v2/model_4000.pt (torch, 298238 bytes, 8 tensors)

weight f4 [256, 80]
000000 89 d6 56 be b4 96 62 3e 95 33 41 bd 3c 6a aa 3d
       -0.20980276 0.22127801 -0.047168333 0.08321044
000010 e6 5a 63 3d 85 38 55 3c a2 a8 e0 3d 71 f1 b0 3d
       0.05550661 0.013013964 0.10969664 0.08639801
000020 55 eb 85 bd 5e 12 dc 3d b1 f7 e1 3c 9d 0c 3d bd
       -0.06539027 0.10745691 0.027583929 -0.046154607
000030 27 48 83 bd a3 52 40 bc 74 c9 1f bd ea 89 2b 3b
       -0.06410246 -0.011738452 -0.03901048 0.0026174732
000040 85 3a 6c 3d 10 6a f2 bb 98 be 3f 3d 24 90 15 3d
       0.057672996 -0.0073978975 0.046812624 0.036514416
000050 e9 29 18 bd 5b e7 80 be c6 17 a4 be e2 4a 98 be
       -0.037149344 -0.2517651 -0.32049388 -0.2974463
000060 25 12 40 3e bb a6 82 bd 92 c0 19 3d 5a 17 02 be
       0.18756922 -0.063794576 0.037537165 -0.1270422
000070 3e 21 cb be f1 a9 a0 be 22 20 60 bc 37 38 3c be
       -0.396738 -0.31379655 -0.013679536 -0.1838082
000080 a1 d2 9e bd e3 bd fd 3d 00 4e e2 3d d5 87 ca bd
       -0.07755018 0.12389734 0.110500336 -0.09889189
000090 0e 50 05 be 3b e9 01 3d 9d 59 85 3d 66 79 d4 3d
       -0.1301882 0.031716567 0.06511233 0.103747174
0000a0 06 3e 0e bd d6 27 a1 bd 81 40 c0 3c a8 56 60 be
       -0.03472712 -0.07868926 0.023468258 -0.21908057
0000b0 f8 67 3a 3e e9 d5 dc 3e 4c 2e b5 3c 69 2f cd bc
       0.18203723 0.4313195 0.022116803 -0.025047021
0000c0 94 e3 92 3e ae 14 e8 bc 22 b4 1e bd d4 44 35 3d
       0.28689253 -0.028330173 -0.038746007 0.044255093
0000d0 42 8b c2 3e e8 61 07 be 04 fe 2f 3c be 99 29 bb
       0.3799687 -0.13220942 0.010741714 -0.002587899
0000e0 28 09 9a 3d 60 69 4c bd 9a e0 7e 3d 73 7f b0 bc
       0.07521278 -0.04990518 0.062225915 -0.021545148
0000f0 1f 0b 76 3c 29 b6 18 be 08 e8 3b 3d 07 ca 0c bc
       0.0150173 -0.14913239 0.04587558 -0.008593089
000100 37 47 8e bd e6 a9 a8 bb 2c 59 92 3b fe 34 b4 3e
       -0.06947177 -0.0051472066 0.0044661965 0.3519668
000110 50 39 fc 3d 45 70 98 3d b1 58 16 3e d2 98 15 be
       0.12315619 0.07443289 0.1468227 -0.14609078
000120 d1 17 42 3c 17 28 f0 3c 1e 9a 54 3e eb 86 59 3e
       0.011846499 0.029315991 0.20761916 0.21242873
000130 85 a2 e5 bc 33 e5 29 bb 46 64 6f bd 8d b8 5e 3d
       -0.028031597 -0.0025923967 -0.058445238 0.05437522
000140 d7 23 88 be 47 6d 70 3e c6 d5 4e be 5b 36 bf bd
       -0.26589844 0.23479186 -0.20198736 -0.09336539
000150 10 09 fe 3c ba a5 0a 3c 77 5d 6b bd 32 6d 9b bd
       0.03101018 0.008462364 -0.057462182 -0.07589187
000160 c8 26 56 3d 72 e6 2a bd 61 dd c4 bd 57 28 86 bd
       0.05228308 -0.041723676 -0.09612537 -0.06550663
000170 d8 18 a9 3d cc fe f0 bc 46 b8 ab bc c6 2e 27 bd
       0.08256692 -0.029418372 -0.020961892 -0.04081609
000180 9c 22 aa bd c3 21 6d 3d f5 99 a3 bd b9 3c 6a b8
       -0.083073825 0.057893526 -0.07988349 -5.58465e-05
000190 05 5d 37 bd 02 22 c4 be 5c 14 4a 3d 95 bf 8d be
       -0.044766445 -0.38307196 0.049335822 -0.27685228
0001a0 70 6f bf be 3f bf fe 3d e2 55 0b bc d5 1b 9d bd
       -0.37389708 0.12438821 -0.008504363 -0.07671324
0001b0 35 58 72 3e 31 6a 4d bf aa d8 31 3c e7 81 a2 3e
       0.23666461 -0.8024016 0.010854879 0.31739733
0001c0 5f de bb be 27 06 31 bd 5a 0d 8b bd bc 1a a4 3c
       -0.36693093 -0.043218758 -0.06789656 0.02003228
0001d0 30 3a ac bb 11 2b c8 bb 7c 55 83 3d 6e c8 63 3d
       -0.00525596 -0.0061086495 0.06412789 0.055611067
0001e0 37 79 a1 3b 1f 6f 3d 3e d8 43 75 bc 35 2a dd bd
       0.00492778 0.1849942 -0.0149697885 -0.10799066
0001f0 df 0b fe bc 23 9d e0 3e e4 67 8d be fe 9c f9 bd
       -0.03101152 0.43869886 -0.27618325 -0.12188147
000200 5b 9d 36 3e f2 f1 88 3d 77 cd 48 bd bd cf 09 3c
       0.17833464 0.066867724 -0.04902407 0.008411345
000210 78 29 e4 bd 9e 72 b4 bd 8e 96 82 3d c1 f0 99 3d
       -0.11140722 -0.08810924 0.06376372 0.07516623
000220 17 eb c7 3c 6d ba c3 3d 26 73 65 3d 19 36 9f 3d
       0.024404092 0.09557042 0.056018017 0.0777399
000230 0d 0b 0b 3c f4 76 bb bd dd b7 c1 3c 58 16 65 bd
       0.008486521 -0.09153548 0.023647243 -0.05592951
000240 cd c3 00 be 03 8b 3c bd 00 1a a3 3d 61 9b 11 bd
       -0.12574692 -0.04603101 0.079639435 -0.03554857
000250 31 4c 69 3a 75 e4 24 3e 6e 8e 05 3e 3e bf 75 3e
       0.0008899598 0.16102774 0.13042614 0.23998734
000260 fa b0 6f 3d c6 15 a5 3d 70 6c b0 3d 4a d8 76 3e
       0.058518387 0.080607936 0.08614433 0.24105945
000270 a0 4c 19 3e 15 42 26 3c 77 f7 5f ba 88 b5 18 be
       0.14970636 0.010147591 -0.000854365 -0.14912999
000280 0b ac 23 3f 98 1f ab be 8b 1e fb 3d df bc f8 bc
       0.6393439 -0.33422542 0.12261685 -0.030363498
000290 ce d7 c1 bd 13 95 b3 bc 55 3f 1d bd 59 36 eb bc
       -0.094649896 -0.02192167 -0.038390476 -0.028712438
0002a0 a3 e4 e5 3c e2 90 d5 3d ca fa 2f bc 47 48 ac bd
       0.028063124 0.10428025 -0.010740945 -0.08412223
0002b0 ef 6f e8 bd eb 30 8c 3d 09 74 cd 3d c0 4e 42 bd
       -0.11349475 0.06845268 0.100318976 -0.047438383
0002c0 19 76 ae 3c a6 f5 e2 bd 29 19 08 3e 80 72 69 3d
       0.021296548 -0.1108201 0.13290848 0.05699396
0002d0 bc 63 21 3d a9 de 4e 3e bb 3c ee bd 7c c9 b6 be
       0.039401755 0.20202126 -0.11632677 -0.35700595
0002e0 d8 27 69 be a5 ab 23 bc 1a e9 6b 3d 3c 35 12 3e
       -0.22769105 -0.009989654 0.05759535 0.1427812
0002f0 b3 ef 32 be 92 56 a7 3c 24 06 8b 3c bd d2 84 be
       -0.1747425 0.020427022 0.016970702 -0.2594203
000300 13 fe e7 3d 0f 73 29 bd 2b 17 69 3c f4 3b da bd
       0.11327758 -0.041369494 0.014226715 -0.106559664
000310 f8 42 c4 3c b3 8b a1 bc bb be a3 3d 1e 76 1d be
       0.023957714 -0.019719934 0.07995363 -0.1537709
000320 6e 6e 46 3d b6 65 7b be 79 19 c1 bc a2 2a 19 3e
       0.048445158 -0.24550518 -0.023571717 0.1495767
000330 f6 14 03 3d cc fe 28 3d b5 ad 0e 3e 27 17 d3 bd
       0.03200241 0.04125862 0.13933451 -0.1030715
000340 f2 6a 2b bb da 95 4e 3b c9 38 2c bd ae 7d bb be
       -0.0026156274 0.0031522424 -0.042046342 -0.36619323
000350 d1 a4 f4 bd 38 4f f7 bc c9 f3 e3 bd 12 db f8 3b
       -0.11945499 -0.030189142 -0.11130483 0.0075944746
000360 fa 6f 0b bd 25 11 05 bd 30 dc 7b 3d ff 52 dd 3d
       -0.034042336 -0.032487053 0.061489284 0.10806846
000370 ae e7 d7 3b e9 2b 94 3d 75 5e b3 bd d3 6b 91 3d
       0.0065888977 0.07234938 -0.087582506 0.07100644
000380 29 96 46 bc 54 6d bd 3d 9b 57 28 3d ec ea a7 3d
       -0.012120762 0.09249368 0.041099172 0.08199105
000390 f6 9e 0d 3e 74 11 55 3e 9b f4 eb 3d c3 f6 34 be
       0.1383017 0.20807439 0.11521264 -0.17672257
0003a0 f3 fe 21 be 12 56 43 be c0 ab f6 3c 4c c8 92 3d
       -0.15819912 -0.19075802 0.030111194 0.0716711
0003b0 82 65 4c 3d 30 32 56 3d 28 7d 2e bc da d9 ac bd
       0.049901493 0.052293956 -0.010649957 -0.084399894
0003c0 5e 8b 6d bf 76 d3 f2 3e 05 7a 83 3c 9f 94 3f bd
       -0.9279078 0.47426957 0.016049394 -0.046772595
0003d0 f9 46 e6 bd bf 1b 04 3c 6c f0 8b bd 73 d1 dd 3d
       -0.11244006 0.008063256 -0.06832966 0.10830965
0003e0 af 8c 92 bd 47 9a 0c 3d e1 4c d6 3d b3 74 12 bb
       -0.071557395 0.034326818 0.10463882 -0.002234739
0003f0 90 02 3b be 73 4b ee 3c 18 d4 7a 3d 6d ca 86 bd
       -0.18262696 0.029088711 0.061237425 -0.065815784

bias f4 [256]
000000 13 3c cc bd 22 68 94 3d bc 5a 01 3d cb 4c 14 3e
       -0.09972396 0.07246424 0.03158067 0.14482419
000010 06 7a 66 3d 8a a9 6a 3d 57 48 9a bb c3 87 91 bd
       0.056268714 0.05729059 -0.0047083306 -0.071059726
000020 e2 3f 42 3d 42 ef 82 3b e6 5e 20 bd 25 46 23 be
       0.047424205 0.003995807 -0.039153002 -0.15944727
000030 b5 71 17 3e 6a b9 c9 bd fb a4 0c bd 10 db 83 3c
       0.1478947 -0.09849818 -0.034337025 0.016095668
000040 c9 1b 73 bd d1 56 8c 3d 2c 5c 08 3e a6 92 af bd
       -0.05935267 0.068524964 0.13316411 -0.08572893
000050 46 32 af 3c c8 8a 8c bc 72 a2 d8 3d 9e e6 47 be
       0.021386277 -0.01715602 0.10577859 -0.19521567
000060 e8 56 b8 3c 3a a1 93 3d a9 c4 43 3e cb 04 09 3d
       0.022502378 0.07208486 0.19117989 0.033451837
000070 c5 c9 1d 3e cf 89 ce bd 02 cc 9c bc 3e fe 71 be
       0.15409 -0.10084879 -0.019140247 -0.23632142
000080 d8 7b e3 3c da e3 71 3d a5 99 9a bb 8e d8 27 be
       0.027769014 0.059055187 -0.004718023 -0.16391203
000090 2a 98 b7 bd 66 9d 84 bd a7 83 d7 bd 7d 89 55 3d
       -0.0896457 -0.06475334 -0.105231576 0.052133072
0000a0 c9 aa a9 3d 49 d8 3c be 47 8e 76 3a e6 37 0f 3e
       0.08284528 -0.18441881 0.0009405356 0.13986167
0000b0 00 31 9a 3d 4c b9 74 bc 0d 56 d9 3d 38 b0 13 3e
       0.07528877 -0.014936756 0.10612116 0.14422691
0000c0 29 3e 93 bd e3 0c dd bd 7e c9 d6 3d ac fd 80 bd
       -0.071895905 -0.107934736 0.1048765 -0.06298384
0000d0 c7 6d b3 3c d3 5d 71 bd 44 3f 75 bb 59 51 9d 3d
       0.021902932 -0.05892737 -0.0037421742 0.076815315
0000e0 a2 d1 91 bd 5e ff 84 3d ca f7 b3 bd d6 ab c3 ba
       -0.071200624 0.0649402 -0.087874964 -0.001492853
0000f0 23 16 5b 3c 2b c4 a4 3c 4f 74 e2 3d 95 7f cf 3d
       0.013371977 0.020113071 0.1105734 0.10131756
000100 fa 66 fb bd 08 fc 58 3d 76 17 0b 3e 66 0e 2a be
       -0.122755006 0.05297473 0.13583168 -0.16607055
000110 73 30 7a 3d 35 74 a8 3d 30 8b 7c bd 90 04 78 3c
       0.06108136 0.0822529 -0.061656177 0.015137807
000120 d0 a6 41 bb 50 f2 1f 3d 73 8a 04 3e bb 56 45 bd
       -0.002954889 0.039049447 0.12943439 -0.048178416
000130 4a 23 5b 3b 69 33 67 3d 81 e0 d7 bd 1d a4 89 3d
       0.0033437782 0.056445513 -0.105408676 0.06720755
000140 f5 f0 cb bd f9 c8 20 3e 56 5a b3 bd 7f 32 b8 3d
       -0.09958068 0.15701665 -0.087574646 0.08994006
000150 f2 50 b3 3d 41 b9 8c 3d 70 c3 3e bd 8e 3f c3 bd
       0.087556735 0.06871272 -0.046573102 -0.095336065
000160 04 49 5b 3d d0 97 9b bd 77 eb e7 3c d9 ec 58 bc
       0.05353643 -0.07597315 0.02831052 -0.013240063
000170 b8 5e a8 bd 33 80 89 3d ea 5d 25 be 3a 33 da bd
       -0.08221191 0.06713905 -0.16149107 -0.10654302
000180 67 c2 98 bd d9 e5 06 be 14 62 dc 3d b0 79 b8 3d
       -0.07458954 -0.13173617 0.107608944 0.09007585
000190 ba 8e c9 3d 1d 34 99 3d a8 84 c2 bd af 41 fc bd
       0.09841676 0.07480643 -0.094979584 -0.12317216
0001a0 ca 5d 92 3d 97 52 02 be 84 7d da 3c 37 db 0e be
       0.07146795 -0.12726818 0.026671179 -0.13950811
0001b0 8f 49 72 3c 72 1c 8b bd 09 05 04 3c 91 38 cb bd
       0.014788046 -0.06792535 0.008057841 -0.099228986
0001c0 fd 21 1d 3e 63 45 1f 3e 15 24 a8 bd 85 19 d1 3d
       0.15344997 0.15553813 -0.08210007 0.102099456
0001d0 69 78 99 bc a9 b4 e5 bd ba 6b 6a 3a 14 9d 19 be
       -0.018734174 -0.11216099 0.0008942444 -0.15001327
0001e0 6f 28 96 3d 58 ab 84 3c 1d 92 29 3d db 00 c1 3d
       0.07331931 0.016194984 0.04139911 0.09423991
0001f0 9a 8b 17 3d b8 cb e9 bc 9e 5c 8f bd a7 94 7f 3d
       0.03699837 -0.028539523 -0.07000087 0.062397625
000200 fd 9e d2 3a 51 4e 55 3c fa 6e e0 3c 70 27 d0 3c
       0.0016069111 0.01301916 0.027396668 0.02540943
000210 16 0a e8 bd 79 df b1 bd 5e 81 fd bd 47 b0 42 3e
       -0.11330049 -0.08685202 -0.123781905 0.19012557
000220 e8 3f a9 3d f1 c0 13 3e db 88 10 bd 7a 05 1c bd
       0.08264142 0.1442907 -0.035286766 -0.03809116
000230 88 a9 0c bc 78 53 05 3d af c8 97 3c cf a9 4d bd
       -0.008585341 0.032550305 0.01852831 -0.05021077
000240 a6 93 e5 bc 9c cc 6f bd d8 70 5a bd b8 c9 4f bd
       -0.028024506 -0.05854474 -0.053330272 -0.050729483
000250 20 1b 01 3d e2 d8 6a bd 5c b6 8f 3d 37 6a 05 3e
       0.03152001 -0.05733574 0.07017204 0.13028799
000260 e0 c4 98 bb a5 93 26 bd 4f a8 34 bd 60 06 0c 3d
       -0.004662141 -0.04066815 -0.044105824 0.034185767
000270 92 1b da 3d b0 8f 90 bc 91 62 05 be 26 19 83 3d
       0.1064979 -0.01764664 -0.13025881 0.06401281
000280 c8 33 e6 bd 8c 5f 2c bd 8c 57 8b 3d e8 08 03 3e
       -0.11240345 -0.042083308 0.068038076 0.12796366
000290 da 8d d5 3d 54 32 14 3d 30 d9 8a bd 26 3d 16 be
       0.10427447 0.03618081 -0.067797065 -0.14671764
0002a0 d4 c4 5a 3d 63 63 94 bd 5c 90 83 3b 88 e5 25 3d
       0.053410366 -0.07245519 0.0040150117 0.0405021
0002b0 28 7a 45 bd 89 55 90 3d 7a 45 db 3c b2 2c d1 3d
       -0.0482122 0.070475645 0.026766527 0.10213603
0002c0 be a8 20 be 08 ea 66 bb 9b 5e cd 3d 0a 06 d7 3c
       -0.1568937 -0.0035234708 0.1002781 0.026247997
0002d0 9e 74 7f bd 35 34 18 bd ec fc 9c bd c0 c5 87 bb
       -0.062367074 -0.037159164 -0.076654285 -0.0041434467
0002e0 56 65 48 bd ae 65 83 bb f9 27 4d bd 34 d4 0d 3d
       -0.048924766 -0.004009924 -0.05008695 0.0346262
0002f0 ac 5a 90 3d 41 f0 14 3c f0 8b 40 bd 05 9b 98 bd
       0.07048544 0.009090484 -0.047008455 -0.07451443
000300 6c e0 ab 3c 84 65 a6 bd f9 41 ed bd 84 6a 8f bd
       0.020981036 -0.08124831 -0.11584849 -0.07002738
000310 1e 8a f1 bd 3a 1f b8 3a e4 97 d4 3c da 96 d6 bd
       -0.11793922 0.0014047392 0.025951333 -0.104779914
000320 1d 0e d2 bd 2e 7b cc 3d 6a 92 2f bd 00 bf 56 bd
       -0.10256598 0.09984432 -0.04286424 -0.052428246
000330 68 c1 5b 3d 5b 51 6c bc 5b c7 f8 3c 21 90 e6 3b
       0.053651243 -0.0144236935 0.030368498 0.0070362245
000340 36 22 23 3e 0b 11 dd 3b b7 a7 ad bc d9 fb b7 bd
       0.15931019 0.0067464164 -0.021198137 -0.08983583
000350 01 b8 39 3d ad db b8 bd ac f8 65 bd 90 96 3a 3d
       0.045341495 -0.09026275 -0.056145355 0.045553744
000360 5d d6 69 3d 3d 07 68 bd 4e b2 ce bc fd b2 36 3d
       0.0570892 -0.056647528 -0.025231507 0.04460429
000370 d4 ce 49 bd f3 5e ee bd ad e0 eb 3c d9 3b 33 3d
       -0.049269512 -0.11639204 0.028793657 0.043758247
000380 11 b5 f7 bc 31 30 f1 bd 34 d6 33 bc 39 0d 88 bd
       -0.030237706 -0.1177677 -0.010976363 -0.06643147
000390 ad 86 96 bd 62 21 22 3e d2 07 02 bc c0 41 fd 3d
       -0.07349906 0.15833047 -0.007936435 0.123660564
0003a0 9f 06 bb 3a e9 1c ae 3c f7 a6 3e bd 48 7d 49 bd
       0.0014268941 0.02125402 -0.04654595 -0.049191743
0003b0 0b 10 61 3d c6 ba c5 bd be 6a 1b 3c d4 88 cf 3d
       0.05494694 -0.09654765 0.009485899 0.1013352
0003c0 e8 f8 1a bd bc 6f 6a bd 90 3b a9 bc c5 47 3e bd
       -0.03783503 -0.057235464 -0.020658284 -0.046455164
0003d0 ac 7a a4 3d 20 cf 6e 3c 06 29 3f bd 44 03 51 bd
       0.0803121 0.01457575 -0.046669982 -0.051028505
0003e0 a6 c6 cf bd da a2 32 be d1 c7 2e 3d b9 ef 66 bd
       -0.10145311 -0.17444935 0.04267103 -0.05638096
0003f0 d8 60 b5 bd c6 cb 44 bc 91 8b 0d be e7 73 12 3d
       -0.08856362 -0.012011474 -0.13822772 0.035755064

weight f4 [128, 256]
000000 ce bb 0c be de 49 63 3d 07 ae 8f 3c 38 b1 e4 3d
       -0.13743517 0.055490367 0.017539037 0.11166614
000010 32 ca a0 3d 32 b7 10 3d 0d 3a 1a bc ae b8 06 bd
       0.07851066 0.03533096 -0.009413254 -0.032890968
000020 6e b5 cf bd 96 72 94 3d 01 df b1 bd 89 78 9d bd
       -0.10142027 0.07248418 -0.08685113 -0.07689006
000030 77 80 35 bd aa bd 96 3d 24 d7 da 3d f1 7e b4 bd
       -0.044311967 0.07360394 0.10685566 -0.08813275
000040 f0 5a bb bd 90 54 9a bd 1d 4d 97 bb 9d c2 ed 3d
       -0.09148204 -0.0753566 -0.004617347 0.11609385
000050 a4 51 86 be 20 e1 f4 bd b1 58 62 bd 55 16 ca bd
       -0.26234162 -0.11957002 -0.055260364 -0.09867541
000060 34 4c 23 be c9 64 1a be 15 5a 81 3d 33 e6 2c bd
       -0.15947038 -0.15077509 0.0631601 -0.042211723
000070 8e 6c 30 3d b2 81 4a 3d 63 f0 04 3e 03 33 51 bd
       0.043072276 0.049440093 0.12982325 -0.05107404
000080 95 2e b0 3d 7a 18 a2 3c 10 3c e9 3d ed 10 b1 3d
       0.08602635 0.019787062 0.11388409 0.086458065
000090 9c 15 30 bd 62 60 cd 3d 99 fe 5c 3d c6 47 96 3d
       -0.04298936 0.10028149 0.05395374 0.073379084
0000a0 63 52 99 3c 16 58 09 bd 80 62 16 be 05 6e a6 bd
       0.018716043 -0.03353127 -0.14686012 -0.08126453
0000b0 36 0e b1 bd dd e2 4c 3d 58 ac 1a 3d ba cd 06 3b
       -0.08645289 0.05002104 0.037762016 0.00205694
0000c0 08 b7 9a 3d 5c c3 08 3c 41 dc 89 bd 3e 15 b2 3c
       0.07554442 0.008347359 -0.06731463 0.021738645
0000d0 bb c5 2d 3d f5 79 cc bd 03 c9 45 3d 7a 98 cf bd
       0.0424249 -0.09984199 0.048287403 -0.101365045
0000e0 4d 20 48 be 06 c7 f1 3d 57 fc 0e 3e 1f 13 11 be
       -0.19543572 0.11805539 0.13963448 -0.1416745
0000f0 fc 62 4c bd 70 3f da 3d 98 2e d5 3c 16 0e a3 bc
       -0.049899086 0.10656631 0.026023194 -0.019904178
000100 58 5b 9e bd 37 97 ee bb d1 ee 12 be d6 75 23 3d
       -0.07732266 -0.00728121 -0.14348914 0.0399073
000110 2c 6e 14 3d b4 69 20 3d a5 d3 11 3d 8d cd e7 3c
       0.03623788 0.039163306 0.03560223 0.028296256
000120 ec 8f af 3d 57 d4 2d bd f5 cb f6 3d d7 23 31 3e
       0.08572373 -0.04243883 0.120506205 0.17298828
000130 8f 0f f5 bc c1 44 77 bc eb 26 16 be 16 92 1c be
       -0.029914645 -0.015092076 -0.14663284 -0.15290102
000140 ee ac b4 3d 1b c7 58 bd 62 e8 0b 3e d8 93 d6 3b
       0.08822046 -0.052924257 0.13662866 0.006548386
000150 0b 48 16 bd f4 a4 bc bd 7c ee ea bd d5 86 85 bd
       -0.0366898 -0.0921115 -0.114712685 -0.06519858
000160 5c 86 40 bd 8c 69 d1 bc 0a 0b 5f 3c 75 04 91 bd
       -0.047003135 -0.025563024 0.013613472 -0.07080928
000170 90 be 33 bc 87 c2 e4 3c 43 b5 86 bc 57 b1 84 3d
       -0.010970727 0.02792479 -0.016443854 0.064791374
000180 3d 60 f1 3d 5e 9a 42 3e 12 05 c9 3d 07 49 c5 bd
       0.11785934 0.19004199 0.0981542 -0.096330695
000190 a6 01 0d 3b f0 92 b1 3d 4f 40 9f bd e3 26 b0 3c
       0.0021515875 0.08670604 -0.07775938 0.021502918
0001a0 13 55 02 bd 3a f1 f2 bc fb b5 43 bc 33 6d c6 bc
       -0.031819414 -0.029656041 -0.011945243 -0.024221992
0001b0 1a db 09 3d b2 9c 05 be 80 1f 28 3d eb f9 b6 3c
       0.033656217 -0.13048056 0.041045666 0.022335967
0001c0 9d b8 c8 3c d0 e2 a2 3c 8f fd db 3c 23 ca ef bd
       0.024502093 0.019883543 0.026854305 -0.117084764
0001d0 3d 7c 3f 3e cc c0 22 bc bd bd a8 bd de 95 0c 3d
       0.18699737 -0.009933662 -0.08239315 0.034322612
0001e0 9f eb a2 bd 4e 24 3b be 28 76 80 bc b7 b9 8f bb
       -0.079550974 -0.18275568 -0.015681341 -0.0043861526
0001f0 31 3d 5b 3d 06 19 87 bd dd 0d 9b 3d a8 2c 2a bd
       0.053525154 -0.0659657 0.075710036 -0.041546494
000200 4f 17 fc 3d f4 e8 2c be 96 b8 24 be 00 5c bc bd
       0.12309133 -0.1688574 -0.16086039 -0.09197235
000210 f2 40 a5 3d dc fb d6 bc 5b e4 79 3a c4 4a a1 3c
       0.08069028 -0.026243143 0.0009532624 0.019688971
000220 bf f5 12 3d af 47 19 be c1 7d e2 3c 97 59 46 bd
       0.035878893 -0.14968751 0.027647855 -0.048425283
000230 63 c1 9a bd 7f 6c 9c 3e 3f b2 8b bd 66 f7 0d be
       -0.07556417 0.30551526 -0.06821107 -0.13863906
000240 36 0e 10 3d 20 78 1e bc ff ab e8 bc 07 45 34 3e
       0.035169803 -0.009672195 -0.028402327 0.17604457
000250 ef 82 ab 3d 6b 37 76 bd 00 a1 e0 bc 66 3c 6a bd
       0.08374583 -0.060111444 -0.02742052 -0.057186507
000260 8c 27 80 bc 37 24 52 be 31 95 17 3d 4b 1b 08 be
       -0.015643857 -0.20521627 0.037007514 -0.13291661
000270 b5 b4 77 bd 28 b6 9e 3d b8 e7 00 3d 73 8a b5 3b
       -0.06047507 0.07749587 0.031470984 0.005540186
000280 a0 22 98 3d 3e 26 3b 3d b3 c3 62 bc 3b 77 c2 bd
       0.07428479 0.045690767 -0.013840604 -0.09495398
000290 35 5b 0a bb 67 c6 68 3e 28 39 9b 3d a6 c0 9e bd
       -0.0021111493 0.22731934 0.07579261 -0.077515885
0002a0 74 8a 71 be ae 7b e1 3c f0 8c 93 bd 56 67 87 3d
       -0.23587972 0.027524795 -0.07204616 0.06611507
0002b0 b9 00 21 3d 54 46 97 bb bc 9c d6 3c 84 29 4a 3d
       0.03930733 -0.004616538 0.026197784 0.049356
0002c0 c6 a7 ce bc 95 07 cc bd 38 f6 7a bd 10 3b df 3b
       -0.025226485 -0.09962384 -0.06126997 0.0068124607
0002d0 ac ec 08 be 4d 92 bf 3d 29 63 d2 3d 63 ac 8a 3c
       -0.13371533 0.093540765 0.102728195 0.016927904
0002e0 77 fa f7 3c 17 d6 33 3d 03 57 42 bc 7e 27 87 3d
       0.030270798 0.043905344 -0.0118615655 0.065993294
0002f0 20 12 47 bd 88 25 32 3c 9b 9e fc bc 00 8d c0 bc
       -0.04860127 0.010873206 -0.030837348 -0.023504734
000300 11 79 71 bb 1b c4 f7 3d 0d ff 54 3d 7c 66 98 bc
       -0.0036845843 0.12097951 0.052001048 -0.018603556
000310 30 5d ea 3d 22 6a a8 3d 27 dd a1 bc 36 68 df bd
       0.11443555 0.08223368 -0.019758774 -0.109085485
000320 a2 56 6c 3d b5 b7 10 be 27 db 46 3e 07 98 5f 3d
       0.057699807 -0.14132579 0.19419537 0.054588344
000330 6b e1 e0 bd 52 6c 7d bc ae a3 83 bd fc 25 1c 3b
       -0.10980495 -0.01546772 -0.06427704 0.0023826351
000340 e5 1d 2a bd fc 99 4c bd e6 31 63 bd 83 96 b6 bd
       -0.041532416 -0.04995154 -0.05546751 -0.089154266
000350 b1 22 59 3d d5 5e 14 3d c6 fa f4 bc 06 70 af bd
       0.0530116 0.03622325 -0.029904734 -0.08566289
000360 36 55 ec 3a 49 ce 05 be 30 f1 ad bd 54 6b f4 bd
       0.0018030766 -0.13066973 -0.084932685 -0.11934534
000370 c1 93 8a 3d c8 61 03 bd fe 27 00 be 18 bf b3 3d
       0.06766463 -0.032075673 -0.12515256 0.087766826
000380 29 5e 87 3d 2c e1 ca 3b 44 22 20 3e 56 d5 06 be
       0.066097565 0.0061913934 0.15638071 -0.13167319
000390 cd 2c 20 be 73 87 17 be 80 8f b7 bd ce 6f 04 bd
       -0.1564209 -0.14797764 -0.08962917 -0.032333188
0003a0 7e 95 14 3e eb 72 07 bc 6d bb ce bc 28 7f 3c 3d
       0.14510152 -0.008267145 -0.025235856 0.046019703
0003b0 0d 38 26 3c 37 5b 19 bd 43 24 d4 3c 08 7f 1e be
       0.0101451995 -0.037440505 0.025896197 -0.15478146
0003c0 6e f3 38 be f5 ce dc 3c 15 21 f1 bd 5e f6 06 3e
       -0.18061611 0.026954154 -0.11773888 0.13179919
0003d0 7f 87 ad 3d 72 52 a6 bd 85 07 5a be 75 da 2e 3e
       0.084731095 -0.08121194 -0.21291931 0.17075522
0003e0 9e 6a 19 be 31 f3 30 3d 31 f9 07 bd 85 fb 2e be
       -0.14982077 0.043200675 -0.03319663 -0.17088135
0003f0 a3 70 f5 3d 21 8b 4c bd e3 a0 1e 3d b5 8d cd bd
       0.119843744 -0.04993737 0.038727652 -0.10036794

bias f4 [128]
000000 a2 ea cb bc 69 c4 3d 3d 66 20 06 be a9 a1 3b bd
       -0.024892155 0.04632989 -0.13098297 -0.045808468
000010 13 7d 36 3d d5 ef da bc 0d 54 34 bc 2d a8 f3 3c
       0.044552874 -0.026725689 -0.011006367 0.029743278
000020 a7 1c 86 3b 9f 47 47 bb 3e 87 42 3d ea 4a 89 bd
       0.004092771 -0.003040768 0.04749226 -0.06703742
000030 6b aa c5 bd 0c 1c 0a bd 60 e1 a7 39 54 3f aa bd
       -0.09651645 -0.033718154 0.0003202064 -0.0831286
000040 14 8a 74 bd d4 71 b7 bc 90 4e 31 bc 79 86 fb bd
       -0.059701994 -0.022393145 -0.010821953 -0.12281508
000050 61 f2 94 3c 3c dd b0 bd ae c6 57 bd c0 e0 8c bd
       0.018181982 -0.08635947 -0.05267971 -0.06878805
000060 ec bd 81 bd 70 b7 84 3d c3 16 d8 3c cc a1 5b bd
       -0.06335053 0.064803004 0.026378041 -0.0536211
000070 d9 4e 4f bd c2 25 d0 bc 1f fe da bd 97 01 05 be
       -0.050612304 -0.02540863 -0.10693001 -0.12988888
000080 65 68 a3 bd 3c d6 e9 bd 68 07 00 bd 5b 4f 9c bd
       -0.07978896 -0.11417815 -0.031257063 -0.07632323
000090 f3 54 11 3d 7f ab 88 3c 55 ab 7a bc 3b 19 0c bb
       0.035481405 0.016683338 -0.015299638 -0.0021377343
0000a0 69 ce cb 3c 68 6e f2 3a 6a 51 c2 3a f4 eb 6c bd
       0.024878697 0.0018496038 0.0014825289 -0.05784221
0000b0 0a f5 27 bd 7d 27 5e bd 7f 09 3c 3d fe 9c 95 bd
       -0.04100517 -0.054236878 0.045907494 -0.073053345
0000c0 c1 b9 53 bd 0f f8 74 bd c8 dc 06 bd 17 0c e3 bd
       -0.05169082 -0.05980688 -0.032925397 -0.1108629
0000d0 5d bd 6a bc 02 66 24 be 39 cd 4c 3c 49 45 a2 bd
       -0.014327374 -0.16054538 0.012500101 -0.07923371
0000e0 06 21 e6 3c 93 26 9c bd 38 c0 9b 3c 49 5f 38 bc
       0.028091919 -0.07624545 0.019012555 -0.0112531865
0000f0 82 56 f2 bd 59 a0 a2 bc ec be ba bc 2c cf 01 be
       -0.11832906 -0.01985185 -0.022796117 -0.12676686
000100 21 d5 3a 3c 1c 92 5b bc 43 c1 6e bd 98 29 3e bd
       0.011403353 -0.013401534 -0.058289777 -0.046426386
000110 f1 87 50 3c 6f b7 88 3c 95 b2 2f be 57 60 d5 3c
       0.012727723 0.01668903 -0.17157967 0.026046915
000120 fd 29 91 bd e5 62 2d bd d5 a2 8c bd 6a 0e 9c bd
       -0.07088087 -0.04233064 -0.06866995 -0.07619937
000130 90 0d 87 bd 7c 4f 99 bd c7 53 b2 3c 3f 03 ca bc
       -0.06594384 -0.074858636 0.021768464 -0.024659751
000140 9c a6 28 3c 62 b8 f0 bd dc a8 9a bd 36 82 d1 bd
       0.010293629 -0.11753918 -0.075517386 -0.10229914
000150 70 bd 96 bd a0 9e d0 bd 0a 3f 3a bd 71 1e c5 ba
       -0.07360351 -0.10186505 -0.045470275 -0.001503898
000160 a6 06 5f bc 51 d5 8f 3d 9e 17 bf bc e5 76 e2 bc
       -0.013612425 0.07023109 -0.023326691 -0.027644584
000170 1b e9 89 bd d9 35 83 bd 61 f0 02 be c1 7e 10 bd
       -0.067339145 -0.06406755 -0.1278701 -0.035277132
000180 95 c9 87 bc c3 8f 90 bb 95 65 6b 3d fa fc aa bd
       -0.016575614 -0.004411669 0.057469923 -0.08349033
000190 44 16 a9 3c 14 a9 a0 bd 35 b8 75 bd 62 b4 22 3c
       0.0206405 -0.07844749 -0.059990127 0.009930702
0001a0 c8 e1 c2 bd 5f 10 a7 bd 55 fe 89 3d 95 d3 dc 3a
       -0.095157206 -0.081574194 0.06737963 0.0016847724
0001b0 40 87 04 be 91 6d 9b bd 29 f5 94 bd 3e ef f0 bc
       -0.12942219 -0.075892575 -0.07273323 -0.029410955
0001c0 4e 2f e0 bc be 48 e1 3c 00 41 ba bd 12 e2 bc 3d
       -0.027366307 0.027500506 -0.09094429 0.09222807
0001d0 76 90 e5 bc 7e c2 93 bd 16 32 4b bd 58 11 d1 3b
       -0.028022986 -0.07214831 -0.049608313 0.0063802414
0001e0 c8 4f 33 bd 78 0c 07 be 10 64 ee bd fa f1 9a 3b
       -0.043777257 -0.1318835 -0.11640179 0.004728553
0001f0 fa 47 d3 3c d3 84 7e bd ab 95 61 bd 3f f8 4e 3b
       0.025791157 -0.06213839 -0.055074375 0.0031581072

weight f4 [128, 128]
000000 ab f7 a9 3c f5 fc 8a bc 18 21 0f 3c c3 a4 94 38
       0.02074798 -0.016966322 0.0087359175 7.087879e-05
000010 69 9d 06 3e 16 09 01 3e 2f 21 7a 3d 8e ab 1f 3d
       0.13145985 0.12601122 0.061066803 0.038981967
000020 4b b3 de 3d 1c 4e 58 bd 72 0a 5a bc e5 d6 e3 3d
       0.10874041 -0.052808866 -0.013308154 0.11124972
000030 64 1a 5e 3d 5a 7b d6 3b 86 5a 52 bd 06 ad 98 bd
       0.054224387 0.0065454664 -0.05135586 -0.074548766
000040 05 61 60 bd d7 07 af 3c fa 30 98 3d 5e e0 41 bd
       -0.054780025 0.021366043 0.074312165 -0.047333114
000050 93 22 93 3d f1 1f 56 3d df c2 37 3d c9 b5 84 3d
       0.07184329 0.052276555 0.044863578 0.06479985
000060 f2 54 e9 3d 39 29 b0 bc 8c 02 8f 3d a0 59 73 bc
       0.11393155 -0.021504031 0.06982908 -0.014852911
000070 de 37 7f 3c a3 31 a1 3d f0 4e 23 bd 0a 60 0b 3b
       0.015577285 0.078707956 -0.039870203 0.002126696
000080 dd ae 11 be f7 be 04 3d 7a 28 f7 bd 51 5b f6 bc
       -0.14226861 0.03240868 -0.12068267 -0.03007284
000090 0a 00 08 3e a7 98 8e bd cf b8 b5 3d 21 9d 99 3d
       0.13281265 -0.0696271 0.0887314 0.07500673
0000a0 5e 89 9d 3d c5 d1 31 3c 40 fb a3 bb 7a ed 9f bc
       0.07692216 0.010853236 -0.0050043166 -0.019522417
0000b0 c7 4f 42 3b 81 fb 75 3c a4 1f 17 be a0 09 e3 bd
       0.0029649602 0.0150135765 -0.14758164 -0.1108582
0000c0 4c 20 e3 3c 87 86 45 bd cc fd 03 bb a0 fa c3 bb
       0.027725361 -0.048224 -0.0020140288 -0.0059808046
0000d0 0a 2a ac 3d 74 c3 8d 3d 28 96 a2 3d b9 99 2a bc
       0.08406456 0.06922045 0.07938796 -0.010412627
0000e0 43 e8 32 3d 92 13 12 bd e5 1f 97 bd 9e db 97 3d
       0.043678533 -0.035663195 -0.0737913 0.074149355
0000f0 02 0f 6c bd eb 11 6d bd cb 85 18 bd 5b 94 1f 3e
       -0.0576315 -0.057878416 -0.03723697 0.15583937
000100 c4 59 cc bc 7c 71 85 bd 2d 04 4b 3e d2 70 2b bd
       -0.024945147 -0.06515786 0.19825812 -0.04185564
000110 c9 34 d0 bc 21 9c 77 3d 9a dc 81 bd 2c 93 0e bd
       -0.025415795 0.06045163 -0.063409045 -0.034808323
000120 f0 1f 9a 3d f3 e0 21 bd 93 e3 7e 3c cb ea 09 3c
       0.07525623 -0.03952117 0.015557188 0.008417795
000130 ba 82 be 3d 1c 5e a1 bc e7 5b f8 3d 57 36 e6 3d
       0.09302278 -0.019698195 0.12126904 0.11240833
000140 c3 06 22 be ce d7 a0 bd c1 3c 6d bd 32 ce 06 3e
       -0.15822892 -0.078536615 -0.057919268 0.13164595
000150 32 58 0c bd 89 b4 1e be c2 25 1b be 1b 48 7c bd
       -0.034263797 -0.15498556 -0.15151122 -0.061592203
000160 d1 18 8b 3d a5 b3 b8 3b 01 7b 20 3e 0b 70 79 3d
       0.06791843 0.0056366497 0.15671922 0.060897868
000170 46 33 8e bc 83 9d 95 3c 24 74 19 3c 90 17 b1 bd
       -0.017358433 0.018263584 0.009366069 -0.08647072
000180 2c 0c 4c 3c 64 cc 76 bd 58 e7 51 bd 77 09 bd 3d
       0.012454074 -0.060253516 -0.051246017 0.09230321
000190 ee aa d0 bc 22 61 b8 bd 7f 4e 15 3d fa 14 40 bd
       -0.02547213 -0.090029016 0.036451813 -0.046895005
0001a0 93 96 1d 3d 1e ff ba 3d d5 61 ce 3d 8c bc 1a 3d
       0.038473677 0.09130691 0.10077254 0.03777747
0001b0 2f 69 09 3e 28 28 81 bd f4 2b ce bd 77 96 84 3b
       0.1341903 -0.06306487 -0.10066977 0.004046257
0001c0 02 33 9e bd 11 81 80 3d ec 5d 9c 3d 02 1d 87 bc
       -0.07724573 0.062746175 0.07635102 -0.016493324
0001d0 4e d5 7b 3d 9d d8 96 3c 9d f0 6c bd 24 04 78 3d
       0.06148272 0.018413836 -0.057846654 0.060550824
0001e0 04 3f db 3d 28 ee 91 bd 47 80 7d 3d 74 e6 91 bd
       0.10705379 -0.07125503 0.061889913 -0.071240336
0001f0 bc 8a 9f bd b7 a8 1f 3e 94 c4 54 bd 3e 15 45 bd
       -0.07790133 0.15591703 -0.051945284 -0.04811596
000200 81 07 90 3c f2 87 ac bd 47 f3 14 3d c5 67 99 3d
       0.017581703 -0.08424367 0.03636482 0.074904956
000210 d4 13 bc bc 0d 03 23 bd 6a bb 82 3c a5 6f b9 3c
       -0.022958674 -0.03979783 0.015958507 0.022636244
000220 19 51 b8 bc 49 1c a3 bc d8 2a 80 3d dc e3 75 3c
       -0.022499608 -0.019910948 0.06258172 0.015007939
000230 46 ab 9f 3d b0 be e6 3c 0e a9 5a 3d 61 2b 5f bd
       0.0779634 0.028167099 0.05338388 -0.05448473
000240 04 a2 90 3d 14 cd 90 3d a3 8c a2 bc ef 3c 83 bc
       0.07062152 0.070703655 -0.019842451 -0.016020266
000250 1c 5e e0 bc 5f 56 ae 3d 05 75 39 bd e8 48 a4 3d
       -0.027388625 0.08512568 -0.045277614 0.08021718
000260 32 aa 8e 3d 0a e8 bc bc 88 58 8d bc 6e 44 9a bd
       0.06966056 -0.023059864 -0.017254129 -0.07532583
000270 92 21 07 3d 65 28 b9 bd ca ea c5 bc 53 82 94 bc
       0.032991 -0.09040908 -0.024159808 -0.01812855
000280 ae ce ad bd 3e 5c bc bc 21 b9 42 3d 1a 71 b3 3d
       -0.08486687 -0.022993203 0.047539834 0.08761807
000290 34 98 99 bd 98 e4 64 3d e0 aa ba bb d1 cb 85 bd
       -0.074997336 0.055882066 -0.0056966394 -0.065330155
0002a0 6a 48 71 bc d8 57 d6 bc a4 80 e5 bc 07 ba 7d bc
       -0.0147267375 -0.026164934 -0.028015442 -0.015486247
0002b0 1e e5 14 bd e7 d8 02 3d 94 d5 48 3c b1 8c 1f bd
       -0.036351316 0.031945135 0.012257952 -0.038952533
0002c0 59 8b bb 3d 12 b3 20 bc a6 cd 20 3d 81 24 05 bd
       0.09157438 -0.009808319 0.03925862 -0.032505516
0002d0 f6 e3 4b bc df b3 3b 3d bd d4 3a bd 26 e5 62 bd
       -0.012444487 0.045825835 -0.04561304 -0.055394314
0002e0 82 a1 84 3c 0c a4 bc 3b 05 43 57 3d c0 23 a4 3d
       0.016190294 0.0057568606 0.05255415 0.08014631
0002f0 bd ae dd 3c 14 a3 b6 3d f3 55 9e 3c d6 16 f3 3c
       0.02706086 0.089178234 0.019328093 0.029673975
000300 3b 2c c2 bd 23 9d 73 3c fd 65 10 3d ce ad 9d 3d
       -0.094810925 0.014869007 0.035253514 0.07699166
000310 29 b2 ac 3c d3 e8 1a 3d 4c 3f 01 3d 63 0d 48 bd
       0.021081047 0.037819695 0.031554505 -0.04884089
000320 30 d3 a3 bd 4b 56 b8 3b 87 24 68 3d 95 17 0c be
       -0.07999265 0.0056255213 0.05667546 -0.13680871
000330 b6 f8 93 bb 97 c8 25 bd af a9 44 bd 86 53 a7 3d
       -0.0045157326 -0.0404745 -0.048013385 0.08170228
000340 ff c6 b8 bc 0d 96 20 bd a0 ac d4 3d c7 c6 0a bd
       -0.022555826 -0.0392056 0.10384488 -0.033880975
000350 59 ae 72 bd 31 aa 44 bd dc 06 2f bc 2e d1 37 3d
       -0.059248302 -0.04801387 -0.010682788 0.044877224
000360 73 d7 a9 bc f0 14 55 bb 63 77 95 3c ba a2 74 3d
       -0.020732617 -0.00325137 0.018245405 0.0597255
000370 b5 7c a1 3d 6b f7 ad bc 84 0c 76 3d cc 45 3b 3d
       0.07885114 -0.021236142 0.06007053 0.04572086
000380 fd b0 22 bd 07 f2 b1 3c dd 9c cb 3d 31 82 0c bd
       -0.03971957 0.021721853 0.09942029 -0.034303848
000390 ad 35 43 bd b2 70 a3 bd 1a 5e 53 bc 6a f9 d5 bc
       -0.04765861 -0.07980479 -0.0129008535 -0.026119906
0003a0 d9 6d aa bc 2d 1b f5 3c c7 43 fa 3c ca 2a a8 3d
       -0.020804333 0.029920185 0.030549897 0.08211286
0003b0 4c 20 c2 3d 80 e2 ac bd 55 01 32 bd 20 53 67 3c
       0.094788164 -0.08441639 -0.0434583 0.01411894
0003c0 0e bb 6c bc 43 35 08 bc e8 fc 23 3d 95 05 7f 3c
       -0.014448894 -0.00831348 0.040036112 0.015565296
0003d0 0b 94 1e bd 10 be 58 bd 09 6b 91 3c e9 18 ae 3b
       -0.038715404 -0.052915633 0.017751234 0.005313028
0003e0 82 a2 84 bd aa a2 bb bb 31 ba 80 bd 15 bf ca bc
       -0.064763084 -0.005726178 -0.06285513 -0.024749318
0003f0 92 e8 2d 3d ef 26 0e bc 57 c3 50 3d e2 7c 8d bc
       0.042458124 -0.008676275 0.05096754 -0.017271463

bias f4 [128]
000000 13 dc 31 3d 63 e0 01 bd a7 ca 31 3d 56 38 a4 bd
       0.04342277 -0.031708132 0.043406155 -0.08018558
000010 c8 cf 20 3d a0 66 19 bd 2b 57 a1 bd bb 10 2b bd
       0.039260656 -0.037451386 -0.07877954 -0.041764002
000020 03 f4 81 ba 8d 2d 26 bd db 45 f0 bd 14 6a 95 bc
       -0.000991464 -0.040570784 -0.11732074 -0.018239059
000030 b9 a8 5b bd fa f1 8e 3d 34 b6 70 3a 7f d1 b3 bc
       -0.053627703 0.06979747 0.0009182424 -0.021950481
000040 be 77 a8 bd 95 a4 e2 3b 3f c8 53 3c 0d 46 30 be
       -0.08225964 0.0069165924 0.01292616 -0.17214222
000050 3a 7c 30 bd 63 8b 09 be 28 7c c1 bd 60 d6 1d 3a
       -0.04308722 -0.13432078 -0.09447509 0.0006021019
000060 25 23 01 3c 39 99 17 bd 59 83 89 3c 25 60 53 3d
       0.007881914 -0.03701136 0.016786264 0.051605362
000070 18 89 a2 bd 78 0d 97 bd 2d c6 27 bd 62 2f 8a bd
       -0.07936305 -0.07375616 -0.04096048 -0.06747319
000080 3d 10 f4 bc 36 f8 1c bd 0b 46 c6 bd 94 77 d9 bd
       -0.0297929 -0.03832265 -0.096813284 -0.10618511
000090 af dd e8 bb 0b 35 2c 3d aa fb 3c be 37 d1 04 bc
       -0.007106505 0.042042773 -0.18455377 -0.008106521
0000a0 1d 17 87 3d 32 4b 6b bd 36 21 98 bc 9c b6 15 3d
       0.065962054 -0.05744476 -0.018570524 0.036551103
0000b0 21 16 99 bd 78 04 fa bb ae 96 05 be 0e 2d b7 bd
       -0.07474924 -0.0076299272 -0.13045761 -0.089441404
0000c0 a5 88 78 bd 01 3d 7e 3d dd 9c 4f bd cf b3 6d bd
       -0.06067719 0.062069897 -0.050686706 -0.058032807
0000d0 64 3f 97 ba be d2 b8 bc d0 55 11 be bb c4 af 3c
       -0.0011539278 -0.022561427 -0.14192891 0.021456113
0000e0 4c e5 0c 3d f7 f2 b6 3c 9d 5b 17 3d 3d d8 06 bd
       0.034398362 0.022332652 0.036952604 -0.032921065
0000f0 a5 9a 88 3d 9e 84 34 be 32 da 13 be 03 c4 28 bc
       0.06670121 -0.17628714 -0.14438704 -0.010300639
000100 32 1f 19 bd 32 dc f7 bc d5 53 36 3d 1b e6 78 bc
       -0.037383266 -0.030256364 0.044513542 -0.01519158
000110 54 01 ca bd ed c8 72 3d cb d8 ff bc bc a1 c3 bc
       -0.098635346 0.05927365 -0.031231305 -0.023880832
000120 00 a1 3b 3a 6b aa 12 3a 9c aa a2 bd 39 8f b6 bc
       0.0007157475 0.0005594852 -0.079426974 -0.02228509
000130 79 a0 42 3c e1 cc a7 bb fd 84 5b 3d 17 e7 81 bd
       0.01187908 -0.005120859 0.053593624 -0.06342905
000140 44 3c 67 bd f7 c0 17 bd b1 5c 5d 3d 97 45 4a 3c
       -0.05645396 -0.03704926 0.054043476 0.012345693
000150 26 b4 2a 3d 15 44 f6 bd 73 08 43 bd 0e 4b 67 bd
       0.04167571 -0.12024704 -0.04761548 -0.056468062
000160 53 7c 27 3d 7e 17 c7 bd ef 16 c5 bd 69 3d 47 bd
       0.04089005 -0.09721278 -0.09623515 -0.04864255
000170 1c 31 ab 3c 0a fa ce bc 98 7d 01 3d 04 79 5f bd
       0.02089744 -0.025265712 0.031613916 -0.05455877
000180 92 7f 82 bd 6e f4 1f 3c f8 47 2c 3d aa 11 e6 bd
       -0.06371988 0.009762866 0.042060822 -0.11233838
000190 7b 05 f0 bd 35 cd d9 bd 65 48 e3 3c 07 cf 8d bc
       -0.11719795 -0.10634843 0.027744481 -0.017310632
0001a0 84 2e 48 bd 94 3e 52 3d 69 a9 ed bc 00 42 0b 3d
       -0.048872486 0.05132921 -0.029011445 0.03399849
0001b0 b6 45 8f bd 9b 55 3b 3d 7d ce 51 3d 34 38 97 bd
       -0.06995718 0.045735937 0.051222313 -0.07383767
0001c0 28 b4 8f bd 4f 56 a0 3c e9 41 3d 3d bf 04 2a bd
       -0.07016784 0.019572405 0.046205435 -0.041508432
0001d0 cd 19 79 3c 7a 63 d7 bd 5b 99 91 3d 2d 95 93 bd
       0.015203905 -0.105170205 0.07109328 -0.072061874
0001e0 0c f0 8d 3c 01 31 70 3d 8e 89 08 bd ca 7c c2 bd
       0.017326377 0.058640484 -0.033334307 -0.09496458
0001f0 4b f6 1c bb a0 40 40 bd b7 e4 52 3d f0 5b 30 3d
       -0.0023950513 -0.04693663 0.05148765 0.04305643

weight f4 [12, 128]
000000 c1 ca 69 3c ba d7 a2 ba 32 fe 2d 3a c9 40 57 3c
       0.014269532 -0.0012423911 0.00066373043 0.013138005
000010 a5 99 0c 3d d6 b7 d4 3c 35 06 ca 3c cc 68 8c 3b
       0.034326214 0.025966566 0.024661163 0.0042849537
000020 af d1 57 3b 52 3a b5 38 41 31 08 bc 82 fe ad 3c
       0.0032931378 8.6416156e-05 -0.008312524 0.021239523
000030 f1 44 6b 3b c3 d0 3b 3c b8 0b 51 3b 4b 9d 02 3c
       0.0035899247 0.011463347 0.0031897854 0.007972072
000040 74 a1 86 bd 5c b7 47 bc 22 e0 fd bb a4 4c 8f 3c
       -0.065737635 -0.012189712 -0.007747666 0.0174926
000050 65 e6 6a 3b 3a a1 1d 3c 14 e0 cb bc 82 d9 9d 3a
       0.0035842892 0.009620959 -0.024887122 0.0012042972
000060 f0 55 59 bb c6 5e 1c bb cf 6a 01 3d d7 92 0d bb
       -0.0033162795 -0.00238602 0.031596 -0.0021602416
000070 7b 14 26 bb 52 83 d5 3b 66 d5 79 3c aa 7b 26 bc
       -0.0025341797 0.0065158987 0.015248632 -0.01016132
000080 b7 81 79 3a 62 c5 01 39 58 56 fa bb b7 54 0a 3b
       0.0009517925 0.0001237593 -0.0076396875 0.0021107623
000090 00 bb df 3b 9f 57 6c 3c 3b 0e b5 3d fe 2c c7 bc
       0.006827712 0.014425187 0.08840605 -0.024313446
0000a0 b2 ae 7b 3c 04 97 7b bb 8c f3 b3 bb 63 13 16 3a
       0.015361475 -0.0038389573 -0.0054916795 0.0005724935
0000b0 a6 01 36 bc f8 ba 4d 3c 4c 0f 2b bd b7 56 e4 3b
       -0.011108791 0.012556784 -0.041762635 0.006968345
0000c0 e9 0c 86 bc 7b 51 3f 3a 30 07 8a 39 1b 69 34 3b
       -0.016363578 0.00072982133 0.00026326766 0.0027528468
0000d0 25 b1 50 bb f8 c0 cb ba d5 d3 dc bc 1b 5f 72 ba
       -0.0031843868 -0.001554518 -0.026956478 -0.0009245739
0000e0 f2 19 57 bb 9c 92 d9 3a 49 54 4b bc 9f c0 53 bc
       -0.003282186 0.0016599479 -0.012410232 -0.012924342
0000f0 50 45 55 3c 19 9e 7e bd bc d4 d5 3b 1a 4e 86 bb
       0.013017014 -0.062162492 0.006525604 -0.004098666
000100 c2 8b f4 bc 4d 20 19 3c b0 31 d2 bb ae 69 fc bc
       -0.029851798 0.00934608 -0.0064146146 -0.03081211
000110 fe fe f1 bc 62 67 ee 3c d8 fa 09 bc 2b 87 ad bb
       -0.029540535 0.029102031 -0.008421622 -0.0052956543
000120 38 d6 6c 3c 68 18 c2 39 24 04 4d 3c e3 87 78 bb
       0.014455371 0.00037020748 0.012513194 -0.0037922792
000130 12 85 63 3c e3 be c0 3c ea 6a be bc 6a 6e ab 3c
       0.013886707 0.023528522 -0.02324434 0.020926673
000140 53 51 1e 3b 7c e2 11 bc 81 a8 2e 3c 5f 23 8b 3b
       0.002415736 -0.008904096 0.010660292 0.00424616
000150 a1 32 14 3d 6a b2 8a 3a f8 fa 5c 3b e1 e0 e8 ba
       0.036181096 0.0010581736 0.0033718925 -0.0017767214
000160 b5 af 92 bb 23 e4 94 3c f3 26 d3 3b dd 94 29 3c
       -0.0044765123 0.01817519 0.006443852 0.010350433
000170 aa 8e a0 3b c0 c7 a1 bb 61 ef 85 3b 7d 6f d0 39
       0.0048998194 -0.004937142 0.004087374 0.00039755917
000180 c5 7e 07 bc fe ce 49 3b ff e0 9c bc 3f 84 de bc
       -0.00826997 0.0030793543 -0.019150255 -0.02716267
000190 7d e8 73 3c f3 ca bc 3b b8 33 df bb e6 76 80 3c
       0.0148869725 0.005761498 -0.0068115853 0.015681695
0001a0 ea 35 27 3b 87 f4 b2 3b 59 c4 b3 3c 0f 4f e0 3c
       0.0025514313 0.005461279 0.021944212 0.027381448
0001b0 f3 a2 10 3c f6 a1 25 3c 11 49 33 3c 36 a6 84 3b
       0.008827913 0.010109415 0.010942713 0.004048134
0001c0 21 c4 fe 3b 29 2f ee 3b f5 a0 00 bc 81 8a 83 bb
       0.007774845 0.0072688055 -0.007850875 -0.0040143137
0001d0 5f 90 be bb 20 e4 2a bd ea 02 9a ba 69 35 00 3d
       -0.00581555 -0.041721463 -0.0011750136 0.031300936
0001e0 94 96 c5 bb a9 9f 77 bb c4 a3 5f bd 4f fa 34 bb
       -0.006029913 -0.0037784374 -0.05459954 -0.0027615016
0001f0 d7 c2 c1 ba f2 22 43 bc 33 1e 68 bb 56 c4 9d ba
       -0.0014782798 -0.011910187 -0.003541839 -0.0012036662
000200 27 f1 aa 3b c2 76 89 bb c4 d7 eb bb 83 55 cf bb
       0.005216736 -0.0041950652 -0.007197352 -0.0063273325
000210 e8 b8 54 3d b0 a1 2b 3c df 67 ae bb ac 55 68 bb
       0.051934153 0.010475561 -0.005322441 -0.0035451455
000220 5f 50 f3 bb f1 18 7f bc ef 0a 2f bd 94 68 0b 3a
       -0.0074253525 -0.015569911 -0.042735036 0.00053180126
000230 1d b1 c1 3b 27 72 89 bc 59 30 91 3c 42 9b f2 bc
       0.005911006 -0.016778065 0.01772325 -0.029615048
000240 11 34 a1 bb a0 fa 58 3a f0 e1 6a bc 9a 82 d4 ba
       -0.004919537 0.0008277092 -0.014336094 -0.0016213239
000250 5b 3e c2 bb 17 64 18 3d 9b 94 a9 3a a4 28 08 3b
       -0.0059278435 0.037204828 0.0012937965 0.0020776177
000260 34 a8 38 bb a6 63 16 bb c8 a3 aa bc 46 79 a2 ba
       -0.0028176429 -0.0022947579 -0.02083005 -0.0012395761
000270 cf ca 5a bc 2f 55 c6 bc 85 f3 e4 3c 20 3f 18 3c
       -0.013354017 -0.02421054 0.02794815 0.009292394
000280 e6 5b e4 bb e6 40 4d bb ef d1 5c 3b 1e 44 28 bd
       -0.006968963 -0.00313192 0.0033694466 -0.041080587
000290 36 48 b3 bc f8 90 b1 bc 32 63 c4 ba 85 b7 1a 3d
       -0.021885019 -0.021675572 -0.0014983176 0.037772674
0002a0 2f 54 b0 3b af 87 cb 3b 4b 7d 02 3c 80 c4 22 3c
       0.005381129 0.006211243 0.0079644425 0.009934545
0002b0 00 89 91 bb cb 88 fb ba 2d 4f 21 bd 21 0f fe 3b
       -0.0044413805 -0.0019190548 -0.03938215 0.0077532683
0002c0 c5 51 00 bd 52 f2 76 bb 74 b9 84 b9 8c a9 36 3c
       -0.03132798 -0.0037681055 -0.00025315175 0.011148822
0002d0 99 2d 82 3b f1 46 09 3d 6f c6 4f 3c 2d 38 0a bc
       0.003972721 0.03351492 0.012681588 -0.008436245
0002e0 38 0e e5 3b 8e 1a 1a 3c eb 23 2d 3c 41 86 81 bb
       0.0069902204 0.009405745 0.010567646 -0.003952772
0002f0 60 ad fc 39 0a a6 19 bd e8 2d c5 3c 90 50 57 b8
       0.0004819436 -0.037511863 0.024069741 -5.1335024e-05
000300 58 a5 06 bd 47 c1 d7 3b cd ff 12 3c e4 5b bb 3c
       -0.032872528 0.0065843198 0.0089721205 0.022870965
000310 f7 37 59 bb d0 f3 49 bb 38 70 66 bb 89 a1 af bb
       -0.003314493 -0.003081549 -0.0035162102 -0.0053598327
000320 a7 e5 f8 39 77 5d e8 bb b1 1d 7e bb 62 83 ff 3a
       0.0004747335 -0.00709122 -0.0038775022 0.0019494111
000330 59 a7 89 bb 2f 19 2f bc 0f f3 e0 3c aa 91 df bc
       -0.0042008576 -0.010687157 0.02745965 -0.027291138
000340 b4 87 2e bc 06 a0 07 3c 73 90 de ba 0f db 08 3a
       -0.010652471 0.008277899 -0.0016980305 0.00052206306
000350 83 04 55 3c 84 b8 a6 b9 85 d6 8f 3c 86 49 8b bc
       0.013001564 -0.00031799462 0.017558346 -0.017002832
000360 a8 44 3b bc 67 54 03 3d 62 6a 30 3c d8 28 05 3c
       -0.011429943 0.032062914 0.010767551 0.008127414
000370 e0 ab 88 bb 4e b0 8e bc e7 b6 96 3c df d9 8c ba
       -0.0041708797 -0.017418053 0.018397762 -0.0010746083
000380 70 05 50 3d 4d c6 12 bc 78 ec 81 bc ff 22 08 bc
       0.050786436 -0.008958411 -0.015859827 -0.008309125
000390 f8 d3 53 3c ea 71 88 3c 73 b1 36 3c eb 1c 68 bb
       0.012928955 0.016655881 0.011150706 -0.0035417627
0003a0 ea 74 cc bb 82 c8 99 bb 5c 3b ea 3c 46 40 16 bd
       -0.006239523 -0.004693092 0.028592758 -0.03668239
0003b0 98 9b d4 bc f6 bf 87 3c 76 2b 00 3d 65 38 d5 bb
       -0.0259531 0.016571026 0.031291448 -0.006506967
0003c0 4e 3a 70 3c 26 da 9e bc fd 9b 92 3a 9a d9 be bc
       0.014662338 -0.01939113 0.0011185404 -0.02329712
0003d0 14 5e f7 3a 2b b0 c2 bb ce 42 df bb 89 41 75 bc
       0.0018872642 -0.005941411 -0.0068133837 -0.014969238
0003e0 b5 58 1c bc f5 e6 f0 ba 6e c9 14 3c 8f 5f 06 bc
       -0.009542634 -0.0018379377 0.009081228 -0.008201494
0003f0 79 03 46 bb 95 d1 17 bc 8e b0 58 bc 36 dc ed 3c
       -0.0030214472 -0.009266277 -0.013225688 0.029035669

bias f4 [12]
000000 ec 3f 1a 3d 2b bc a9 3d 5c c5 32 3c 9a 30 07 be
       0.037658617 0.08287843 0.010911312 -0.13202134
000010 d7 32 e6 3b fc 3c c9 bd 1d 96 62 3d 45 37 bf bd
       0.0070251036 -0.09826085 0.05531894 -0.09336714
000020 aa 6e 8d bb 62 e5 11 be 1d cc fd 3c 0e 1c 85 3d
       -0.0043161707 -0.14247659 0.030981118 0.06499492
