deploy/models/booster_gym_v2/model_1000.pt (torch, 298238 bytes, 8 tensors)

weight f4 [256, 80]
0	0xbccf3b9b	-0.025296977
1	0x3dd54fcf	0.10415613
2	0xbd49270a	-0.049109496
3	0x3db5f924	0.088854104
4	0x3d92dbe4	0.07170847
5	0x3b8e66bb	0.0043457425
6	0x3de0a8a2	0.10969664
7	0x3db0f171	0.08639801
8	0xbd85eb55	-0.06539027
9	0x3ddc125e	0.10745691
10	0x3ce1f7b1	0.027583929
11	0xbb3ac341	-0.0028497728
12	0xbad8d27f	-0.0016542225
13	0xbc55e5a7	-0.013055242
14	0x3b9de482	0.0048185
15	0x3caef869	0.021358686
16	0x3d54664a	0.051855363
17	0xbafab116	-0.0019126262
18	0x3d78b126	0.060715817
19	0x3d05e8eb	0.03269283
20	0xbce476fb	-0.027888766
21	0xbe686a08	-0.22696698
22	0xbea44cdf	-0.32089898
23	0xbe8f5810	-0.27996874
24	0x3e1a8e56	0.1509336
25	0xbd25d975	-0.040490586
26	0x3d73e09d	0.05954038
27	0xbe3ecb91	-0.18632342
28	0xbea0202c	-0.31274545
29	0xbea4e10b	-0.32202944
30	0x3b991cbc	0.004672615
31	0xbe1516d7	-0.14559494
32	0xbd588e4f	-0.05287009
33	0x3e8446dc	0.2583531
34	0x3d98c436	0.07459299
35	0xbcae2527	-0.02125795
36	0xbdb7dc76	-0.089775965
37	0xbbae211f	-0.005314007
38	0xbd57f70b	-0.052725833
39	0x3ca38bd8	0.019964144
40	0xbd5ddaa9	-0.05416361
41	0xbdc60a2e	-0.0966991
42	0x3d7754f0	0.060383737
43	0xbe0e565e	-0.13900134
44	0x3e12d0b4	0.14337426
45	0x3e383be0	0.1799159
46	0x3cadc96f	0.021214215
47	0xbc31dd48	-0.01085598
48	0x3e2fe218	0.17176092
49	0x3d06203c	0.032745585
50	0xbd5a21c1	-0.053254846
51	0x3d931006	0.071807906
52	0x3e521bc8	0.2051841
53	0xbd3f1461	-0.046650294
54	0x3ceb7ef6	0.028747063
55	0x3c28a586	0.01029337
56	0x3d3ecf46	0.04658439
57	0xbd87b6d9	-0.06626672
58	0x3d9d370e	0.076765165
59	0xbd105608	-0.035238296
60	0xbc9a5d7a	-0.018843401
61	0xbe0c08e3	-0.13675265
62	0x3d12952b	0.03578679
63	0xbc15c581	-0.009141327
64	0xbd92ddce	-0.07171212
65	0xbc03e82d	-0.0080509605
66	0x3cba0bf5	0.02271078
67	0x3e4dd5db	0.2010111
68	0x3d6c282a	0.05765549
69	0xbd377516	-0.044789396
70	0x3e1abd9a	0.1511139
71	0xbe1e1561	-0.15437843
72	0xbc832fc2	-0.016013984
73	0xbd28fb2b	-0.041255157
74	0x3e00d9ba	0.12583056
75	0x3e243646	0.16036329
76	0x3bd13dec	0.0063855555
77	0xbd21d7d0	-0.039512455
78	0xbdf6fe5a	-0.120602325
79	0x3dd0f09d	0.10202143
80	0xbe851cb5	-0.25998464
81	0x3e5e9a40	0.21738529
82	0xbe154899	-0.14578475
83	0xbde6cd87	-0.1126967
84	0x3d3d8ec8	0.046278745
85	0xbc998962	-0.018742267
86	0xbd6b5d77	-0.057462182
87	0xbd9b6d32	-0.07589187
88	0x3d5626c8	0.05228308
89	0xbd2ae672	-0.041723676
90	0xbdc4dd61	-0.09612537
91	0xbcb41276	-0.02198146
92	0x3db98527	0.090586
93	0xbd161cb2	-0.03664846
94	0xbd8584b6	-0.06519453
95	0xbc94cc0a	-0.0181637
96	0xbdcad8a9	-0.09904606
97	0x3d5fc2c8	0.054629117
98	0xba9c08e9	-0.0011904511
99	0x3c362e7e	0.011119483
100	0xbd4df413	-0.050281595
101	0xbeaacf10	-0.333611
102	0xbade3423	-0.0016952794
103	0xbe751901	-0.2393532
104	0xbe88dd4e	-0.26731342
105	0x3da9671c	0.0827162
106	0x3d5e82db	0.054324012
107	0xbd90ad7c	-0.070643395
108	0x3e233bbb	0.15940754
109	0xbedfcbc5	-0.4371015
110	0xbb930f5e	-0.004487916
111	0x3e9a09de	0.30085653
112	0xbe878941	-0.26471904
113	0x3bb81c27	0.0056185904
114	0xbda23ffa	-0.07922359
115	0xbd858eb0	-0.06521356
116	0x3c916886	0.017750036
117	0xbd823941	-0.063585766
118	0xbdb81c59	-0.08989782
119	0x3d06425b	0.032778125
120	0xbdac261e	-0.08405708
121	0x3d7fa708	0.062415153
122	0xbdab588a	-0.08366497
123	0xbdca8633	-0.09888878
124	0xbdbb5d8b	-0.09148701
125	0x3e7ea500	0.2486763
126	0xbe02d6f0	-0.12777305
127	0xbdfbbe40	-0.12292147
128	0x3e2ffdeb	0.17186706
129	0xbca0a3f5	-0.01960943
130	0xbd0782f7	-0.033083882
131	0x3ce2dbe4	0.027692743
132	0xbcf32878	-0.029682383
133	0xbd68f616	-0.05687531
134	0x3dc16c9b	0.09444543
135	0xbbb7a81c	-0.005604757
136	0x3ae6099a	0.0017550469
137	0x3d790033	0.060791206
138	0x3c12f58b	0.008969675
139	0x3d995d9b	0.07488557
140	0xbced28f2	-0.028950188
141	0xbd8c2f2c	-0.06844935
142	0x3d137ff3	0.036010694
143	0xbd8596aa	-0.065228775
144	0xbe09e71b	-0.13467066
145	0xbd0c0393	-0.034183096
146	0x3d56395b	0.052300792
147	0x3d240d04	0.040051475
148	0x3d0a4d2b	0.033765
149	0x3dce968e	0.1008731
150	0x3df92a75	0.12166301
151	0x3e6c22b5	0.23060115
152	0x3dbe3736	0.092878744
153	0x3d938685	0.07203392
154	0x3d9bf738	0.076155126
155	0x3e0db363	0.13837962
156	0x3e08af90	0.13348222
157	0x3d2a77ad	0.041618038
158	0x3d26ad0c	0.040692374
159	0xbe5037d2	-0.20333794
160	0x3ee55b58	0.44796252
161	0xbea01711	-0.31267598
162	0x3da5f9a1	0.081042536
163	0xbd7dcb5e	-0.061961524
164	0x3d17209f	0.036896344
165	0xbd0d9f3d	-0.03457569
166	0xbd1d3f55	-0.038390476
167	0xbceb3659	-0.028712438
168	0x3ce5e4a3	0.028063124
169	0x3dd590e2	0.10428025
170	0xbc2ffaca	-0.010740945
171	0xbd349dd9	-0.044095848
172	0xbdc2173c	-0.09477088
173	0x3da5670b	0.080762945
174	0x3d40ce07	0.047071483
175	0xbd73975a	-0.059470512
176	0xbb080e41	-0.002076045
177	0xbdce64f0	-0.10077846
178	0x3dc9800d	0.09838877
179	0x3d4db1c8	0.050218374
180	0x3d13e2d9	0.03610501
181	0x3df64544	0.1202493
182	0xbd92f516	-0.07175653
183	0xbe93f13b	-0.28894982
184	0xbe16c4d8	-0.14723527
185	0xbc056041	-0.0081406245
186	0x3cd7cdc1	0.026343228
187	0x3dc9cc2f	0.09853398
188	0xbdd97792	-0.10618509
189	0xbdd9763e	-0.10618256
190	0x3cfe0b6b	0.031011304
191	0xbe6df6d9	-0.23238696
192	0x3e78ba45	0.24289806
193	0x3cb59f14	0.02217058
194	0xbbe5ba8a	-0.0070107626
195	0x3cabce83	0.020972496
196	0x3c9c67c8	0.019092456
197	0x3dbb76de	0.091535315
198	0x3caf2616	0.021380465
199	0xbd99cffb	-0.07510372
200	0xbc8c7475	-0.017145375
201	0xbdfa06d0	-0.12208331
202	0xbcb8454f	-0.022493986
203	0x3da660c5	0.08123926
204	0x3d791fa9	0.06082121
205	0x3df17ff8	0.11791986
206	0xbdb7bd47	-0.08971649
207	0xbcde772a	-0.027156431
208	0xbbcb993f	-0.0062133367
209	0x3d7623cc	0.060092732
210	0xbb6bd9ab	-0.0035987895
211	0xbe49403d	-0.19653411
212	0x3d4d285f	0.05008733
213	0xbceb79a3	-0.028744524
214	0xbda2a4f4	-0.079416186
215	0xbd895c74	-0.06707087
216	0x3ca6d952	0.020367298
217	0x3c019382	0.007908704
218	0xbd184b4f	-0.037181195
219	0x3deed9d1	0.11662639
220	0xbd456399	-0.048190687
221	0x3d794a31	0.06086177
222	0xbdda580c	-0.10661325
223	0x3d9a3b0d	0.07530794
224	0xbc959a4a	-0.018262047
225	0x3da47257	0.08029621
226	0x3d1ae404	0.03781511
227	0x3d7694ab	0.060200375
228	0x3e2b9897	0.16757427
229	0x3d83f8db	0.0644395
230	0x3d9e25b9	0.07722039
231	0xbe2d0123	-0.16894965
232	0xbe437d97	-0.19090877
233	0xbe059a0b	-0.13047044
234	0xbc8f2093	-0.017471587
235	0x3db1596b	0.08659633
236	0x3c6714b1	0.014104054
237	0x3a9ffb08	0.001220555
238	0xbd8e4e30	-0.06948507
239	0x3d48bc22	0.049007542
240	0xbf11a821	-0.5689717
241	0x3ed1bc0d	0.40963784
242	0x3d8040a9	0.06262333
243	0xbd8b11ae	-0.067904815
244	0xbdbb9843	-0.09159901
245	0x3b42cd7e	0.0029724534
246	0xbd8bf06c	-0.06832966
247	0x3dddd173	0.10830965
248	0xbd928caf	-0.071557395
249	0x3d0c9a47	0.034326818
250	0x3dd64ce1	0.10463882
251	0xbb86fe4a	-0.004119669
252	0xbe005a2c	-0.12534398
253	0x3cf609e2	0.03003401
254	0x3b8df98d	0.0043327273
255	0xbd1e63bd	-0.038669337

bias f4 [256]
0	0xbdbed3a6	-0.093177125
1	0x3c867337	0.01641236
2	0x3d989dd9	0.07451982
3	0x3dc49292	0.095982686
4	0x3d55a586	0.05215981
5	0x3d155a05	0.036462802
6	0xbc0092bd	-0.007847485
7	0xbd8311bd	-0.06399868
8	0x3ce53be0	0.027982652
9	0x3c24ca5d	0.010058013
10	0xbce378fc	-0.02776765
11	0xbde60e7c	-0.112332314
12	0x3df434a2	0.119241014
13	0xbd8febf6	-0.07027428
14	0xbd8bfee0	-0.06835723
15	0x3bf920b5	0.007602776
16	0xbcad1eb6	-0.021132808
17	0x3d908ca4	0.07058075
18	0x3dd30a4c	0.10304698
19	0xbdb869a0	-0.09004521
20	0x3cdcbee4	0.026946492
21	0xbcaf6d98	-0.021414563
22	0x3df88714	0.12135139
23	0xbde5d0fd	-0.11221502
24	0x3b49d132	0.0030794856
25	0x3d4cb935	0.049981315
26	0x3df994ac	0.1218656
27	0x3c99d57d	0.018778557
28	0x3ddaca78	0.10683149
29	0xbdc2e8b6	-0.09517042
30	0xbc551e2a	-0.01300768
31	0xbdf3e02a	-0.1190799
32	0x3d0cb61f	0.03435337
33	0x3daadde3	0.08343103
34	0xbc772daa	-0.015086571
35	0xbdf185bd	-0.11793087
36	0xbd8a027d	-0.06738756
37	0xbd635549	-0.055501256
38	0xbd963e3d	-0.0733609
39	0x3d8ec73c	0.06971595
40	0x3d3a7ce1	0.04552925
41	0xbdde4793	-0.108534954
42	0x3bc8d726	0.0061291633
43	0x3daecaa2	0.08534743
44	0x3d5f815f	0.054566737
45	0xbcf3d862	-0.029766265
46	0x3dc41bc0	0.095756054
47	0x3df94278	0.12170881
48	0xbcba45c0	-0.022738338
49	0xbd584371	-0.052798692
50	0x3dba7743	0.091047786
51	0xbd69d1fd	-0.057085026
52	0x3d031496	0.032002054
53	0xbd78e6ee	-0.060767107
54	0x3c8f2f6e	0.01747867
55	0x3cdcb284	0.026940592
56	0xbd037abc	-0.03209947
57	0x3d661c60	0.056179404
58	0xbd8d0a12	-0.068866864
59	0xbba742a8	-0.0051043816
60	0x3d56316d	0.05229323
61	0xbcc131e1	-0.023583354
62	0x3ddb6019	0.107116885
63	0x3d72a17f	0.059236046
64	0xbd9fde3a	-0.07806058
65	0x3d7a406c	0.061096594
66	0x3dabbff6	0.08386223
67	0xbe04a338	-0.12952888
68	0x3d768126	0.06018176
69	0x3dbc2533	0.09186783
70	0xbbebe510	-0.0071989372
71	0x3cf03149	0.029320376
72	0x3cbc0c8a	0.022955198
73	0x3d952d66	0.0728405
74	0x3dd798ad	0.105271675
75	0xbce0a592	-0.0274227
76	0xbcf36b5f	-0.029714284
77	0x3cb86291	0.022507938
78	0xbd7a9321	-0.06117547
79	0x3d7e82ba	0.06213639
80	0xbd7645ed	-0.06012528
81	0x3dfd6ef5	0.12374679
82	0xbd9dc253	-0.0770308
83	0x3d4d1b03	0.05007459
84	0x3dbcaf81	0.09213162
85	0x3d32e3a1	0.043674115
86	0xbd61249e	-0.05496656
87	0xbda9e2a2	-0.0829518
88	0x3ce7d6d4	0.02830068
89	0xbd7c0f9e	-0.06153833
90	0x3b711eee	0.0036792117
91	0xbd3f5ace	-0.046717457
92	0xbd56cbf4	-0.0524406
93	0x3da57a21	0.08079935
94	0xbdf50e59	-0.11965627
95	0xbc5d8a3a	-0.013521725
96	0xbd4ecdb2	-0.050489135
97	0xbdb454c5	-0.08805231
98	0x3dc693e2	0.09696175
99	0x3d6a1a25	0.05715384
100	0x3dbf3494	0.093362
101	0x3dab8477	0.08374875
102	0xbd86800b	-0.06567391
103	0xbda785d5	-0.08179823
104	0x3dd0e276	0.10199444
105	0xbda90f73	-0.082549
106	0x3d645576	0.055745564
107	0xbdd46eb1	-0.10372675
108	0x3d309ef1	0.04312033
109	0xbcc8d2f2	-0.024514649
110	0xbc3b8b53	-0.011446792
111	0xbd3612c6	-0.044451497
112	0x3debff5f	0.115233175
113	0x3dcec359	0.10095853
114	0xbd8cd94b	-0.06877383
115	0x3d980ca2	0.074242845
116	0xbc6165aa	-0.013757149
117	0xbd340657	-0.04395136
118	0xba8ec1d9	-0.0010891511
119	0xbd874c96	-0.066064045
120	0x3d8c23f4	0.06842795
121	0xbbaf2a28	-0.0053456016
122	0x3d0b3d94	0.033994272
123	0x3d93a66d	0.072094776
124	0x3c8a923e	0.016915437
125	0xbc0cdef9	-0.008598083
126	0xbdb988ec	-0.09059319
127	0x3d7dd931	0.061974708
128	0xbb557722	-0.003257223
129	0x3c28bef6	0.010299435
130	0x3d6c4779	0.05768535
131	0x3d134ce2	0.035961993
132	0xbd856339	-0.06513066
133	0xbdbf0d29	-0.09328682
134	0xbd4dc231	-0.050234023
135	0x3e02e863	0.12783961
136	0x3da55363	0.080725454
137	0x3d8e6afc	0.069539994
138	0x3a2926cf	0.00064526213
139	0xbd04917a	-0.0323653
140	0x3cca380d	0.02468493
141	0x3ce486fc	0.027896397
142	0x3d142c35	0.03617497
143	0xbd1943dc	-0.03741823
144	0xbcc60d43	-0.024176246
145	0xbd2d751f	-0.042348024
146	0xbd3146f8	-0.04328057
147	0xbc875e82	-0.016524557
148	0x3d31e1c2	0.04342819
149	0xbc0185e6	-0.007905459
150	0x3daffdc6	0.08593325
151	0x3dc64c16	0.09682481
152	0xba84c95b	-0.0010130809
153	0xbda373b6	-0.079810545
154	0x3a08dc31	0.00052207994
155	0x3d023390	0.031787455
156	0x3da76422	0.08173396
157	0x3c23b455	0.009991725
158	0xbe06b144	-0.13153559
159	0x3d7fda26	0.062463902
160	0xbd8c79b3	-0.0685915
161	0xbcb9f54d	-0.022699976
162	0x3d54da0a	0.05196575
163	0x3dfa7279	0.12228865
164	0x3def6303	0.11688807
165	0x3d0ad5d5	0.033895332
166	0xbdad8b9e	-0.084738955
167	0xbdc96354	-0.098333985
168	0x3d84058a	0.06446369
169	0xbd1b704f	-0.037948903
170	0x3ce3684d	0.027759695
171	0x3d5721b0	0.05252236
172	0xbca164c4	-0.01970137
173	0x3d63a9a3	0.0555817
174	0x3d5f89b6	0.05457469
175	0x3d806847	0.06269889
176	0xbdf5e154	-0.120058686
177	0xbc3892f8	-0.011265509
178	0x3dc16310	0.09442723
179	0xbbffa43f	-0.007801562
180	0xbd22b623	-0.03972448
181	0xbd4de4c7	-0.050267007
182	0xbd8a9a98	-0.06767768
183	0x3b016b96	0.0019747964
184	0xbc2c37b7	-0.01051133
185	0xbb6648ad	-0.0035138533
186	0xbdabe471	-0.08393181
187	0xbc3f2556	-0.011666616
188	0x3d4c7d2d	0.049924064
189	0x3ced4ac9	0.028966324
190	0xbd692e98	-0.0569292
191	0xbd26a817	-0.040687647
192	0x3d8fba5e	0.070179686
193	0xbd4e2806	-0.050331138
194	0xbdb909bb	-0.09035059
195	0xbd664e05	-0.05622675
196	0xbcb7666b	-0.022387704
197	0x3ce1e015	0.027572671
198	0x3d8e15d3	0.069377564
199	0xbd990fc0	-0.07473707
200	0xbdadcb7d	-0.08486078
201	0x3d8a2d5d	0.067469336
202	0xbd3b2e1f	-0.04569828
203	0xbce418ca	-0.027843852
204	0x3d95b0bd	0.07309101
205	0x3c369b02	0.011145355
206	0x3d41e531	0.047337715
207	0x3c8c9996	0.01716308
208	0x3d6f69b2	0.05845041
209	0x3c8d00dd	0.017212326
210	0xbb25ebf1	-0.0025317634
211	0xbd728a01	-0.059213642
212	0x3d0488fe	0.03235721
213	0xbda5d9b6	-0.08098166
214	0xbcd2acd9	-0.025717186
215	0x3d10326e	0.035204343
216	0x3d234cbc	0.0398681
217	0xbd0cc30c	-0.0343657
218	0x3d2ba537	0.041905608
219	0x3d942ead	0.07235465
220	0x3c9b61c1	0.018967511
221	0xbd7af088	-0.061264545
222	0x3cb367c3	0.021900063
223	0x3d7c7629	0.061636124
224	0xbc269d6f	-0.010169371
225	0xbdc74688	-0.0973025
226	0x3c39df8b	0.011344801
227	0xbd887e31	-0.06664694
228	0xbd29421f	-0.041322824
229	0x3dc2ab4d	0.09505329
230	0x3bbb2a65	0.005711841
231	0x3d937f14	0.072019726
232	0x3bb617a4	0.0055570174
233	0xbbb305d6	-0.005463342
234	0xbd5552b5	-0.05208083
235	0xbc0f42ec	-0.008743983
236	0x3d491437	0.049091544
237	0xbd800a52	-0.062519684
238	0x3d551b32	0.05202789
239	0x3daede19	0.085384555
240	0xbcc03c0d	-0.023466134
241	0xbd0be23d	-0.034151305
242	0x3b80b457	0.003927748
243	0x3b883598	0.0041567795
244	0x3d2f6d3c	0.042828783
245	0xbcb73cfb	-0.022367945
246	0xbce3c85a	-0.027805496
247	0xbc994be7	-0.01871295
248	0xbda5fcc6	-0.08104853
249	0xbdd3f034	-0.103485495
250	0x3dce34f7	0.10068696
251	0xba96319a	-0.0011458874
252	0xbd071d62	-0.032987006
253	0x3c83f978	0.016110167
254	0xbd7f509d	-0.06233274
255	0x3d6fd587	0.058553245

weight f4 [128, 256]
0	0x3c9c29c2	0.01906288
1	0x3e10976e	0.14120266
2	0x3db27b5d	0.08714936
3	0x3c0da448	0.008645125
4	0x3c04215d	0.008064595
5	0xbdb506c4	-0.08839181
6	0xbb458318	-0.0030137952
7	0xbd686ddd	-0.0567454
8	0xbda7a547	-0.08185821
9	0x3c077040	0.008266509
10	0xbd42f5fc	-0.04759787
11	0xbd0f1f82	-0.034942158
12	0x3d5aa6f1	0.053381864
13	0xbcb8f364	-0.022576995
14	0x3dfe5bff	0.124198906
15	0xbd833fe5	-0.06408671
16	0xbe0e7110	-0.13910317
17	0x3c9b102e	0.018928614
18	0x3dab29fe	0.08357619
19	0x3d1be10a	0.03805641
20	0xbd49405f	-0.049133655
21	0xbcddecf7	-0.027090533
22	0xbc95ce91	-0.018286975
23	0xbd86a7c1	-0.06574965
24	0xbd839dae	-0.064265594
25	0x3d2a22e8	0.041537195
26	0xbd027595	-0.031850416
27	0xbd42fda2	-0.047605164
28	0x3d8da8cb	0.0691696
29	0xbca206ff	-0.019778727
30	0x3d8c5602	0.06852342
31	0x3d825eea	0.0636576
32	0x3df43b68	0.11925393
33	0x3cc58b22	0.024114195
34	0xbcb64a24	-0.02225215
35	0x3c7eaddf	0.015544384
36	0x3d4a7579	0.049428437
37	0x3be4f95d	0.006987734
38	0x3dc4c036	0.09606974
39	0x3cca8a95	0.024724284
40	0x3d04b7c5	0.03240182
41	0xbbca8777	-0.0061806994
42	0xbdd85d03	-0.105646156
43	0xbce7a3cd	-0.028276348
44	0xbcf5c045	-0.029998908
45	0x3c81891a	0.015812445
46	0xbcde8471	-0.027162762
47	0x3d144dfd	0.036207188
48	0x3c638fc1	0.013889254
49	0x3de5647c	0.112008065
50	0xbd2f5131	-0.04280204
51	0xbd49680c	-0.049171492
52	0xbdc0ebbf	-0.09419965
53	0xbd9dfdfd	-0.0771446
54	0x3b84b8b5	0.004050339
55	0xbe309bdb	-0.17246954
56	0xbdaad696	-0.0834171
57	0x3d2d78ce	0.042351536
58	0x3db97599	0.09055633
59	0xbdcafe20	-0.09911752
60	0xbc1098ce	-0.008825494
61	0xbd0943fe	-0.033512108
62	0x3d850095	0.06494252
63	0x3cc000d6	0.023437899
64	0xbdae0d88	-0.08498675
65	0x3d819c44	0.063286334
66	0xbcdc6a2d	-0.026906097
67	0x3dfa29bc	0.122149915
68	0x3d8e82da	0.06958552
69	0x3d36491d	0.04450332
70	0xbc75e786	-0.015008813
71	0x3ac36542	0.0014907497
72	0x3dbd87c1	0.09254409
73	0xbc3f4a30	-0.0116754025
74	0x3d8e9b39	0.069632
75	0x3da7d568	0.08195001
76	0x3b84d933	0.0040542125
77	0xbda32e3c	-0.07967803
78	0xbe35afea	-0.17742887
79	0xbc90ac7c	-0.017660372
80	0x3e0d045a	0.13771191
81	0xbc8a5c42	-0.016889695
82	0x3dc3b758	0.095564544
83	0x3d0c3bed	0.034236837
84	0x3b9e24d2	0.0048261667
85	0x3d83596f	0.064135425
86	0xbb54e9e9	-0.0032488054
87	0xbc9dfadb	-0.019284656
88	0xbc5240b3	-0.012832808
89	0x3d3336b2	0.043753333
90	0x3d10a117	0.035309877
91	0xbd8d240e	-0.068916425
92	0x3c3fd717	0.011708996
93	0x3c8c0f4c	0.017097138
94	0x3b7f1d94	0.0038927542
95	0x3d7497a5	0.059714932
96	0x3e121f9b	0.14269869
97	0x3d140c82	0.03614474
98	0x3d5b81cb	0.053590577
99	0xbdb08627	-0.086193375
100	0xbd25e93b	-0.04050563
101	0x3d6ce4ec	0.057835504
102	0xbd06bc3c	-0.032894358
103	0x3d480f18	0.04884252
104	0xbd72ff1b	-0.05932532
105	0xbcdb2bf7	-0.026754363
106	0x3d6e5005	0.05818178
107	0xbca522f3	-0.020158267
108	0xbcf8d00b	-0.03037264
109	0xbd98f186	-0.07467942
110	0xbccae743	-0.024768477
111	0xbc91642d	-0.017747963
112	0x3d21a743	0.039466154
113	0x3c08e489	0.008355268
114	0xbceb4627	-0.028719975
115	0xbc6fa8e3	-0.014627668
116	0x3c39f94e	0.011350943
117	0x3ca30cf7	0.019903643
118	0xbd68dd7e	-0.056851856
119	0x3b2e24be	0.0026572193
120	0xbd326483	-0.043552887
121	0xbda4a0e3	-0.08038499
122	0x3c50efbd	0.012752471
123	0x3d47f4fa	0.048817612
124	0x3dd1f527	0.10251837
125	0xbd6b44ca	-0.05743865
126	0x3b2d6b7c	0.002646177
127	0xbdae7ccd	-0.085198976
128	0x3aafbd47	0.001340785
129	0xbd459c39	-0.04824469
130	0xbd99e59a	-0.07514496
131	0xbc27ac82	-0.010234
132	0xbd2367c6	-0.039893888
133	0xbd8e4737	-0.06947177
134	0x3da03606	0.07822804
135	0x3d2afebb	0.041746836
136	0x3d34f87d	0.04418229
137	0xbe00cfbe	-0.12579247
138	0xbcca5bc2	-0.024701957
139	0xbdce7b4c	-0.10082111
140	0xbc938ce2	-0.018011514
141	0x3e1e7a62	0.15476373
142	0xbdaa8ec0	-0.08328009
143	0xbdf6a016	-0.12042253
144	0x3d5b8266	0.053591155
145	0x3c6139ed	0.013746721
146	0x3badba91	0.0053017815
147	0xbc835a4f	-0.016034273
148	0x3cffc34f	0.03122106
149	0xb882b82f	-6.23319e-05
150	0xbbda34bd	-0.006659119
151	0x3d6fd766	0.05855503
152	0x3a8158e5	0.0009868412
153	0xbdadf599	-0.0849411
154	0x3d0d5c0b	0.034511607
155	0x3b65cbfa	0.0035064206
156	0xbd046160	-0.032319427
157	0x3cd75be6	0.026288938
158	0xbd61af64	-0.055098906
159	0x3c22b410	0.009930626
160	0xbd292504	-0.041295066
161	0xbb5c8153	-0.003364642
162	0xbd0febc3	-0.03513695
163	0xbc2a7b53	-0.010405379
164	0xbd8cb78d	-0.06870947
165	0x3dab11aa	0.083529785
166	0xbcbcd481	-0.023050549
167	0xbd270322	-0.040774472
168	0xbe1c9c61	-0.15294029
169	0xbd45dcc8	-0.048306257
170	0xbd7f34c2	-0.062306173
171	0xbb7fb6b3	-0.003901881
172	0x3c161a29	0.0091615105
173	0x3c602ac8	0.013682075
174	0xbc9b9d43	-0.018995887
175	0x3d7b74b4	0.061390594
176	0xbc3852b8	-0.01125019
177	0xbbd8d95b	-0.0066177077
178	0xbd01c8fc	-0.031685814
179	0x3d4662fc	0.048434243
180	0xbdaa8b4a	-0.083273485
181	0x3cf4d0cc	0.029884718
182	0x3d8bbede	0.068235144
183	0x3d8b8a6e	0.06813513
184	0x3da35eaa	0.0797704
185	0x3d459f1d	0.048247445
186	0xbd18821b	-0.037233453
187	0x3d1708f6	0.03687378
188	0xbd91c8cb	-0.07118376
189	0x3c8e151c	0.01734405
190	0xbdbca79a	-0.09211655
191	0xbc86123c	-0.016366117
192	0x3cf45ca8	0.029829338
193	0x3d4f01fd	0.050539006
194	0xbaec3cd6	-0.0018023502
195	0xbcd48bb1	-0.025945516
196	0x3d8817a4	0.06645134
197	0x3d14c307	0.036318805
198	0x3cdf6c29	0.027273254
199	0xbcb13085	-0.021629581
200	0xbd37aabe	-0.044840567
201	0x3bdcfac7	0.006743762
202	0x3d99a4f3	0.07502165
203	0x3d1b56f5	0.037924726
204	0xbceb1c19	-0.028699921
205	0xba9728e2	-0.001153257
206	0xbd1baba2	-0.03800548
207	0xbc93fdd2	-0.018065367
208	0x3c82095b	0.015873602
209	0x3d91caaf	0.07118737
210	0xbd9bd6a9	-0.076093026
211	0xbd284f70	-0.041091383
212	0x3d829575	0.06376163
213	0xbc227f79	-0.009918087
214	0xbc997b39	-0.018735515
215	0x3d899d84	0.06719497
216	0x3b568e41	0.0032738599
217	0xbd9c5fd0	-0.07635462
218	0xbc771113	-0.015079754
219	0xbd0c4489	-0.034245048
220	0x3cd0e81e	0.025501307
221	0xbd874152	-0.06604256
222	0xbd6e6644	-0.058202997
223	0x3d64a83e	0.05582451
224	0x3d9f30c8	0.07772976
225	0x3d33d4e1	0.04390419
226	0x3cc5e2a6	0.024155926
227	0xbd17ecd6	-0.0370911
228	0xbd94934d	-0.07254658
229	0xbd111442	-0.03541971
230	0xbd4858f2	-0.04891295
231	0x3d8d59cf	0.06901895
232	0x3c88576d	0.01664325
233	0xbd841756	-0.064497635
234	0xbd80b9a9	-0.06285412
235	0x3d039046	0.03212001
236	0x3c279f84	0.010230903
237	0xbd2445c1	-0.040105585
238	0x3da2d0ab	0.079499565
239	0xbdc3d27d	-0.09561632
240	0xbce8f708	-0.028438106
241	0xbd0e0dfd	-0.03468131
242	0xbd6b0ea6	-0.057387017
243	0x3da8b302	0.08237268
244	0x3b9e0bec	0.0048231985
245	0x3c81c52b	0.015841087
246	0xbd94ff26	-0.07275228
247	0x3df8a471	0.1214074
248	0xbdca85f4	-0.09888831
249	0x3dae5184	0.085116416
250	0xba62b40d	-0.00086480455
251	0xbdd38d73	-0.10329714
252	0x3d9d2ed7	0.076749496
253	0xbcb7123a	-0.022347558
254	0x3d188a19	0.037241075
255	0xbd8d1f6e	-0.0689076

bias f4 [128]
0	0xbc3aa314	-0.01139142
1	0x3d4da9ad	0.050210644
2	0xbd8cf255	-0.06882159
3	0xbd1055e6	-0.03523817
4	0x3d00cabf	0.031443354
5	0xbca6ea18	-0.020375296
6	0xbc1275df	-0.0089392355
7	0x3d2b4c7b	0.041820984
8	0x3d1feb8a	0.039042987
9	0x3b851137	0.00406089
10	0x3d0b4181	0.033998016
11	0xbce6e0c0	-0.028183341
12	0xbd90fae3	-0.07079103
13	0xbc931538	-0.017954454
14	0x3b122169	0.0022297746
15	0xbd265458	-0.04060778
16	0xbcb70fc1	-0.02234638
17	0x3d007c3b	0.031368475
18	0x3d02d42c	0.031940624
19	0xbd7a4a42	-0.061105974
20	0x3caab6e8	0.02083917
21	0xbd5e5b2b	-0.054286163
22	0xbca71b43	-0.020398742
23	0xbd5401ea	-0.051759638
24	0xbd7ceba4	-0.061748162
25	0x3d6c3e21	0.05767644
26	0x3d1c5671	0.038168374
27	0xbbcc6a41	-0.0062382524
28	0xbc75da27	-0.015005625
29	0xbcc75e2a	-0.024336893
30	0xbd52e857	-0.051491108
31	0xbd7a31a4	-0.061082497
32	0xbcf46649	-0.02983393
33	0xbd6a18c9	-0.057152543
34	0xbce96bbb	-0.028493753
35	0xbd47393f	-0.04863858
36	0x3ca2a960	0.019856155
37	0x3cc93ad5	0.024564186
38	0x3c8ad765	0.016948411
39	0x399bf257	0.0002974446
40	0x3ca3fdc0	0.020018458
41	0x3a85d2ab	0.0010209879
42	0x3c10daf5	0.008841266
43	0xbcb39a2c	-0.0219241
44	0xbcda35d3	-0.026636994
45	0xbc96300b	-0.018333456
46	0x3d3c4034	0.045959666
47	0xbcb3693d	-0.021900767
48	0xbcaf6e3a	-0.021414865
49	0xbc81d44a	-0.015848298
50	0xbcccf848	-0.025020733
51	0xbd833cff	-0.064081185
52	0xbcee4a64	-0.029088207
53	0xbd0e67ff	-0.034767147
54	0xbc00c419	-0.007859253
55	0xbd4b40d5	-0.049622376
56	0x3d16445c	0.036686286
57	0xbd5e579e	-0.054282777
58	0x3c91c4f0	0.017794102
59	0xbccd5939	-0.025066959
60	0xbd66126d	-0.056169916
61	0x3be3a36f	0.006946973
62	0x3ab86695	0.0014068658
63	0x3b977eff	0.0046232934
64	0x3d1f7e9e	0.03893911
65	0x3a2a6a4e	0.0006500826
66	0xbcc87e0b	-0.024474164
67	0xbca2ab59	-0.019857096
68	0x3cae01f7	0.021241171
69	0x3cc9463f	0.024569629
70	0xbd2fa8da	-0.04288564
71	0x3d1ffb9b	0.03905831
72	0xbd44253c	-0.047887072
73	0x3bd76bc8	0.006574128
74	0xbd19f3fc	-0.037586197
75	0xbd879178	-0.06619543
76	0xbcc6fffd	-0.024291987
77	0xbd612a98	-0.05497226
78	0x3d116efb	0.03550623
79	0xbc0be098	-0.008537434
80	0x3c6996a6	0.014257109
81	0xbc98ecf4	-0.018667676
82	0xbd83c17a	-0.06433387
83	0xbd789886	-0.060692333
84	0xbd3011a1	-0.042985562
85	0xbd7e2c41	-0.062053923
86	0xbcfb1178	-0.030647978
87	0x3cb0627f	0.021531342
88	0xbc72db6a	-0.01482282
89	0x3d878456	0.06617038
90	0xbc19c71f	-0.009385853
91	0xbc97eaf2	-0.018544648
92	0xbd46c75d	-0.04852997
93	0xbd01ba53	-0.031671833
94	0xbdbcae9a	-0.0921299
95	0xbc0741af	-0.008255406
96	0x3bb064b0	0.0053830966
97	0x3c298ee6	0.010349011
98	0x3d6b6ae1	0.057474975
99	0xbd45e885	-0.04831745
100	0x3c90925e	0.017647918
101	0xbd09feed	-0.03369038
102	0xbc91714c	-0.01775422
103	0x3d17a640	0.037023783
104	0xbd9da7a1	-0.07697988
105	0xbd451b6c	-0.048121855
106	0x3d6beb2e	0.05759733
107	0x3cde70f6	0.027153473
108	0xbda9d855	-0.08293215
109	0xbcd10312	-0.02551416
110	0xbd1efe91	-0.038816992
111	0xbcfa05af	-0.030520288
112	0xbbd9cd6a	-0.0066468017
113	0x3cd52092	0.026016507
114	0xbd78954e	-0.060689263
115	0x3d762071	0.060089532
116	0xbc31b03e	-0.010845242
117	0xbcfd7f6c	-0.030944549
118	0xbcf0b6ae	-0.029383983
119	0x3c8fd986	0.017559778
120	0xbcdbf16d	-0.02684852
121	0xbd4aa3c7	-0.049472596
122	0xbda834a4	-0.082131654
123	0x3c91c927	0.017796112
124	0x3cddf458	0.027094051
125	0xbca37951	-0.01995531
126	0xbd902adc	-0.07039425
127	0x3cd256d8	0.025676176

weight f4 [128, 128]
0	0x3d142c29	0.036174927
1	0xbd30f171	-0.043199006
2	0x3d201461	0.039081935
3	0x3c83b4c7	0.016077412
4	0x3c4164ff	0.0118038645
5	0x3d5cc4cf	0.05389863
6	0xbd356394	-0.04428442
7	0x3c190306	0.0093391
8	0x3d4b96d5	0.04970439
9	0x3cbea52f	0.023272125
10	0x3b17b3fe	0.0023148055
11	0x3e058729	0.13039841
12	0xbb13b101	-0.0022535922
13	0xbc1e81d8	-0.009674512
14	0xbd34365c	-0.043997154
15	0xbc75ebab	-0.015009801
16	0xbd3f0fdb	-0.04664598
17	0xb8f93458	-0.00011882995
18	0xbb4362da	-0.0029813559
19	0x3bf73406	0.0075440435
20	0xbcee0e0d	-0.029059434
21	0x3b8eac8d	0.0043540657
22	0x3d78905d	0.06068455
23	0x3c29705e	0.010341732
24	0x3d25868f	0.04041153
25	0x3d2916ab	0.041281383
26	0x3daa67e3	0.08320596
27	0xbb81e3b0	-0.00396391
28	0xbcbf5b4f	-0.023358969
29	0x3dec7f51	0.11547721
30	0xbcacf166	-0.021111201
31	0xba3fe2ac	-0.00073198485
32	0xbe0d5f48	-0.13805878
33	0x3cd9f087	0.02660395
34	0xbd301b00	-0.0429945
35	0xbcfd9af7	-0.030957682
36	0x3d18fe2b	0.03735177
37	0xbc0e1bae	-0.008673592
38	0x3d02e2ef	0.031954702
39	0x3d8dfeef	0.0693339
40	0x3d604d6f	0.054761346
41	0xbcbf57bb	-0.023357263
42	0xbd1b181b	-0.037864786
43	0xbc811246	-0.015755784
44	0x3cb06986	0.021534692
45	0xbd21cd3a	-0.03950236
46	0xbdb7528d	-0.08951292
47	0xbc876fd6	-0.01653282
48	0x3c0f6635	0.008752395
49	0xbd1502ab	-0.036379497
50	0x3cd51b40	0.02601397
51	0x3db81308	0.08988005
52	0x3d62b143	0.05534483
53	0x3d9e660f	0.0773431
54	0x3d8e18f6	0.06938355
55	0x3ce45455	0.027872244
56	0xbcdd3f6f	-0.027007787
57	0xbb940946	-0.004517707
58	0xbcf30b0d	-0.029668355
59	0x3d8af5ec	0.06785187
60	0xbd5bbf15	-0.053649027
61	0xbd3be68e	-0.04587417
62	0xbad2378b	-0.0016038282
63	0x3dd485cc	0.10377082
64	0x3d2e312d	0.042527366
65	0x3bc2009b	0.0059204823
66	0x3e34237e	0.17591664
67	0xbb484acf	-0.0030562168
68	0xbd0acff5	-0.03388973
69	0x3d9c237a	0.07623954
70	0x3c634eef	0.0138738
71	0xbde357d8	-0.11100739
72	0x3d30bff0	0.043151796
73	0xbd329baf	-0.043605503
74	0x3caa3a8f	0.020779876
75	0x3d3c7e11	0.046018664
76	0x3d92a79f	0.071608774
77	0xbc9a0c85	-0.018804798
78	0xbc946a4f	-0.018117098
79	0x3da20c61	0.07912517
80	0xbd8b8a5f	-0.068135016
81	0xbd426eb4	-0.047468856
82	0xbd6cbbae	-0.057796173
83	0x3dd79226	0.105259225
84	0xbc947a32	-0.018124674
85	0xbda4fd80	-0.08056164
86	0xbd66cc1e	-0.056347005
87	0xbdbf2afa	-0.09334369
88	0x3d2243a4	0.03961529
89	0xbd1205b2	-0.035649963
90	0x3d9c0d22	0.076196924
91	0xbbd3f90e	-0.0064688986
92	0x3d220800	0.03955841
93	0x3d638e95	0.0555559
94	0x3d07e4e8	0.033177286
95	0xbd336ce6	-0.043805026
96	0xbba72876	-0.005101259
97	0xbd656a81	-0.056009773
98	0xbd68f27c	-0.056871876
99	0x3d081682	0.03322459
100	0xbccf5d45	-0.025313029
101	0xbd9e105f	-0.07717966
102	0x3b8ca8fd	0.004292606
103	0xbd63e001	-0.05563355
104	0xbbe7d181	-0.0070745354
105	0x3d8646c2	0.06556465
106	0x3d8cfda0	0.06884313
107	0x3ccae399	0.02476673
108	0x3d99d217	0.075107746
109	0xbd980f19	-0.07424755
110	0xbcb2fefc	-0.021850102
111	0x3a81d21d	0.0009904538
112	0xbd9cd9da	-0.076587394
113	0x3d8f874a	0.07008226
114	0x3d23fa51	0.040033642
115	0xbd23fd22	-0.040036328
116	0x3dc60a16	0.096698925
117	0xbca92b3a	-0.020650495
118	0xbd90f202	-0.07077409
119	0x3d91ed5a	0.07125349
120	0x3d69721b	0.056993585
121	0xbcc49087	-0.023994697
122	0x3d63f887	0.055656936
123	0xbd7fe4b2	-0.06247396
124	0xbdda3d05	-0.1065617
125	0x3d5b10fc	0.053482994
126	0xbce632dc	-0.028100424
127	0x3d2d8600	0.04236412
128	0x3d110a66	0.035410307
129	0xbdade3d2	-0.08490719
130	0x3d21d1ea	0.03950683
131	0x3cb91839	0.022594558
132	0xbd39b261	-0.04533613
133	0xbc31676e	-0.010827882
134	0x3ce180b5	0.027527193
135	0x3d1da818	0.038490385
136	0x3d0dd4af	0.03462666
137	0xbd8adad9	-0.06780023
138	0x3d93a832	0.07209815
139	0x3d186f42	0.03721548
140	0x3dc109d1	0.094257005
141	0x3c345e24	0.011008773
142	0x3dbc88e8	0.092058
143	0xbd8aab64	-0.067709714
144	0x3d0c7e04	0.034299865
145	0x3dc2019f	0.094729654
146	0xbcc930bb	-0.02455937
147	0xbd112865	-0.035438914
148	0xbc4453b9	-0.011982852
149	0x3db6c09f	0.08923458
150	0xbd70fb84	-0.058833614
151	0x3dbe2034	0.09283486
152	0x3d8a7e88	0.06762415
153	0xbd9aba40	-0.075550556
154	0xb97ead0f	-0.00024287797
155	0xbd534ceb	-0.051587027
156	0xbcff8e71	-0.031195851
157	0xbdf1c333	-0.118048094
158	0xbd1901da	-0.03735528
159	0xbb5dd5c1	-0.003384933
160	0xbda2bc16	-0.07946031
161	0xbcf37fef	-0.02972409
162	0x3c995027	0.018714977
163	0x3dbc3937	0.091906
164	0xbdb09444	-0.086220294
165	0x3cc657af	0.024211733
166	0x3d60fa4b	0.054926198
167	0xbd10469f	-0.0352236
168	0xbd429a7d	-0.047510613
169	0x3cc70d2c	0.024298273
170	0xbc7b791a	-0.015348697
171	0xbccaaa9b	-0.024739554
172	0xbd00ff26	-0.03149333
173	0xbc1dc8aa	-0.009630362
174	0xbcfc8589	-0.030825393
175	0xbdb8aa5a	-0.09016867
176	0x3dbfa489	0.093575545
177	0x3c9a920b	0.018868467
178	0x3dd679e6	0.10472469
179	0xbd834cb1	-0.06411112
180	0xbc6d9a02	-0.01450205
181	0x3d2d1021	0.04225171
182	0xbda62d67	-0.081141286
183	0xbd7cfbc9	-0.06176356
184	0x3cc9b814	0.024623908
185	0xbcce1dc2	-0.025160674
186	0x3d3fa8f9	0.046792004
187	0x3d782343	0.060580503
188	0x3cabfc72	0.020994399
189	0x3d8d90f9	0.06912417
190	0x3cacdb6b	0.02110072
191	0x3d20b971	0.03923935
192	0xbdcaf752	-0.09910454
193	0xbc0b0047	-0.008483953
194	0x3d65fc05	0.056148548
195	0x3dcf3b48	0.10118729
196	0xbceb0390	-0.028688222
197	0x3d1f4d3f	0.038892027
198	0xbb56ab52	-0.0032755923
199	0xbd24e759	-0.040259693
200	0xbdbe2871	-0.09285057
201	0x3d03b97d	0.032159317
202	0x3ddf7ac9	0.10912091
203	0xbdf4adbf	-0.11947202
204	0xb91b56d2	-0.00014814295
205	0xbcc8624a	-0.02446093
206	0xbdb9cee1	-0.09072662
207	0x3d7af856	0.061271988
208	0x3cf398ea	0.029736001
209	0xbd2e5ced	-0.04256909
210	0x3d97fa69	0.07420809
211	0xbd03be68	-0.032164007
212	0xbd17ce56	-0.03706201
213	0xbd8758e0	-0.066087484
214	0xbc8b15ec	-0.016978227
215	0xbcbe25ad	-0.023211325
216	0xbd38522e	-0.045000248
217	0x3d58df78	0.05294749
218	0x3d24fc6a	0.040279783
219	0x3da5e5e3	0.08100488
220	0x3d9bfcd1	0.0761658
221	0xbd1b50a6	-0.03791871
222	0x3d56bd87	0.05242684
223	0x3d88bd3a	0.06676717
224	0xbd9ee870	-0.07759178
225	0xbb8c9034	-0.0042896513
226	0x3d477ed7	0.04870495
227	0x3c26af03	0.010173562
228	0xbce01334	-0.027352907
229	0xbdafa70b	-0.08576783
230	0x3bccbdbe	0.006248205
231	0xbcff4dd7	-0.031165047
232	0x3bffb4b9	0.0078035262
233	0x3d1fb54d	0.03899126
234	0x3d70f28b	0.058825057
235	0x3d0688db	0.03284536
236	0x3dba4b8b	0.0909644
237	0xbd8971ca	-0.06711157
238	0xbd53c676	-0.05170294
239	0xbbb19ce7	-0.0054203155
240	0xbc89cd9c	-0.016821675
241	0xbd8c6d71	-0.06856812
242	0x3d157697	0.03649005
243	0x3c95b4f3	0.01827476
244	0xbd1afd71	-0.037839357
245	0xbdc8a9b0	-0.0979799
246	0x3daed0af	0.08535897
247	0x39df140c	0.0004254881
248	0xbdbed62e	-0.09318195
249	0x3a2a6feb	0.00065016624
250	0xbdb5ef48	-0.0888353
251	0xbd82bb16	-0.0638334
252	0xbb8b6644	-0.0042541344
253	0xbc9afc52	-0.018919144
254	0x3daa3956	0.08311717
255	0xbc938a5f	-0.018010316

bias f4 [128]
0	0x3d408294	0.04699953
1	0xbccda755	-0.025104204
2	0x3c81a158	0.015824005
3	0xbd87a65d	-0.06623528
4	0x3d00259e	0.031285875
5	0xbc4f5aad	-0.012655896
6	0xbd955173	-0.07290926
7	0xbd212c2d	-0.03934877
8	0xbc021b95	-0.007941146
9	0xbcd71053	-0.026252901
10	0xbd196750	-0.037452042
11	0x3b92da87	0.004481617
12	0xbd2263e7	-0.039646056
13	0x3d5d9198	0.054093927
14	0xbc0fc874	-0.008775819
15	0xbca0dd04	-0.019636638
16	0xbd8caa45	-0.06868414
17	0x3cfb6a8f	0.03069046
18	0x3c54cec6	0.012988752
19	0xbda8c25c	-0.08240196
20	0xbce625f9	-0.028094279
21	0xbd9ef358	-0.07761258
22	0xbd3c90c3	-0.046036493
23	0x3c2adf30	0.010429189
24	0x3cd07751	0.02544752
25	0xbce156d8	-0.02750723
26	0x3c7860e5	0.01515982
27	0x3d6a4cda	0.057202198
28	0xbdbb1f82	-0.09136869
29	0xbd51a240	-0.051180124
30	0xbb521839	-0.0032057895
31	0xbd880511	-0.06641591
32	0xbc74f4e7	-0.014950967
33	0xbd03fcaf	-0.0322234
34	0xbda3d474	-0.079995066
35	0xbd7efad2	-0.06225092
36	0xbb2f0113	-0.002670352
37	0x3d5cf9bb	0.0539491
38	0xbe0287b7	-0.12747084
39	0x3c496ca6	0.01229397
40	0x3da1e682	0.07905294
41	0xbd4e73c1	-0.05040336
42	0x3ca8f4e3	0.020624584
43	0x3d296649	0.041357312
44	0xbd6ea91c	-0.058266744
45	0xbaf975b8	-0.0019032275
46	0xbdb2dec9	-0.08733899
47	0xbda231d9	-0.07919664
48	0xbd516cce	-0.051129155
49	0x3d8635d4	0.06553236
50	0xbd33db69	-0.043910418
51	0xbd36b066	-0.04460182
52	0x3c6a47f8	0.014299385
53	0xbcb7c004	-0.022430427
54	0xbdc26a08	-0.0949288
55	0x3bd6c73b	0.006554512
56	0x3d33e080	0.04391527
57	0x3d00cc62	0.031444915
58	0x3d42a166	0.047517203
59	0xbc9f8048	-0.019470349
60	0x3d3642f6	0.044497453
61	0xbd9ebde2	-0.07751061
62	0xbdbeb9a4	-0.09312752
63	0xbc5be22b	-0.013420622
64	0xbcb84ce7	-0.022497607
65	0x3b5862d3	0.0033017888
66	0x3d39c622	0.04535497
67	0xbc667c2b	-0.01406769
68	0xbda87a37	-0.08226436
69	0x3d395aa7	0.04525247
70	0xbcdb7528	-0.026789263
71	0xbc118fbf	-0.008884369
72	0xba9279c5	-0.0011175206
73	0x3b8cb421	0.004293934
74	0xbd74947d	-0.059711922
75	0xbc9aff85	-0.01892067
76	0x3c3f5d74	0.011679996
77	0x3ca26769	0.0198247
78	0x3d774f95	0.06037863
79	0xbd62f336	-0.055407725
80	0xbd4ea68e	-0.050451808
81	0xbc3a0901	-0.011354686
82	0x3d684a01	0.0567112
83	0x3cbd9f2a	0.023147184
84	0x3ce3d533	0.027811622
85	0xbdbd1cbd	-0.09233997
86	0xbcedfb04	-0.029050358
87	0xbcfcf762	-0.03087968
88	0x3d22c4ec	0.03973858
89	0xbdbd32f1	-0.09238232
90	0xbda42dc6	-0.08016543
91	0xbca54e51	-0.020178946
92	0x3bfc40a7	0.007698137
93	0xbc8ff7a5	-0.01757414
94	0x3d41380d	0.047172595
95	0xbd3d4aba	-0.046213843
96	0xbcb2461c	-0.021761946
97	0x3c94f212	0.018181834
98	0x3d4c8ecd	0.049940873
99	0xbdbb6e58	-0.09151906
100	0xbcd5b860	-0.026088893
101	0xbdb9a47f	-0.09064578
102	0x3d984b25	0.07436208
103	0xbd15ee30	-0.036604106
104	0xbcbae272	-0.022813056
105	0x3d8865eb	0.06660064
106	0xbcc76d94	-0.024344243
107	0x3d3eefa2	0.04661525
108	0xbd9ae3f0	-0.07563007
109	0x3d62fb3e	0.055415384
110	0x3d3955b6	0.045247756
111	0xbd8968ef	-0.067094676
112	0xbd48c208	-0.049013168
113	0x3d20e3f3	0.03927989
114	0x3d538a00	0.05164528
115	0xbd414b17	-0.047190752
116	0x3c9c5e61	0.019087972
117	0xbda3e786	-0.08003144
118	0x3da1bb8d	0.078971006
119	0xbd4eb530	-0.050465763
120	0x3cb8e792	0.022571359
121	0x3d3a26f0	0.04544729
122	0x3b6818f5	0.0035415266
123	0xbdbe4b0a	-0.09291656
124	0xbaa028d3	-0.0012219198
125	0xbd4a303c	-0.049362406
126	0x3d48086f	0.048836168
127	0x3d3e8c2b	0.046520393

weight f4 [12, 128]
0	0x3af9cedb	0.001905884
1	0xbc6b7fa1	-0.014373691
2	0xba90f8eb	-0.0011060511
3	0xbc1c8b37	-0.009554676
4	0x3c75aa03	0.014994147
5	0x3c5208ee	0.012819512
6	0x3d402593	0.046910834
7	0xbb80fe96	-0.003936599
8	0xbb0a44c1	-0.002109811
9	0xbbd18bb7	-0.006394829
10	0x3b9e7790	0.0048360303
11	0x3bc4a595	0.006001184
12	0xbaa465a9	-0.0012542504
13	0xbc00acf3	-0.007853734
14	0xbbe861fe	-0.0070917597
15	0xbad1a483	-0.0015994463
16	0xbd8fa31c	-0.070135325
17	0xbb015a23	-0.0019737564
18	0xbbf42016	-0.007450114
19	0x3c3de657	0.011590562
20	0x3c13bf9c	0.009017851
21	0x3c7fcbdb	0.015612568
22	0xbd1b7bb9	-0.037959788
23	0xbb60197a	-0.0034194873
24	0xbb7c43bd	-0.0038492524
25	0xbaf5b6c8	-0.001874649
26	0x3c19005e	0.009338466
27	0x3b54b433	0.003245604
28	0xbc9fa36a	-0.019487102
29	0x3c381c7a	0.011237258
30	0x3c8fd881	0.017559292
31	0xba8c3072	-0.001069559
32	0xbc1ebd68	-0.009688713
33	0x39cd05f6	0.00039105088
34	0xbcfc94d3	-0.030832684
35	0xba9ab209	-0.0011802326
36	0xbbaba24a	-0.005237852
37	0xbc1b3920	-0.009474069
38	0x3d804183	0.06262495
39	0xbcdc937c	-0.026925795
40	0x3bbba7c8	0.005726788
41	0xbd07296b	-0.032998484
42	0xbafd5908	-0.0019328902
43	0xbc8829fe	-0.016621586
44	0xbc34962e	-0.011022134
45	0x3bc5ebfe	0.0060400954
46	0xbd48738e	-0.048938327
47	0x3cb2183f	0.021740077
48	0xbd07a6ea	-0.033118166
49	0x3bbc9603	0.0057551875
50	0x3cffb6f4	0.031215169
51	0x3bbe42d2	0.0058063054
52	0x3ca6904e	0.020332482
53	0xbc2b6931	-0.010462091
54	0xbd11298e	-0.03544002
55	0x3b20588b	0.0024466838
56	0xbab70545	-0.0013963362
57	0x3c99e41e	0.018785533
58	0x3b8b1560	0.0042444915
59	0xbc8c2345	-0.017106662
60	0x3bd7bc43	0.006583722
61	0xbcf2896b	-0.029606542
62	0xbc4cf3f0	-0.012509331
63	0x3bea2481	0.007145465
64	0xbd510c18	-0.051036924
65	0x3c1a35c6	0.009412235
66	0xbb8dce14	-0.004327545
67	0xbc52d0c8	-0.01286716
68	0xbd53dd54	-0.051724747
69	0x3d4d5675	0.05013128
70	0x3ce96af4	0.028493382
71	0x3bd9a815	0.0066423514
72	0x3bb33157	0.0054685283
73	0xbb57e4bf	-0.003294274
74	0xbc1dc046	-0.009628361
75	0xbbc72e11	-0.0060784896
76	0x3c3fada8	0.011699118
77	0x3c3d1600	0.01154089
78	0xbcdd72d5	-0.027032295
79	0xbc823c1d	-0.015897805
80	0xbc3f6f59	-0.011684262
81	0xbb7d1b54	-0.0038621025
82	0x3c8cf7dd	0.017208034
83	0x3b68a71b	0.0035499993
84	0x3c9dbaaf	0.019254057
85	0xbb4dd4d4	-0.0031407373
86	0xbc3a7e75	-0.011382689
87	0x3c2b5c73	0.010459053
88	0x3b99934d	0.004686749
89	0xbb47d854	-0.0030493932
90	0xbc37f1aa	-0.011227051
91	0xbbb01763	-0.0053738817
92	0xba9d2c65	-0.001199138
93	0xbbb78896	-0.005600999
94	0x3cc19438	0.023630247
95	0xbbe9e32e	-0.0071376776
96	0xb83d5f8c	-4.5150096e-05
97	0xbb9e3cf4	-0.0048290435
98	0xbc813c61	-0.015775861
99	0xbcdbbff6	-0.026824933
100	0x3c89f55f	0.016840635
101	0x3ca3951d	0.019968564
102	0xbc2af9f3	-0.010435569
103	0x3b7f980b	0.0039000537
104	0xbb1f1e7a	-0.002427964
105	0x39a7228b	0.0003187846
106	0x3bff4649	0.007790361
107	0x3d25c264	0.04046859
108	0x3be33f76	0.0069350554
109	0x3c64036e	0.013916833
110	0x3c993ac5	0.018704781
111	0x3c8f395f	0.017483411
112	0xba42a7f3	-0.0007425539
113	0xbc846523	-0.016161507
114	0xbb9fccde	-0.004876717
115	0xbc85fce8	-0.016355947
116	0x3b815ba9	0.0039476943
117	0xbcb3647f	-0.021898506
118	0x3cac53c6	0.02103604
119	0x3c59f954	0.013304073
120	0x3bab15b1	0.0052210917
121	0x3b0b220a	0.0021230006
122	0xbd54cf7e	-0.051955692
123	0xbc2109e0	-0.009829015
124	0xbbc8be2a	-0.006126185
125	0xbc3be530	-0.011468217
126	0xbc964b19	-0.018346356
127	0xbc454e8d	-0.012042654
128	0xbb1b2aec	-0.0023676706
129	0xbc311483	-0.010808113
130	0xbc8176c3	-0.0158037
131	0xbc10e764	-0.00884423
132	0x3c7656fc	0.015035387
133	0xbbf5908e	-0.007494039
134	0xbcf0953f	-0.029368041
135	0xbb962af1	-0.0045827557
136	0xbbf1460d	-0.007363087
137	0xbbb8de64	-0.0056417454
138	0xbc35e6f2	-0.011102425
139	0x3c180995	0.009279628
140	0x3c447b8e	0.011992348
141	0xbc9e416b	-0.019318303
142	0xbcabd18f	-0.020973949
143	0xbce20f95	-0.02759532
144	0xbd2b2bc0	-0.04178977
145	0xbb6bbacb	-0.0035969492
146	0xbc1b3392	-0.009472745
147	0xbc5f4750	-0.013627842
148	0xbb91cd49	-0.0044495207
149	0x3d1dbf1a	0.038512327
150	0xbcb67354	-0.02227179
151	0x3bb44d8d	0.005502409
152	0x3b163e5a	0.0022925348
153	0xbbdf6b28	-0.006818194
154	0xbc05516f	-0.008137091
155	0x3ba7c6bf	0.005120128
156	0xbd665412	-0.05623252
157	0xbc95096e	-0.018192973
158	0x3cb58f60	0.022163093
159	0xbb1e6943	-0.0024171628
160	0xbb9efb31	-0.0048517217
161	0x3a95d17e	0.0011430231
162	0x3c486c9b	0.012232925
163	0xbcd71427	-0.026254727
164	0x3c4135bd	0.011792597
165	0xbc550b34	-0.013003159
166	0x3ce6e91f	0.028187333
167	0x3cf4aac4	0.029866584
168	0x3ca06c3f	0.019582866
169	0x3b98641f	0.0046506072
170	0x3bd346b6	0.0064476384
171	0xbb9b0eb3	-0.004731977
172	0xbc3a3a66	-0.011366462
173	0xbbb1d646	-0.0054271547
174	0xbcf00f85	-0.029304275
175	0x3b6e79d1	0.0036388526
176	0xbc9b8293	-0.018983161
177	0xbccc06f3	-0.024905657
178	0x3a766f35	0.00094007264
179	0xbbd431dc	-0.0064756703
180	0x3ce03862	0.027370635
181	0x3c8e8ae3	0.01740021
182	0x3d015e36	0.031583987
183	0x3c02b58a	0.007977853
184	0x3af94897	0.0019018826
185	0x3b8ca363	0.004291938
186	0xbbb2ed9e	-0.005460455
187	0xbcd96268	-0.026536182
188	0xbcd3f8a4	-0.025875397
189	0x3c2dcd42	0.010608019
190	0x3d45dfc1	0.04830909
191	0x3befdabb	0.007319776
192	0xbb0c3e17	-0.0021399313
193	0xba544986	-0.0008098114
194	0xbc4566ec	-0.012048464
195	0x3a4db876	0.0007847616
196	0xbd010cc7	-0.031506326
197	0xbc16898d	-0.009188068
198	0x3c442414	0.011971492
199	0xbc206c40	-0.009791434
200	0x3c23f991	0.010008232
201	0xbd076489	-0.033054862
202	0x3b44d625	0.0030034867
203	0xbc1de1f3	-0.00963639
204	0xbbc384a8	-0.0059667416
205	0x3cca2d10	0.02467969
206	0x3d753ca7	0.059872296
207	0xbd0d655d	-0.034520496
208	0xbbd90165	-0.0066224807
209	0xbbf83f3f	-0.007575899
210	0x3cd86099	0.026413249
211	0xbc1c43c3	-0.00953764
212	0x3b0a9443	0.00211455
213	0x3d17f8f6	0.037102662
214	0x3c8f3798	0.017482564
215	0x3b4ab40d	0.0030930073
216	0xbbaabb0c	-0.005210286
217	0x3cd95e26	0.026534151
218	0x3c780073	0.015136826
219	0xbc41d9bf	-0.0118317
220	0x3b872d35	0.004125262
221	0xbc9f7491	-0.019464763
222	0x3bf3a904	0.0074359197
223	0xbb9c0ebf	-0.0047625
224	0x3cf525ad	0.029925192
225	0x3caf4b89	0.021398323
226	0x3c9646ea	0.018344361
227	0xbd10e2df	-0.03537261
228	0x3cd87699	0.02642374
229	0xbc67f391	-0.014157192
230	0x3ca54fb7	0.020179613
231	0x3c4f5768	0.012655117
232	0x3bc7b106	0.006094101
233	0xbc946781	-0.01811576
234	0x3c5b6c74	0.013392556
235	0xbc51b8eb	-0.012800436
236	0xbb69968a	-0.0035642707
237	0x3bd14448	0.0063863136
238	0x3ce14da4	0.027502842
239	0xbcc7d2a9	-0.024392443
240	0xbb6fc1db	-0.0036584053
241	0xbbde8701	-0.006790996
242	0xbc635141	-0.013874353
243	0x37d167a5	2.4963005e-05
244	0xbbcfe6d8	-0.0063446574
245	0x3c67d29e	0.014149336
246	0x3c4a144d	0.012333942
247	0xbbb0ad47	-0.00539175
248	0xbb9371e7	-0.004499662
249	0xbb9aa2e5	-0.0047191256
250	0x3b76e454	0.0037672715
251	0x3ce5ce91	0.0280526
252	0xbbdd5690	-0.006754704
253	0x3ad5604b	0.0016279308
254	0xbc4d5329	-0.012532034
255	0x3c95d729	0.018291073

bias f4 [12]
0	0x3d2f9dd4	0.042875126
1	0x3db12c4c	0.08651027
2	0x3c6abc01	0.01432705
3	0xbdb433c3	-0.08798935
4	0xbbe0aa7d	-0.0068562613
5	0xbdcf1690	-0.10111725
6	0x3d85c21d	0.06531165
7	0xbd94424c	-0.072392076
8	0xbd18709c	-0.037216768
9	0xbde878e1	-0.11351181
10	0x3cd56127	0.026047302
11	0x3d8aa2bf	0.067693226
