deploy/models/booster_gym_v2/model_3000.pt (torch, 298238 bytes, 8 tensors)

weight f4 [256, 80]
0	0xbe350d32	-0.17680815
1	0x3e592c63	0.21208338
2	0xbd521bb1	-0.05129594
3	0x3d34d7e0	0.044151187
4	0x3c3562e1	0.011070938
5	0x3d1e9267	0.03871384
6	0x3de0a8a2	0.10969664
7	0x3db0f171	0.08639801
8	0xbd85eb55	-0.06539027
9	0x3ddc125e	0.10745691
10	0x3ce1f7b1	0.027583929
11	0x3c8113e0	0.015756547
12	0xbd4abfb2	-0.04949922
13	0xbc66c0b0	-0.014084026
14	0xbd20aea7	-0.03922906
15	0x3c2e6edc	0.010646548
16	0x3d724d30	0.059155643
17	0xbbf35985	-0.007426443
18	0x3d5c3362	0.05375994
19	0x3d27f66b	0.041006487
20	0xbceef1bf	-0.029168008
21	0xbe96c722	-0.294488
22	0xbea42387	-0.32058355
23	0xbea19da0	-0.3156557
24	0x3e00b20c	0.1256792
25	0xbd602799	-0.054725263
26	0x3d34af3d	0.044112433
27	0xbe001e99	-0.12511672
28	0xbec208fc	-0.3789748
29	0xbe9e945a	-0.30972558
30	0x3d2ac11f	0.04168808
31	0xbe341780	-0.1758709
32	0xbdab6c73	-0.083702944
33	0x3e328279	0.17432584
34	0x3e0be452	0.13661316
35	0xbdd7a1c6	-0.10528903
36	0xbd54cdaf	-0.051953968
37	0x3c74e7b4	0.01494782
38	0x3ca22c35	0.01979647
39	0x3e1229e7	0.14273797
40	0x3aad841a	0.0013238222
41	0xbe5ae435	-0.21376117
42	0xbd183f4f	-0.03716975
43	0xbe31b7dc	-0.17355293
44	0x3e30fb4c	0.17283362
45	0x3ed951be	0.42445177
46	0x3d8c94b4	0.068643
47	0xbd2dd518	-0.04243955
48	0x3e4c7638	0.19966972
49	0xbb814cef	-0.003945939
50	0x3cf1d3e5	0.029519984
51	0x3d911a2f	0.07085072
52	0x3eb8d7eb	0.36102232
53	0xbe49b650	-0.19698453
54	0x3d570118	0.052491277
55	0xbc38fd3a	-0.011290843
56	0x3d627e79	0.055296395
57	0xbacab51b	-0.0015465351
58	0x3d93452f	0.0719093
59	0xbce99223	-0.028512066
60	0x3a728ef3	0.00092528685
61	0xbe13442b	-0.14381473
62	0x3d51e202	0.05124093
63	0xbc2f73f0	-0.010708794
64	0xbdaf0a8a	-0.08546932
65	0xba72efe6	-0.0009267315
66	0x3c604e29	0.01369051
67	0x3e7e3a52	0.24826935
68	0x3db66e7a	0.089077905
69	0x3cc155f5	0.023600558
70	0x3dc00fd2	0.093780175
71	0xbe2441e2	-0.16040757
72	0x3bcd6835	0.006268526
73	0x3d4b8f10	0.049696982
74	0x3e4511c1	0.19245054
75	0x3e65c23a	0.22437373
76	0x3c617691	0.013761179
77	0x3b6c5c07	0.0036065595
78	0xbd96d864	-0.07365492
79	0x3d55202b	0.05203263
80	0xbe84e896	-0.259587
81	0x3e8198ae	0.25311798
82	0xbe3e2ec8	-0.18572533
83	0xbdb1ed38	-0.08687824
84	0x3d44ada3	0.048017155
85	0xbc5decd6	-0.013545236
86	0xbd6b5d77	-0.057462182
87	0xbd9b6d32	-0.07589187
88	0x3d5626c8	0.05228308
89	0xbd2ae672	-0.041723676
90	0xbdc4dd61	-0.09612537
91	0xbdaa2964	-0.08308676
92	0x3dc92dfa	0.098232225
93	0xbd0c623a	-0.034273364
94	0xbd654804	-0.055976883
95	0xbd01ec36	-0.03171941
96	0xbdb3fa74	-0.087880045
97	0x3d6463c1	0.055759195
98	0xbd5d6b98	-0.054057688
99	0x3b8d62b8	0.0043147467
100	0xbd112da4	-0.035443917
101	0xbec84fc2	-0.3912335
102	0x3c7e478e	0.01551999
103	0xbe872411	-0.26394704
104	0xbe9d5f83	-0.30736932
105	0x3dfdac02	0.123863235
106	0x3d046f9d	0.032333005
107	0xbd5ffdbe	-0.054685347
108	0x3e447c42	0.19188026
109	0xbf480844	-0.7813761
110	0x3d56b17e	0.052415363
111	0x3e9993ba	0.2999552
112	0xbeae8283	-0.34083948
113	0xbce3185a	-0.027721573
114	0xbd2cbcb9	-0.042172167
115	0x3d885d4d	0.06658421
116	0x3d07f185	0.033189315
117	0xbd02b096	-0.031906687
118	0x3e2df6c7	0.1698867
119	0x3cd2e597	0.025744243
120	0x3d2054eb	0.039143484
121	0x3e46c84e	0.19412348
122	0x3c58ba2a	0.013227979
123	0xbd415f3c	-0.047209963
124	0xbde4f735	-0.111799635
125	0x3eba3e98	0.3637588
126	0xbe7d56eb	-0.24740188
127	0xbdfa5ff1	-0.122253306
128	0x3e5a0a3a	0.21292964
129	0x3d5a11e7	0.05323973
130	0xbdf28e52	-0.11843552
131	0xbb36bca5	-0.0027883437
132	0xbd986727	-0.0744155
133	0xbe0bfc97	-0.13670574
134	0x3d8760de	0.06610273
135	0x3dbc6f07	0.09200864
136	0xbcf50f35	-0.029914478
137	0x3df58483	0.11988165
138	0x3d39db82	0.045375355
139	0x3d90ee68	0.070767224
140	0x3cbfee79	0.023429142
141	0xbdb6b720	-0.08921647
142	0x3cdb1894	0.026745118
143	0xbd798e9c	-0.06092702
144	0xbe052547	-0.13002501
145	0xbd229038	-0.03968832
146	0x3d98d838	0.074631155
147	0xbdcb0321	-0.09912706
148	0x3bc8758d	0.006117529
149	0x3de27c85	0.110589065
150	0x3e3e3f56	0.18578848
151	0x3e721949	0.23642458
152	0x3db5c72a	0.08875878
153	0x3d874cbf	0.06606435
154	0x3d7c37d6	0.061576687
155	0x3e6580fc	0.22412485
156	0x3e3efbc4	0.18650728
157	0xba3bf762	-0.0007170347
158	0xbc55f655	-0.013059218
159	0xbe13c597	-0.14430843
160	0x3f113234	0.5671723
161	0xbea2d0e4	-0.31799996
162	0x3de32cd2	0.11092533
163	0xbd44c510	-0.048039496
164	0xbd72115a	-0.05909858
165	0x3c5e4d3a	0.013568217
166	0xbd1d3f55	-0.038390476
167	0xbceb3659	-0.028712438
168	0x3ce5e4a3	0.028063124
169	0x3dd590e2	0.10428025
170	0xbc2ffaca	-0.010740945
171	0xbd873fc7	-0.066039614
172	0xbe099e2d	-0.13439246
173	0x3d8ee1b6	0.06976645
174	0x3de7ee09	0.113246985
175	0xbd50c66c	-0.05097048
176	0x3bca0d0b	0.0061661056
177	0xbde7bb97	-0.11315077
178	0x3dbb30ec	0.091401905
179	0x3d7864b1	0.0606429
180	0x3d44e750	0.04807216
181	0x3e3dbcc7	0.18529044
182	0xbdbe62cc	-0.09296188
183	0xbeabdac4	-0.33565342
184	0xbe8a4591	-0.270062
185	0xbc4e3324	-0.012585435
186	0x3d99c66f	0.07508551
187	0x3e34e35f	0.1766486
188	0xbe2532c6	-0.1613265
189	0x3d4ff41a	0.050769903
190	0x3d2d499e	0.042306535
191	0xbe8df721	-0.27727607
192	0x3dc7dbb9	0.09758706
193	0xbd8feff5	-0.0702819
194	0xbc8d96f6	-0.017283898
195	0xbe460679	-0.19338407
196	0x3d22ea76	0.03977438
197	0x3cdabcf3	0.026701426
198	0x3d1e6336	0.038668834
199	0xbd8dbfb0	-0.06921327
200	0x3cef9fa7	0.029250933
201	0xbe665b54	-0.22495776
202	0xbc1bea4b	-0.009516309
203	0x3d8aad10	0.0677129
204	0xbc9bdc7a	-0.01902603
205	0x3d4a8c65	0.049450297
206	0xbc1d41c1	-0.0095981965
207	0xbdd33a07	-0.10313802
208	0x3cc488ef	0.023991076
209	0xbb450c3b	-0.0030067104
210	0xbcf9538b	-0.030435344
211	0xbea800de	-0.32813162
212	0xbe313d91	-0.17308642
213	0xbd5ab90c	-0.05339913
214	0xbc795dae	-0.015220089
215	0xbcdf5344	-0.027261384
216	0xbc619aba	-0.0137698
217	0xbcfe1af7	-0.031018717
218	0x3c86d099	0.016456889
219	0x3de61bf6	0.11235802
220	0xbd2470a8	-0.0401465
221	0x3d8ecc0d	0.06972513
222	0xbdb40346	-0.08789687
223	0x3d939392	0.07205881
224	0xbd19372f	-0.037406143
225	0x3dba026a	0.09082492
226	0x3d47ff87	0.048827674
227	0x3db8cc9f	0.090234034
228	0x3ded820d	0.11597071
229	0x3e5d448c	0.2160818
230	0x3db8bbfd	0.09020231
231	0xbe37f456	-0.179643
232	0xbe26895d	-0.16263337
233	0xbe40d6c3	-0.18831925
234	0x3bae0059	0.0053101
235	0x3d9a4fac	0.075347275
236	0x3cfb2f4b	0.0306622
237	0x3d312edf	0.04325759
238	0xbce5faab	-0.02807363
239	0xbd886b48	-0.06661087
240	0xbf53fd17	-0.8280806
241	0x3ef9b59a	0.48771363
242	0x3d0421ce	0.0322588
243	0x3c520c80	0.012820363
244	0xbe09647d	-0.1341724
245	0x3b817bf6	0.003951545
246	0xbd8bf06c	-0.06832966
247	0x3dddd173	0.10830965
248	0xbd928caf	-0.071557395
249	0x3d0c9a47	0.034326818
250	0x3dd64ce1	0.10463882
251	0x3c495048	0.012287207
252	0xbe153ece	-0.1457474
253	0x3cd1f90e	0.025631454
254	0x3d68a2cd	0.056795884
255	0xbd5bc93e	-0.053658716

bias f4 [256]
0	0xbdc41c3f	-0.095757
1	0x3d542e43	0.05180193
2	0x3d36c115	0.04461773
3	0x3e01f4f7	0.12691103
4	0x3d3f6d39	0.046735022
5	0x3d49c043	0.04925562
6	0xbb96f9f8	-0.0046074353
7	0xbd81d297	-0.06338995
8	0x3d01ae0b	0.03166012
9	0x3be9a23e	0.0071299365
10	0xbd10d929	-0.03536335
11	0xbe14f979	-0.14548291
12	0x3e07877f	0.13235281
13	0xbdb0f710	-0.086408734
14	0xbd53e087	-0.051727798
15	0x3c920816	0.017826121
16	0xbd422273	-0.047396135
17	0x3d815a6d	0.063160755
18	0x3e061e7d	0.13097568
19	0xbdb2c529	-0.087290116
20	0x3cacb24f	0.021081118
21	0xbcb1121f	-0.021615086
22	0x3de2116b	0.110384785
23	0xbe279735	-0.16366275
24	0x3c8fd371	0.017556878
25	0x3d8ea0b0	0.069642425
26	0x3e2b728d	0.16742916
27	0x3ccc393a	0.024929632
28	0x3e12e729	0.14345993
29	0xbdca134b	-0.09866961
30	0xbcaa6c19	-0.020803498
31	0xbe4e88a4	-0.20169312
32	0x3d0363a1	0.032077435
33	0x3d8be690	0.06831086
34	0xbc2b296f	-0.01044689
35	0xbe1703b0	-0.147475
36	0xbdb57cc6	-0.08861689
37	0xbd69ed5a	-0.05711112
38	0xbdc47ab2	-0.09593715
39	0x3d6b8651	0.05750114
40	0x3d8736de	0.06602262
41	0xbe2530b2	-0.16131857
42	0x393ead98	0.0001818448
43	0x3defa9e5	0.11702327
44	0x3d72faa1	0.05932105
45	0xbca80bcc	-0.020513438
46	0x3dc86332	0.09784545
47	0x3e0d6107	0.13806544
48	0xbd75caad	-0.06000774
49	0xbdc2d530	-0.095133185
50	0x3db7cae9	0.08974249
51	0xbd66fd82	-0.056394108
52	0x3c987d62	0.018614475
53	0xbd6bd928	-0.057580143
54	0x3bb6ca06	0.0055782823
55	0x3d85b153	0.065279625
56	0xbd70d122	-0.058793195
57	0x3d5ab2e7	0.05339327
58	0xbdb48f8a	-0.088164404
59	0xb976925e	-0.00023514914
60	0x3ccb4488	0.024812952
61	0x3c038951	0.008028344
62	0x3de4e499	0.11176414
63	0x3db4e734	0.08833161
64	0xbdd91f5f	-0.10601687
65	0x3d6b3ead	0.05743282
66	0x3dfa3f2c	0.1221908
67	0xbe144774	-0.14480382
68	0x3d704b95	0.05866583
69	0x3da05a4e	0.07829724
70	0xbd1cef22	-0.038313992
71	0x3c8caabf	0.017171262
72	0x3b906ec2	0.0044077346
73	0x3d3c38ab	0.04595248
74	0x3de1de61	0.110287435
75	0xbd45c32c	-0.048281834
76	0x3b505972	0.0031791595
77	0x3d2e2137	0.042512145
78	0xbdb90c45	-0.09035543
79	0x3d8a213f	0.067446224
80	0xbdab6aec	-0.08370003
81	0x3e14ffd3	0.14550714
82	0xbda2071a	-0.07911511
83	0x3d99fca8	0.075188935
84	0x3db63451	0.08896697
85	0x3d7db985	0.061944503
86	0xbd37f6d3	-0.044913124
87	0xbdaeadf3	-0.08529272
88	0x3d4a821b	0.049440484
89	0xbd9199fe	-0.0710945
90	0x3cafd208	0.021462455
91	0xbced70ca	-0.028984446
92	0xbd89f9a4	-0.06737068
93	0x3d9476f8	0.07249254
94	0xbe1273a2	-0.14301923
95	0xbd9558be	-0.07292317
96	0xbd8dcd27	-0.06923895
97	0xbdf4c916	-0.119524166
98	0x3dcc5180	0.099764824
99	0x3d9e79b9	0.077380605
100	0x3dc2fedb	0.09521266
101	0x3d974b50	0.073874116
102	0xbdb6824e	-0.089115724
103	0xbde28d4a	-0.11062105
104	0x3da650d1	0.08120883
105	0xbde454fa	-0.111490205
106	0x3d09ce43	0.033643972
107	0xbe069bf6	-0.13145432
108	0x3cae7f72	0.021301005
109	0xbd592931	-0.0530178
110	0x3b017d9d	0.001975871
111	0xbdb71a56	-0.0894057
112	0x3e11bab4	0.14231378
113	0x3e079eb0	0.13244128
114	0xbda064a5	-0.078316964
115	0x3dc13b97	0.09435194
116	0xbcd6293f	-0.026142715
117	0xbdbf5cee	-0.09343897
118	0xbb55c1e3	-0.0032616786
119	0xbdef80a4	-0.11694458
120	0x3d8f6940	0.07002497
121	0x3bf875f8	0.0075824223
122	0x3d2f36f5	0.04277702
123	0x3dc3da72	0.095631495
124	0x3c9c4479	0.019075619
125	0xbc5b419f	-0.0133823445
126	0xbd9fe03f	-0.078064434
127	0x3d81349a	0.06308861
128	0xb9f49c7f	-0.00046655905
129	0x3c4aa2fd	0.012367961
130	0x3d0be187	0.034150627
131	0x3cd551fe	0.026040073
132	0xbdc97d2c	-0.09838328
133	0xbdbcb08a	-0.0921336
134	0xbdc39b76	-0.09551136
135	0x3e317932	0.17331389
136	0x3daca116	0.08429162
137	0x3df2ce7e	0.118557915
138	0xbcba198d	-0.022717262
139	0xbd1ede12	-0.038786
140	0x3b8ccf41	0.0042971675
141	0x3cf7c68e	0.030246045
142	0x3ccd9ca0	0.025099099
143	0xbd60da9c	-0.054895982
144	0xbcc2037e	-0.023683306
145	0xbd6928c3	-0.05692364
146	0xbd43d911	-0.047814433
147	0xbd14a83f	-0.036293264
148	0x3d225b7e	0.039638035
149	0xbd0b6f81	-0.034041885
150	0x3da8d00f	0.08242809
151	0x3de3b8a3	0.11119201
152	0x3b148b2d	0.0022665963
153	0xbd6f3aaf	-0.058405574
154	0xbcdc8b6f	-0.026921956
155	0x3d01de11	0.03170592
156	0x3dc96bd2	0.09835018
157	0xbbff6445	-0.0077939355
158	0xbe094c96	-0.13408121
159	0x3d5b7003	0.05357362
160	0xbdcdfca5	-0.10057954
161	0xbc9a8e1f	-0.018866597
162	0x3d7def48	0.061995775
163	0x3df863a0	0.12128377
164	0x3ddd52d0	0.10806811
165	0x3d1851cd	0.037187386
166	0xbda6f1fa	-0.08151622
167	0xbe064ef0	-0.1311605
168	0x3d644897	0.05573329
169	0xbd83c494	-0.06433979
170	0xba5df852	-0.00084674836
171	0x3d261301	0.040545467
172	0xbd0493b7	-0.032367434
173	0x3d838ac5	0.064229526
174	0x3ca644f3	0.02029655
175	0x3dc7bd89	0.09752948
176	0xbe18b194	-0.1491149
177	0xbc10f5b9	-0.008847647
178	0x3dcebbde	0.100944266
179	0x3c4ea654	0.012612898
180	0xbd6486d1	-0.055792633
181	0xbd2e93d6	-0.042621456
182	0xbda240b5	-0.07922498
183	0x3a1610a5	0.0005724526
184	0xbd104e25	-0.035230774
185	0x3b51d20c	0.0032016067
186	0xbd95cd5c	-0.0731456
187	0x3c56f495	0.013119836
188	0x3d7fce47	0.06245258
189	0x3c908cb3	0.017645216
190	0xbd5c6fd8	-0.0538176
191	0xbd88c7a3	-0.06678703
192	0x3d1c42b2	0.038149543
193	0xbd92de7a	-0.0717134
194	0xbdd2eeaa	-0.10299428
195	0xbd8efd91	-0.06981958
196	0xbd85edd8	-0.06539506
197	0x3c669206	0.014072901
198	0x3d0e6958	0.034768432
199	0xbdbcd27f	-0.092198364
200	0xbdceffeb	-0.10107406
201	0x3da2a787	0.079421096
202	0xbd4a0f23	-0.04933084
203	0xbd308376	-0.04309412
204	0x3d840aa5	0.06447343
205	0xbc7094a9	-0.014683881
206	0x3d11a829	0.03556076
207	0x3bf18254	0.0073702727
208	0x3df3c615	0.119030155
209	0x3c0ffc43	0.008788171
210	0xbc9541ed	-0.018219912
211	0xbd9c94ff	-0.07645606
212	0x3d2f8c90	0.04285866
213	0xbdbfe05d	-0.09368966
214	0xbd13ca42	-0.03608156
215	0x3d1df59a	0.038564302
216	0x3d470b4d	0.04859476
217	0xbd5b208e	-0.053497843
218	0x3a7c60f1	0.00096274825
219	0x3d83b6a7	0.064313225
220	0xbc502f4b	-0.012706588
221	0xbdcb3099	-0.09921379
222	0x3cc37ec7	0.023864163
223	0x3d42c637	0.047552314
224	0xbcd2401e	-0.02566534
225	0xbde24871	-0.11048973
226	0xbbe200f3	-0.006897086
227	0xbd83f0a7	-0.06442385
228	0xbd78cdf9	-0.060743306
229	0x3e055d7e	0.13023946
230	0xbbbb651b	-0.00571884
231	0x3dd7c619	0.10535831
232	0x3c270e35	0.010196258
233	0x3bdfcc69	0.0068297875
234	0xbd5cdb41	-0.053920034
235	0xbcda767f	-0.026667831
236	0x3d667f38	0.05627367
237	0xbdb3dad7	-0.08781975
238	0x3cd02de4	0.025412507
239	0x3dcfd4d9	0.10148019
240	0xbcd874af	-0.026422827
241	0xbd24e841	-0.040260557
242	0xbcc1692b	-0.023609718
243	0xbcb0b552	-0.021570835
244	0x3d99f15a	0.07516737
245	0xbb65b09f	-0.0035047901
246	0xbd388544	-0.045048967
247	0xbd147053	-0.036239933
248	0xbdbc0c6b	-0.09182056
249	0xbe21e062	-0.15808252
250	0x3d8c8fa0	0.06863332
251	0xbd0d5219	-0.034502123
252	0xbd8836f0	-0.066511035
253	0x389d2c62	7.49461e-05
254	0xbde88718	-0.11353892
255	0x3d2f6105	0.042817134

weight f4 [128, 256]
0	0xbe39226f	-0.18079542
1	0x3dd6a814	0.10481277
2	0x3d9f63cd	0.07782707
3	0x3dc2bfc6	0.09509234
4	0x3d20227a	0.03909538
5	0x3bd6a408	0.006550316
6	0xbd2c612b	-0.042084854
7	0xbd311e31	-0.043241683
8	0xbddfe37c	-0.10932061
9	0x3db6b217	0.08920687
10	0xbd955321	-0.07291246
11	0xbd8db831	-0.06919897
12	0xbcad383e	-0.021144982
13	0x3d44e19e	0.048066728
14	0x3e4a1ed4	0.19738322
15	0xbd8c0d59	-0.06838483
16	0xbde42993	-0.11140742
17	0xbd6117d0	-0.05495435
18	0x3db753f3	0.08951559
19	0x3da810f3	0.08206358
20	0xbe43a44b	-0.19105642
21	0xbdce7a5a	-0.100819305
22	0xbd291f66	-0.04128971
23	0xbdad58db	-0.084642135
24	0xbdfb1e09	-0.12261588
25	0xbd7ca488	-0.061680347
26	0x3d529d7e	0.051419728
27	0xbcfa1d30	-0.030531496
28	0x3d4c854f	0.04993182
29	0xbcc3209f	-0.023819266
30	0x3e06c162	0.13159707
31	0xbd11f9ca	-0.035638608
32	0x3da64240	0.08118105
33	0xbca4e1ce	-0.020127203
34	0x3db7a034	0.08966103
35	0x3c8bdf26	0.017074179
36	0xbd3afa47	-0.04564884
37	0x3c1002a1	0.008789689
38	0x3dc55204	0.09634784
39	0x3c4e586c	0.012594324
40	0x3d084301	0.033267025
41	0xbcfb419d	-0.030670935
42	0xbe04f880	-0.1298542
43	0x3a0f34f1	0.0005462906
44	0xbd956df3	-0.07296362
45	0x3cfd5219	0.030922936
46	0x3d591049	0.052994046
47	0x3cc55b26	0.024091315
48	0x3d21fed7	0.039549675
49	0x3bdb1183	0.006685437
50	0xbd28a6bf	-0.041174646
51	0x3bb1ebef	0.005429737
52	0xbd4bdbf5	-0.049770314
53	0xbe2fd467	-0.17170869
54	0x3d7979a1	0.06090701
55	0xbdc736c2	-0.09727241
56	0xbe42a715	-0.19009049
57	0x3dce9657	0.10087269
58	0x3e26d638	0.16292655
59	0xbdc56cae	-0.0963987
60	0xbb875829	-0.0041303826
61	0x3d9de4c0	0.07709646
62	0x3d936029	0.071960755
63	0xbd256faa	-0.040389694
64	0xbd97c32b	-0.07410272
65	0xbc1602e0	-0.009155959
66	0xbda038c8	-0.0782333
67	0x3dadd619	0.084881015
68	0x3ce119a4	0.027478047
69	0x3d3ecc7a	0.046581723
70	0x3d2eaf84	0.042647853
71	0x3cbf58aa	0.023357708
72	0x3d884074	0.066529185
73	0xbd1781df	-0.03698909
74	0x3def711c	0.11691496
75	0x3e0f024c	0.1396572
76	0x3cc87f67	0.024474813
77	0xbd780efa	-0.060561158
78	0xbe413151	-0.18866469
79	0xbdaa776d	-0.0832356
80	0x3df093e8	0.11746961
81	0xbdad3b2c	-0.08458552
82	0x3e04e6c8	0.12978661
83	0x3ce21ec9	0.02760257
84	0xbc806be6	-0.01567645
85	0xbd61d810	-0.055137694
86	0xbdfadada	-0.12248774
87	0xbd6b45d1	-0.05743963
88	0xbd66180a	-0.05617527
89	0x3cb59129	0.022163944
90	0x3cc7cbd5	0.024389187
91	0xbdcf5cde	-0.10125135
92	0xbd2b6552	-0.041844673
93	0x3d1c99bf	0.03823256
94	0xbd5abfa6	-0.053405426
95	0x3d757767	0.059928324
96	0x3df4baa4	0.119496614
97	0x3e15ec07	0.14640819
98	0x3db5a8b4	0.08870068
99	0xbdd3a750	-0.10334647
100	0x3cc0cbd2	0.02353469
101	0x3db2906f	0.08718955
102	0xbd69bd80	-0.057065487
103	0xbc2fe506	-0.010735756
104	0xbd1ffc2d	-0.039058853
105	0xbd433727	-0.04766002
106	0xbc3c4fba	-0.011493618
107	0xbd23602c	-0.03988664
108	0xbd0d58b8	-0.034508437
109	0xbd9577d2	-0.072982445
110	0x3c8c01fa	0.017090786
111	0x3cec51b0	0.028847545
112	0x3d9ffda5	0.07812051
113	0xbcb0d0cc	-0.021583937
114	0x3ccf0b25	0.025273869
115	0xbdf37d4a	-0.11889131
116	0x3e3e37e7	0.18576013
117	0xbb44ecbd	-0.0030048334
118	0xbde3389a	-0.1109478
119	0x3cc49bd0	0.024000078
120	0xbd9e78cb	-0.07737883
121	0xbe2d0c26	-0.16899166
122	0xbca0c7e7	-0.01962657
123	0x3d35aa10	0.044351637
124	0x3d9bb779	0.07603354
125	0xbcbbb1e2	-0.02291197
126	0x3cb8bc9c	0.022550873
127	0xbd807707	-0.06272703
128	0x3dbe578a	0.092940405
129	0xbde5928d	-0.11209593
130	0xbe08604f	-0.13317989
131	0xbd8c6536	-0.06855242
132	0x3c5c288f	0.013437404
133	0xbd6df9bf	-0.058099505
134	0x3d0416c1	0.032248262
135	0x3da00b95	0.07814709
136	0x3d8d6046	0.06903128
137	0xbdc3873b	-0.095472775
138	0x3cd587f2	0.0260658
139	0xbdfd76e7	-0.123761944
140	0xbd90eeb8	-0.07076782
141	0x3ea8b754	0.32952368
142	0xbdbf70bd	-0.09347675
143	0xbe34ccb2	-0.1765621
144	0x3d084843	0.03327204
145	0x3d0d4a01	0.034494404
146	0xbce7db4d	-0.028302813
147	0x3e3eae68	0.18621218
148	0xbb4e0c09	-0.003144028
149	0xbd9a9ace	-0.07549058
150	0xbaa20025	-0.0012359662
151	0xbd44637d	-0.047946442
152	0x3cb8bf9f	0.02255231
153	0xbe4e3df5	-0.20140822
154	0x3d91e1b5	0.07123128
155	0xbe214102	-0.15747455
156	0xbdbb46c1	-0.091443546
157	0x3bed6404	0.007244589
158	0x3d10b4fe	0.035328858
159	0xb928fae6	-0.00016115195
160	0x3d519b23	0.05117334
161	0x3cc78013	0.024353063
162	0xbd0976fd	-0.03356074
163	0xbdd06b97	-0.10176771
164	0x3d0893e0	0.03334415
165	0x3e851d2a	0.25998813
166	0x3d42a466	0.047520064
167	0xbd2783be	-0.040897124
168	0xbe2cc7bc	-0.16873068
169	0xbd3eec78	-0.046612233
170	0xbd555333	-0.052081298
171	0x3cb77038	0.022392377
172	0x3db9ec91	0.090783246
173	0x3b856427	0.004070777
174	0x3cef793e	0.029232617
175	0x3dda063d	0.10645721
176	0xbd3ec220	-0.04657185
177	0xbdf6fd3b	-0.12060019
178	0xbd106992	-0.03525693
179	0x3c7f59cd	0.015585375
180	0xbe0dbbfb	-0.1384124
181	0x3dec3c25	0.11534909
182	0x3dc20b0f	0.094747655
183	0x3ca77788	0.02044274
184	0x3d91ba0b	0.07115563
185	0x3dab9559	0.08378095
186	0xbd2088cc	-0.03919296
187	0x3d1f2840	0.038856745
188	0xbd50e79c	-0.05100213
189	0xbc607f4d	-0.013702226
190	0xbd923e75	-0.07140819
191	0xbdec1eef	-0.115293376
192	0x3cc28094	0.023742951
193	0x3df347f0	0.11878955
194	0x3c885d5b	0.016646078
195	0xbd61750c	-0.055043265
196	0x3df39162	0.11892964
197	0x3dc80086	0.09765725
198	0xb98e9002	-0.00027191645
199	0xbdcbb1ce	-0.09946023
200	0x3bb32968	0.0054675825
201	0xbd8e0de5	-0.06936244
202	0x3e7c1f07	0.24621211
203	0x3d4bca92	0.049753733
204	0xbd81f71c	-0.063459605
205	0xbb7b3b0a	-0.003833475
206	0xbd595d80	-0.053067684
207	0xbb0b2b4f	-0.002123553
208	0x39fcefba	0.00048243796
209	0x3cf4ede3	0.02989859
210	0xbde0f2c1	-0.10983802
211	0xbdb36e1b	-0.08761235
212	0x3d171e04	0.03689386
213	0xbd42e839	-0.047584746
214	0x3c5fa787	0.0136507815
215	0xbd3da75f	-0.046302196
216	0x3c49b202	0.012310507
217	0xbe2c586c	-0.16830605
218	0xbd6ef7d1	-0.058341805
219	0xbd64196b	-0.055688303
220	0x3d8eadca	0.069667414
221	0xbc8b45b7	-0.017001016
222	0xbe0034ed	-0.1252019
223	0x3e2243fb	0.15846245
224	0x3da02ef0	0.078214526
225	0xbd8f276f	-0.06989943
226	0x3da2715d	0.079317786
227	0xbe1fac32	-0.15593031
228	0xbe084f2d	-0.13311453
229	0xbddf855f	-0.109141104
230	0xbd6ce94f	-0.057839688
231	0xbc06ebdb	-0.008234943
232	0x3e0bc97c	0.13651079
233	0xbb8d429d	-0.0043109194
234	0x3bace9b0	0.005276881
235	0x3db01676	0.08598034
236	0x3d9e7c74	0.07738581
237	0xbd6aef57	-0.05735716
238	0x3d5b5f36	0.053557597
239	0xbe2094f9	-0.15681829
240	0xbdcd0f55	-0.1001269
241	0x3d56903f	0.052383658
242	0xbdf4899f	-0.11940312
243	0x3e223207	0.15839396
244	0x3e1a500b	0.15069596
245	0xbd491cdd	-0.04909979
246	0xbe36a650	-0.1783688
247	0x3e510523	0.20412116
248	0xbe231257	-0.15924965
249	0x3d452c61	0.048138026
250	0xbc532f10	-0.012889639
251	0xbe319e03	-0.17345433
252	0x3e151589	0.14558996
253	0xbd23db69	-0.040004168
254	0x3d18e53a	0.037327982
255	0xbd803c5a	-0.06261511

bias f4 [128]
0	0xbcfca67b	-0.030841103
1	0x3d19ee27	0.037580635
2	0xbde4c8fd	-0.11171148
3	0xbd239f09	-0.03994659
4	0x3d250b40	0.040293932
5	0xbcc3894f	-0.023869185
6	0xbc0e3370	-0.008679256
7	0x3cf666a0	0.030078232
8	0x3c8ba284	0.017045267
9	0x3bb915ce	0.0056483513
10	0x3d31e0b6	0.04342719
11	0xbd885463	-0.066567205
12	0xbdad5e8f	-0.08465301
13	0xbd09c788	-0.033637553
14	0x3c698916	0.014253875
15	0xbd984401	-0.07434846
16	0xbd574f43	-0.052565824
17	0x3c83f98d	0.016110206
18	0xba4ac9c5	-0.00077357545
19	0xbdbf59cb	-0.093432985
20	0x3c2e7921	0.010648997
21	0xbd9d9706	-0.07694821
22	0xbd503d0c	-0.05083947
23	0xbd89d87e	-0.06730746
24	0xbd873241	-0.06601382
25	0x3d8cb21b	0.068699084
26	0x3cd477ec	0.02593609
27	0xbd0a73d0	-0.033801854
28	0xbd2960f1	-0.041352216
29	0xbcf37b5d	-0.02972191
30	0xbdc47338	-0.09592289
31	0xbdd39c5f	-0.1033256
32	0xbd82fd69	-0.063959904
33	0xbdd113cc	-0.10208854
34	0xbcd35c80	-0.025800943
35	0xbd878b91	-0.06618417
36	0x3d05b5f5	0.03264423
37	0x3cc8109f	0.024421988
38	0xbb9aedb0	-0.0047280416
39	0xbaa72659	-0.0012752517
40	0x3c8fe603	0.017565733
41	0xbb890e22	-0.004182593
42	0x3c04e8b4	0.008112121
43	0xbd1757c2	-0.036948927
44	0xbd252d64	-0.04032649
45	0xbd30922a	-0.043108143
46	0x3d5adc58	0.053432792
47	0xbd8107cf	-0.063003175
48	0xbd3869e6	-0.045022868
49	0xbd779450	-0.060444176
50	0xbcec95a5	-0.02887995
51	0xbdbd8006	-0.09252934
52	0xbc6c1ced	-0.014411193
53	0xbdfa9feb	-0.12237533
54	0x3c274430	0.010209128
55	0xbd99ad7b	-0.07503792
56	0x3d1ec296	0.03875979
57	0xbd8f30b2	-0.0699171
58	0x3cb86075	0.022506932
59	0xbc76dde6	-0.015067553
60	0xbdec7f86	-0.11547761
61	0xbc866d17	-0.01640944
62	0xbc42bb48	-0.011885472
63	0xbdec009b	-0.11523553
64	0x3c6f8f7e	0.014621614
65	0xbc93d4ab	-0.018045744
66	0xbd64d7dc	-0.055869922
67	0xbd24ba06	-0.04021647
68	0x3c2ac0e7	0.010421968
69	0x3c747df6	0.01492261
70	0xbe08dc55	-0.133653
71	0x3d24f1bc	0.0402696
72	0xbd7377a0	-0.059440255
73	0xbd07131a	-0.0329772
74	0xbd8fb1b9	-0.0701632
75	0xbd8d5bc8	-0.069022715
76	0xbd56fdd9	-0.05248818
77	0xbd93e5f9	-0.07221598
78	0x3c926d6b	0.01787444
79	0xbcc016b6	-0.02344833
80	0x3c88d611	0.016703637
81	0xbd82a5e3	-0.06379297
82	0xbdbd347f	-0.092385285
83	0xbdb45448	-0.08805138
84	0xbd6f1abd	-0.05837511
85	0xbdbe008d	-0.09277449
86	0xbd38cfe0	-0.04512012
87	0x3bad3603	0.0052859797
88	0xbc895bb9	-0.01676737
89	0x3d9d21d5	0.076724686
90	0xbcfa1bb6	-0.030530792
91	0xbc985522	-0.018595282
92	0xbd8690ba	-0.06570573
93	0xbd8234a0	-0.06357694
94	0xbe0865e0	-0.13320112
95	0xbcb5a89c	-0.022175126
96	0xbb0ea21f	-0.0021764112
97	0x3ab6f112	0.0013957343
98	0x3d8ad0aa	0.06778081
99	0xbd863e21	-0.06554819
100	0x3cc4cfe9	0.02402492
101	0xbd8ce799	-0.06880111
102	0xbd43d699	-0.04781208
103	0x3cc56dd1	0.024100216
104	0xbdbf8ce1	-0.093530424
105	0xbd9179ae	-0.07103287
106	0x3d9746b5	0.07386533
107	0x3c3848a0	0.011247784
108	0xbde2b1e6	-0.11069088
109	0xbda1dab3	-0.07903042
110	0xbd85b6fb	-0.065290414
111	0xbd040bfd	-0.032237995
112	0xbc9d8aae	-0.019231167
113	0x3d0ecee6	0.034865282
114	0xbda3dc2d	-0.080009796
115	0x3dbc8301	0.092046745
116	0xbcfc1d63	-0.030775731
117	0xbd7cdea4	-0.061735764
118	0xbd2e47e6	-0.042549036
119	0x3c62f1e5	0.013851617
120	0xbd606bfa	-0.054790474
121	0xbdb9a2e9	-0.09064276
122	0xbdd1dfb3	-0.10247745
123	0x3c12bdaf	0.008956357
124	0x3cc6288b	0.024189254
125	0xbd88f44b	-0.0668722
126	0xbd7270a1	-0.059189443
127	0x3a5ea297	0.00084928557

weight f4 [128, 128]
0	0x3d5d8cef	0.054089483
1	0xbd7b9e63	-0.061430346
2	0x3ba9a626	0.005177277
3	0x3aa7f43e	0.0012813879
4	0x3de80a58	0.11330098
5	0x3dcce0d2	0.100038186
6	0x3d71d8c2	0.059044607
7	0x3c4aad22	0.01237038
8	0x3db2f8b3	0.08738842
9	0xbce1878e	-0.027530458
10	0x3bde657d	0.0067870007
11	0x3d961ab9	0.07329316
12	0x3d8a5a43	0.06755497
13	0x3b926edb	0.0044687814
14	0xbda6890a	-0.08131607
15	0xbdde55f5	-0.10856239
16	0xbd60d88a	-0.054894008
17	0x3cee268e	0.029071119
18	0x3d97a8a8	0.074052155
19	0xbd4c8076	-0.049927197
20	0x3d8a394a	0.06749208
21	0x3d800e41	0.06252719
22	0x3d8241d0	0.06360209
23	0x3da1b991	0.07896722
24	0x3db05583	0.0861006
25	0x3b0fe094	0.0021953927
26	0x3d770ddc	0.06031595
27	0xbcf3dca3	-0.029768294
28	0xbc0da861	-0.008646102
29	0x3da22388	0.07916933
30	0xbd11f5d8	-0.035634845
31	0x3c02d027	0.007984198
32	0xbe086839	-0.13321008
33	0x3cb7974e	0.022411015
34	0xbdd23917	-0.10264795
35	0xbbc8a64d	-0.00612334
36	0x3de8cc06	0.113670394
37	0xbd88e32b	-0.06683954
38	0x3d9df4ba	0.077126935
39	0x3dae072f	0.08497464
40	0x3da1530b	0.07877167
41	0x3d2a972d	0.04164808
42	0x3d4fa6ce	0.050696187
43	0xbbdae487	-0.0066800746
44	0xb9ab7067	-0.00032699408
45	0x3c8ea332	0.017411802
46	0xbe03bb68	-0.12864459
47	0xbdcc5e70	-0.0997895
48	0x3d1a3ae4	0.03765382
49	0xbb1c2787	-0.002382727
50	0x3ccf3cb6	0.025297504
51	0xbca3d20a	-0.019997615
52	0x3d4d4c24	0.05012144
53	0x3da44b57	0.080221824
54	0x3e138c8d	0.14409085
55	0xbcd29deb	-0.025710067
56	0x3caef598	0.021357343
57	0x3bc39f49	0.005969916
58	0xbdbda01c	-0.09259054
59	0x3dae328e	0.08505736
60	0xbd44a1e3	-0.04800595
61	0xbd92c84b	-0.07167109
62	0xbc8dd5e7	-0.01731391
63	0x3e33181d	0.17489667
64	0xbc88baf0	-0.016690701
65	0xbcfb5530	-0.030680269
66	0x3e59c35d	0.21265931
67	0xbc9b2fd2	-0.018943701
68	0x3c465ff9	0.012107843
69	0x3cf5ba29	0.029995995
70	0xbd4b2094	-0.049591616
71	0xbd7c4608	-0.061590225
72	0x3d8f3fee	0.069946155
73	0xbd5d475e	-0.05402314
74	0x3d124203	0.035707485
75	0x3cc0933b	0.023507705
76	0x3daefec5	0.08544687
77	0xbcfb8170	-0.030701369
78	0x3da1432c	0.0787414
79	0x3d9f0a98	0.077656925
80	0xbe1cbf09	-0.15307249
81	0xbda0ea42	-0.07857181
82	0xbdc4070d	-0.09571657
83	0x3e1ad2e9	0.15119518
84	0xbc74497e	-0.0149101
85	0xbde1c422	-0.110237375
86	0xbde1d988	-0.11027819
87	0xbdbd0f2f	-0.09231412
88	0x3d3f06b5	0.046637256
89	0x3cd82c6c	0.02638837
90	0x3e31da5c	0.17368454
91	0x3c08f567	0.00835929
92	0xbc8789b4	-0.016545154
93	0x3c8035d8	0.015650675
94	0x3beab1de	0.0071623167
95	0xbd85c909	-0.06532485
96	0x3c11e8a8	0.008905567
97	0xbd5304fe	-0.051518433
98	0xbd4e09a7	-0.050302174
99	0x3df4cc75	0.119530596
100	0xbc30844c	-0.0107737295
101	0xbdc5f19e	-0.096652254
102	0x3d125e78	0.035734624
103	0xbd8aa0c3	-0.06768944
104	0x3d660706	0.05615904
105	0x3dacd10a	0.084383085
106	0x3db35fdf	0.0875852
107	0x3c8bba86	0.017056715
108	0x3e1dff4b	0.15429418
109	0xbd22234e	-0.03958445
110	0xbd96610a	-0.073427275
111	0x3d887cee	0.066644534
112	0xbda2d261	-0.07950283
113	0x3db6e4dc	0.0893037
114	0x3ddc4f8c	0.1075736
115	0xbc8ad65d	-0.01694792
116	0x3d5177d7	0.05113968
117	0xb9271089	-0.00015932521
118	0xbd92160c	-0.07133111
119	0x3d56cc8d	0.05244117
120	0x3e0b6d33	0.13615875
121	0xbd823883	-0.06358435
122	0x3da5a30a	0.08087738
123	0xbdf611b8	-0.12015098
124	0xbd957fee	-0.07299791
125	0x3e156346	0.14588651
126	0xbc91e66d	-0.01781007
127	0xbd939847	-0.07206779
128	0x3cc8d222	0.024514262
129	0xbd9fbfb9	-0.0780024
130	0x3d267c0a	0.040645637
131	0x3d31ddf8	0.043424577
132	0xbd08b955	-0.03337987
133	0xbce444a4	-0.027864762
134	0x3d2cbd10	0.04217249
135	0x3cda34d6	0.026636522
136	0xbc90d8f2	-0.017681573
137	0xbcde9f0d	-0.02717545
138	0x3d5d7d05	0.054074306
139	0x3bc90a6a	0.0061352747
140	0x3dc4a04d	0.096008874
141	0x3d6db741	0.058036093
142	0x3da2b9af	0.079455726
143	0xbd522e79	-0.05131385
144	0x3da7a5c8	0.08185917
145	0x3db1671e	0.08662246
146	0xbaa69480	-0.0012709051
147	0xbcb16e5d	-0.02165907
148	0xbc9cca2d	-0.019139374
149	0x3dadad24	0.084802896
150	0xbd606c03	-0.054790508
151	0x3d5c52a7	0.05378976
152	0x3d9e6a7c	0.07735154
153	0xbd464754	-0.048407868
154	0xbc00736a	-0.007840017
155	0xbd99ddee	-0.07513033
156	0x3cc748ab	0.024326643
157	0xbe01ba48	-0.12668717
158	0xbd1b9c89	-0.03799108
159	0xbc56810a	-0.013092289
160	0xbd9feb72	-0.078085795
161	0xbcb89d46	-0.022535931
162	0x3cfb48ba	0.030674327
163	0x3dbd3323	0.09238269
164	0xbdb1cd98	-0.08681792
165	0x3d87d960	0.06633258
166	0xbb328cf4	-0.002724466
167	0xbd3dd9ca	-0.046350278
168	0xbd0684c7	-0.03284147
169	0x3c5c0ae4	0.013430331
170	0xbbaf79b6	-0.0053550852
171	0xbcef2387	-0.029191745
172	0xbc18a3fb	-0.00931644
173	0x3d508c4e	0.050915055
174	0x3c48ac72	0.012248145
175	0xbd1c4bb8	-0.03815815
176	0x3db7b80a	0.089706495
177	0xbc3e9767	-0.011632777
178	0x3d95a593	0.073069714
179	0xbcb53a16	-0.022122424
180	0xbd1d38af	-0.038384136
181	0x3d2e205d	0.042511333
182	0xbd128ed5	-0.035780746
183	0xbd65332e	-0.055957012
184	0x3d08ba39	0.03338072
185	0x3c2efc9c	0.010680344
186	0x3d834e36	0.06411402
187	0x3db0ecc5	0.0863891
188	0x3ce99620	0.028513968
189	0x3dc934ff	0.09824561
190	0x3c8ff9e4	0.017575212
191	0x3ccfd748	0.025371209
192	0xbdb4d1c0	-0.08829069
193	0x3b4f0609	0.003158929
194	0x3d18d49e	0.037312143
195	0x3d90fa0e	0.07078944
196	0x3a2b5741	0.0006536134
197	0x3cd562b0	0.026048034
198	0x3d1e736e	0.0386843
199	0xbd3e0bbd	-0.046397913
200	0xbd9fc06f	-0.07800376
201	0x3ca4f951	0.020138415
202	0x3d91307a	0.07089324
203	0xbe2a88b0	-0.16653705
204	0xbc9f419f	-0.01944047
205	0xbd4bc548	-0.04974869
206	0xbca38eb8	-0.019965515
207	0x3da514f2	0.080606356
208	0xbcc2b5a3	-0.023768252
209	0xbcd5ee0b	-0.026114484
210	0x3dce2266	0.10065155
211	0xbcc093f3	-0.023508048
212	0xbd64e10d	-0.055878688
213	0xbd512a3b	-0.051065665
214	0x3cabee09	0.020987527
215	0x3ceadefd	0.028670782
216	0xbc8d2dfd	-0.017233843
217	0x3cbef8ae	0.02331194
218	0x3c9691f2	0.018380139
219	0x3da914fc	0.082559556
220	0x3db08827	0.08619719
221	0xbc9b5824	-0.018962927
222	0x3d5cf26d	0.053942133
223	0x3d6f080e	0.05835729
224	0xbd4c72f8	-0.04991433
225	0x3caf0d24	0.02136857
226	0x3de2627a	0.11053939
227	0xbd046265	-0.0323204
228	0xbd7c691a	-0.06162367
229	0xbda9c7c1	-0.08290053
230	0x3b927f25	0.004470723
231	0xbd1fbb8f	-0.03899723
232	0x3c86527b	0.016396752
233	0x3d036617	0.032079782
234	0x3d32bd74	0.043637708
235	0x3dae6386	0.08515076
236	0x3dc3290f	0.09529316
237	0xbda47454	-0.0803
238	0xbcf1b015	-0.029502908
239	0xbc7a78ff	-0.015287637
240	0xbc1225e8	-0.00892017
241	0xbc13500f	-0.008991255
242	0x3d3ee988	0.04660943
243	0x3d291446	0.0412791
244	0xbd0fe967	-0.0351347
245	0xbd21b66c	-0.03948061
246	0x3d0899a9	0.033349667
247	0x3a8e83ea	0.0010873054
248	0xbd62ae9a	-0.055342294
249	0xbbb83479	-0.0056214896
250	0xbd9ece0e	-0.077541456
251	0xbd4d8922	-0.05017961
252	0x3d8250e9	0.06363089
253	0xbc97d4b1	-0.018534036
254	0x3d164096	0.036682688
255	0xbc936ed6	-0.017997187

bias f4 [128]
0	0x3d2b915c	0.041886672
1	0xbd0621b3	-0.03274698
2	0x3d2a0175	0.041505296
3	0xbdaed2dc	-0.08536312
4	0x3d166686	0.036718868
5	0xbc8e5b27	-0.01737745
6	0xbd9c78d2	-0.07640232
7	0xbd478cab	-0.048718136
8	0xba570e36	-0.0008203717
9	0xbd1220df	-0.03567588
10	0xbddb0076	-0.10693447
11	0xbc53fc11	-0.012938515
12	0xbd40d03f	-0.0470736
13	0x3d811a4c	0.06303844
14	0xba6d88e4	-0.0009061231
15	0xbc260028	-0.010131873
16	0xbdaa1631	-0.08305014
17	0x3c71900b	0.014743815
18	0x3c1b56f5	0.009481181
19	0xbe27d680	-0.16390419
20	0xbd3f2d25	-0.046673913
21	0xbddbeaa2	-0.10738112
22	0xbdbae46b	-0.091255985
23	0x3bbde87d	0.005795537
24	0x3bbb7cff	0.005721688
25	0xbd2440b2	-0.04010076
26	0x3c4d0e60	0.012515634
27	0x3d4ad2e5	0.04951753
28	0xbd960f87	-0.0732718
29	0xbd8305f7	-0.06397622
30	0xbcf3a690	-0.02974251
31	0xbd7d5bf9	-0.06185529
32	0xbd01639b	-0.03158913
33	0xbd1b2c12	-0.037883826
34	0xbdad611b	-0.08465787
35	0xbda5ed2e	-0.08101879
36	0xbc085c0b	-0.008322726
37	0x3d33b116	0.043870054
38	0xbe3c3489	-0.18379416
39	0xba6676be	-0.00087914977
40	0x3d95ce0e	0.073146924
41	0xbd65cc2d	-0.05610292
42	0xbc2b537b	-0.010456915
43	0x3d2a93e4	0.041644946
44	0xbd8faa92	-0.070149556
45	0xbbcb4420	-0.0062031895
46	0xbe04b7cd	-0.1296074
47	0xbdb771da	-0.08957262
48	0xbd66cf7a	-0.05635021
49	0x3d72e2ee	0.05929845
50	0xbd4d97b4	-0.050193503
51	0xbd6631f2	-0.056199975
52	0xba8a1312	-0.0010534248
53	0xbc431281	-0.011906267
54	0xbe084c9d	-0.13310476
55	0x3c71646d	0.014733416
56	0x3d1fbdfb	0.03899954
57	0x3cdf694c	0.02727189
58	0x3d4a1c82	0.049343593
59	0xbccef584	-0.025263555
60	0x3d87f575	0.06638614
61	0xbe1d0da3	-0.15337233
62	0xbe04a6f8	-0.12954319
63	0xbb352a72	-0.0027643708
64	0xbd03a8a4	-0.03214325
65	0xbcb93dc9	-0.02261247
66	0x3d46e7fe	0.04856109
67	0xbc7a3f49	-0.015273877
68	0xbdce2ccc	-0.10067138
69	0x3d5852da	0.05281339
70	0xbcc6ad34	-0.024252512
71	0xbca86fee	-0.020561185
72	0x3ba9167c	0.005160151
73	0x3b7316f2	0.0037092534
74	0xbd8f5e7e	-0.07000445
75	0xbc95d9ce	-0.018292334
76	0x3c3c8970	0.011507377
77	0xbc2e9564	-0.010655735
78	0x3d854362	0.06506993
79	0xbd842276	-0.064518854
80	0xbd66347c	-0.056202397
81	0xbd0e0b5b	-0.0346788
82	0x3d5bb101	0.0536356
83	0x3c019f35	0.007911493
84	0x3d1d26bd	0.03836702
85	0xbe00d6d3	-0.12581949
86	0xbd035ab3	-0.03206892
87	0xbd79cceb	-0.06098644
88	0x3d2b5233	0.04182644
89	0xbdc044e2	-0.09388138
90	0xbdbfe563	-0.09369924
91	0xbd3805e5	-0.044927496
92	0x3c8b8a00	0.017033577
93	0xbca04e3c	-0.019568555
94	0x3d2c2986	0.042031787
95	0xbd4ba7e9	-0.04972068
96	0xbd534a2a	-0.0515844
97	0x3c47fb07	0.012205846
98	0x3d3934ac	0.045216247
99	0xbddfefbc	-0.109343976
100	0xbdac12e5	-0.08402041
101	0xbdd73b70	-0.10509384
102	0x3d0f98eb	0.035057943
103	0xbcd024e1	-0.02540821
104	0xbd37e9ef	-0.04490083
105	0x3d49b347	0.049243238
106	0xbd22cf58	-0.03974852
107	0x3d1124f3	0.03543563
108	0xbd8b88ae	-0.06813179
109	0x3d6a965a	0.057272293
110	0x3d587825	0.052848954
111	0xbd93e26f	-0.07220923
112	0xbd8c4fc9	-0.06851155
113	0x3cfd7c26	0.030942988
114	0x3d49ae22	0.04923833
115	0xbd32ada8	-0.043622643
116	0x3c718384	0.014740828
117	0xbdf7a25f	-0.12091517
118	0x3d9af9f1	0.07567204
119	0xbd837624	-0.06419018
120	0x3caa3d9b	0.020781329
121	0x3d54dfb7	0.051971164
122	0xbd002061	-0.03128088
123	0xbdd7867d	-0.105236985
124	0x3b3bd234	0.0028659226
125	0xbd2a11a1	-0.04152072
126	0x3d3aaca6	0.045574807
127	0x3d2db908	0.042412788

weight f4 [12, 128]
0	0x3b9051a4	0.0044042636
1	0xbc0c9295	-0.00857987
2	0xbc128015	-0.00894167
3	0x3c7f2f40	0.01557523
4	0x3ce3fb16	0.027829688
5	0x3c699f46	0.014259165
6	0x3c1cc680	0.00956881
7	0xba59dbde	-0.0008310656
8	0x3c193cad	0.009352845
9	0x3c0f17a9	0.008733668
10	0x39a5ed7e	0.00031648198
11	0x3b61bb95	0.0034444083
12	0xbc404628	-0.011735477
13	0x39c65131	0.00037825995
14	0x3c1fb41d	0.009747532
15	0x3b20431d	0.0024454065
16	0xbd8be10e	-0.06830035
17	0xbc305384	-0.010762099
18	0x3c9d4428	0.019197538
19	0x3c975abd	0.018475885
20	0xbc11f1d4	-0.008907754
21	0x3bca5fb2	0.0061759586
22	0xbcf9d76c	-0.030498229
23	0xbc91f2ef	-0.017816035
24	0x3b83df0d	0.0040243925
25	0x3a7f508f	0.0009739482
26	0x3cd0b552	0.025477085
27	0xbc94377a	-0.01809286
28	0xbb704aa9	-0.0036665595
29	0xbb79f808	-0.0038142223
30	0x3bad5c94	0.005290577
31	0xbc94dd65	-0.018171975
32	0x3bfc2480	0.007694781
33	0x3be4f8c0	0.006987661
34	0xbc46549f	-0.012105136
35	0x3a677590	0.0008829469
36	0xba9567be	-0.0011398715
37	0x3bc9b48b	0.0061555556
38	0x3db45870	0.088059306
39	0xbd078425	-0.033085007
40	0x3be2f947	0.006926689
41	0xbc9f48d6	-0.01944391
42	0xbcd95000	-0.026527405
43	0xba7cd829	-0.00096452475
44	0xbb4e48a5	-0.0031476405
45	0xbbcaba29	-0.006186743
46	0xbd648cc9	-0.055798326
47	0x3c85778f	0.016292362
48	0xbca4bc56	-0.020109337
49	0xbb2aac59	-0.0026042669
50	0x3c53f46c	0.012936693
51	0xbb06695e	-0.002050958
52	0xbc88460a	-0.01663496
53	0xbc75ea6b	-0.015009503
54	0xbd27d7d0	-0.0409773
55	0xbc43bf0b	-0.011947404
56	0xbb83c9d3	-0.004021862
57	0x3b7e2be4	0.0038783485
58	0xbd06b084	-0.032883182
59	0xbca83c6d	-0.020536626
60	0xbb1edc03	-0.0024240024
61	0xbd66fa92	-0.056391306
62	0x3ab55c55	0.0013836721
63	0xbc96fe98	-0.018431947
64	0xbd03bc4a	-0.03216199
65	0x3c284d1b	0.01027229
66	0x39e23b07	0.00043150058
67	0xbceb5581	-0.028727295
68	0xbd2ada0b	-0.04171185
69	0x3cce6f17	0.025199456
70	0x3beb9316	0.007189165
71	0xbc854952	-0.016270313
72	0xbc179559	-0.009251916
73	0xb9ba55ad	-0.00035540518
74	0xbb8ac433	-0.0042348146
75	0x3b7d02dc	0.003860644
76	0x3b8cffa5	0.004302936
77	0x3c78683a	0.015161568
78	0xbcdb4ea0	-0.02677089
79	0x3cb59bbb	0.022168985
80	0x3b01adfe	0.0019787545
81	0xbbc8eed6	-0.006131987
82	0x3c388e7f	0.0112644425
83	0xbbb55694	-0.0055340026
84	0x3d38741e	0.045032613
85	0x3c55772c	0.013028901
86	0x3c4e8183	0.01260412
87	0xb931409f	-0.00016904109
88	0x3c4fbc4f	0.012679174
89	0x3c0ce2dc	0.008599009
90	0x3c16bcf1	0.009200321
91	0x3a200491	0.0006104196
92	0xbc32caaf	-0.010912581
93	0xbbfbf85e	-0.00768952
94	0x3c268e72	0.010165798
95	0xbc43a747	-0.0119417375
96	0xbbb178b3	-0.005416
97	0x3b4599a0	0.0030151382
98	0xbcb62626	-0.022234987
99	0xbd0b814e	-0.03405886
100	0x3c61ffe7	0.013793922
101	0x3cc6cb8c	0.02426698
102	0xbc03991a	-0.008032108
103	0xbc7033a3	-0.014660749
104	0xbc208d02	-0.009799244
105	0x380e6013	3.3944914e-05
106	0x3c289590	0.010289565
107	0x3c0b4e64	0.0085025765
108	0xbbdf655a	-0.006817502
109	0x3bb3d264	0.005487727
110	0x3c8c6eff	0.01714277
111	0x3c3f0eb1	0.011661218
112	0x3c610675	0.01373445
113	0x3c13ea8e	0.00902809
114	0x3ac39e0a	0.0014924419
115	0xbc39dede	-0.01134464
116	0x3af50fab	0.0018696686
117	0xbd328835	-0.04358693
118	0x3b3ebe83	0.0029105253
119	0x3cbf9485	0.02338625
120	0x3cab1c6a	0.020887572
121	0x3c469a71	0.012121783
122	0xbd4ea4ac	-0.050450012
123	0xbbba3530	-0.00568261
124	0x3c86d188	0.016457334
125	0xbc01a59b	-0.007913019
126	0x3ba3da02	0.005000354
127	0xbc5ed75a	-0.0136011485
128	0x3cd27f63	0.025695508
129	0xbb47e0f2	-0.0030499068
130	0x3c79a894	0.015237946
131	0xbc4b7cd1	-0.012419895
132	0x3d328ab4	0.04358931
133	0x3ba0b2ef	0.004904143
134	0xbca01b7f	-0.019544361
135	0xbbb1057d	-0.0054022656
136	0x3ca8216b	0.020523747
137	0xbd1e6126	-0.038666867
138	0xbd3ac4cc	-0.045597836
139	0xbbade214	-0.0053064916
140	0x3c130110	0.008972421
141	0xbc6e5c17	-0.014548323
142	0xbc71ecd7	-0.01476594
143	0xbcc9dccc	-0.024641417
144	0x391c8a16	0.0001492876
145	0x3cb9fa41	0.022702338
146	0xbd3e2285	-0.04641964
147	0xbc0a8093	-0.008453506
148	0xbb08ca0f	-0.002087239
149	0x3d3cb911	0.04607493
150	0xbaf63e46	-0.001878687
151	0x3ba7983e	0.005114584
152	0xbbde2157	-0.0067788768
153	0xbb89ca97	-0.004205059
154	0xbc9c3886	-0.019069921
155	0x3cb240ae	0.021759357
156	0xbc558c33	-0.013033914
157	0xbceba060	-0.028762996
158	0x3caf23c1	0.021379353
159	0xbb7bc54f	-0.0038417166
160	0xbc531b41	-0.012884916
161	0x3bbcc6db	0.00576101
162	0x3b8e5bd0	0.004344441
163	0xbcea48ef	-0.02859923
164	0x3c87819e	0.016541298
165	0xbc9cf67d	-0.019160504
166	0x3b0c5983	0.0021415658
167	0x3cf7968c	0.030223154
168	0x3c821121	0.015877308
169	0x3c2fff24	0.010741983
170	0x3c1875a7	0.009305394
171	0xba8c844f	-0.0010720583
172	0xbbc47607	-0.0059955153
173	0xbb798b89	-0.0038077554
174	0xbd0a8bd4	-0.033824757
175	0xbc219f53	-0.009864646
176	0xbd0363bc	-0.032077536
177	0xbc48b3ec	-0.012249928
178	0xbba2957b	-0.004961667
179	0x3c0defe8	0.008663155
180	0x3c32085f	0.010866254
181	0x3c9bfbf8	0.019041047
182	0x3c9056e8	0.017619565
183	0x3bf48bb1	0.0074629416
184	0x3c628eac	0.013827961
185	0x3b771593	0.0037702068
186	0x3c4b66ff	0.012414693
187	0xbc0c4277	-0.008560768
188	0xbc1c101a	-0.009525323
189	0xbcc80f38	-0.02442132
190	0x3cd34bec	0.025793038
191	0x3aa32812	0.0012447855
192	0xbcac6671	-0.021044942
193	0xbb3cd94c	-0.0028816042
194	0x3c0f84d1	0.008759693
195	0x3c6d524c	0.014484953
196	0xbc2db921	-0.01060322
197	0xbc062868	-0.008188345
198	0x3c5d7e47	0.013518876
199	0xbc8f5a93	-0.017499244
200	0x3bed22b1	0.0072368016
201	0xbbe56d9f	-0.0070015932
202	0x3c86d60b	0.016459486
203	0x3c391a94	0.011297841
204	0xbc0ce674	-0.008599866
205	0xbc0ab26a	-0.008465389
206	0x3d1ed6d0	0.03877908
207	0xbd058636	-0.032598697
208	0xbc6563c3	-0.014000836
209	0xbbd9acdf	-0.0066429223
210	0xbb95307e	-0.0045529
211	0xbb3f0e84	-0.002915294
212	0x3c4e82bf	0.0126044145
213	0xbb999d45	-0.0046879374
214	0x3a9fe6cd	0.0012199521
215	0xbc3a2f4a	-0.011363814
216	0x3b0a87d6	0.0021138093
217	0x3cb5e018	0.022201583
218	0x3cea1aad	0.028577173
219	0xbb90fb59	-0.004424494
220	0x3bbf3756	0.005835454
221	0xbcdd7ce8	-0.027037099
222	0x3c54eb06	0.012995487
223	0xbb8da568	-0.0043226965
224	0x3d4e0b4d	0.050303746
225	0xbc0448ac	-0.008073967
226	0x3c1427b5	0.00904267
227	0xbcaa4351	-0.020784052
228	0xbc0c6713	-0.008569497
229	0x3b159bd3	0.0022828474
230	0x3cc060f4	0.02348373
231	0x3a3b62a9	0.00071481854
232	0xbba3f2d7	-0.005003314
233	0xbc075c4a	-0.0082617495
234	0x3cb07cc0	0.02154386
235	0xbd36d067	-0.04463234
236	0xbc8aa9f3	-0.016926741
237	0xbb808fd7	-0.003923397
238	0x3cb440a1	0.022003474
239	0xbb6b0b83	-0.0035865016
240	0x3c8fcf89	0.017555015
241	0xbc8110df	-0.015755115
242	0xbcb257df	-0.021770416
243	0x3bbdc602	0.0057914266
244	0x3cb51785	0.022105942
245	0xbbd0f108	-0.0063763894
246	0xbc8b99bf	-0.017041085
247	0xbc991306	-0.018685829
248	0x399f5702	0.0003039167
249	0x3c60eb3b	0.013727958
250	0x3aec2b69	0.0018018308
251	0xbc1ecbee	-0.009692175
252	0xbc7ac8c9	-0.01530666
253	0xbb8f2601	-0.004368544
254	0xbc3125cd	-0.010812235
255	0x3ce5d022	0.028053347

bias f4 [12]
0	0x3d1dac07	0.038494136
1	0x3db91b3b	0.09038397
2	0x3cac3c42	0.021024827
3	0xbe0b6963	-0.1361442
4	0x3b26153c	0.0025342247
5	0xbddcab01	-0.10774804
6	0x3d31d9f8	0.04342076
7	0xbdbcc941	-0.09218074
8	0xbb512aab	-0.0031916301
9	0xbe0ce3ff	-0.13758849
10	0x3ce19f0e	0.027541663
11	0x3d8e5d76	0.0695142
