deploy/models/booster_gym_v2/model_2000.pt (torch, 298238 bytes, 8 tensors)

weight f4 [256, 80]
-0.116770096 0.16810666 -0.050125264 0.09397569 0.05443557 0.001177918 0.10969664 0.08639801
-0.06539027 0.10745691 0.027583929 -0.0017358202 -0.0065693585 -0.009642507 -0.019218862 0.018021295
0.059843548 -0.0026580177 0.05904025 0.03302517 -0.02605538 -0.25624138 -0.30753472 -0.31727743
0.14906007 -0.043424327 0.04890514 -0.20107694 -0.34639537 -0.3291029 0.035636157 -0.18615796
-0.046142787 0.23351802 0.09829449 -0.068802044 -0.13731897 -0.030869024 0.003583982 0.016206218
-0.061930764 -0.1580561 0.103111066 -0.071528316 0.24320501 0.27669615 0.036368124 0.02110076
0.23330319 -0.0076994738 -0.07712354 0.049019948 0.3640413 -0.19421688 -0.0265534 0.034105923
0.024600659 -0.042397328 0.09349323 -0.033713453 -0.0068355105 -0.13797393 0.040099613 -0.009366076
-0.08922523 -0.0052623544 0.027517356 0.23605071 0.09807507 -0.0057192366 0.14691459 -0.1531752
0.01494197 0.02328026 0.20606965 0.13133997 -0.032154568 -0.020029334 -0.059018258 0.081684954
-0.23278305 0.3225847 -0.15053858 -0.14492518 0.076972105 -0.0098676225 -0.057462182 -0.07589187
0.05228308 -0.041723676 -0.09612537 -0.060688697 0.11671763 -0.03541847 -0.08085086 -0.014900857
-0.098453134 0.0522357 -0.00816504 0.009842059 -0.036732733 -0.36178616 0.02010765 -0.28619692
-0.3027613 0.12443115 0.03700104 -0.08178712 0.19613841 -0.66209936 0.031635083 0.2824612
-0.31640962 -0.042701203 -0.1267522 0.06519163 -0.011151696 -0.06082481 0.057086643 0.11819571
-0.07728307 0.14310166 -0.09700206 -0.016027255 -0.07643208 0.3452174 -0.19449833 -0.08361029
0.21943758 0.015324818 -0.051636677 0.012089209 -0.022268774 -0.18089242 0.096822046 0.050820287
0.011719954 0.078291185 0.04898368 0.07284521 -0.028943231 -0.08273755 0.029275239 -0.06496183
-0.11885868 -0.035556767 0.057260264 -0.07877656 -0.0073534045 0.05036147 0.15477517 0.25135034
0.08915366 0.028698483 0.10018712 0.21060662 0.14173366 0.026496712 0.02059349 -0.2041817
0.55693734 -0.259551 0.1079929 -0.045855496 0.0019433938 0.0013050227 -0.038390476 -0.028712438
0.028063124 0.10428025 -0.010740945 -0.06283014 -0.10785318 0.07646867 0.12932855 -0.05535742
0.0113733485 -0.10352579 0.099253446 0.051388673 0.045487113 0.14057735 -0.10714119 -0.31737897
-0.17517206 -0.01674731 0.08036632 0.16190492 -0.16068691 0.035787933 -0.002088167 -0.2269317
0.13388048 -0.096453466 0.01950686 -0.033373002 0.15004171 0.07998558 0.07628733 -0.13078532
0.066736154 -0.22695361 0.036720954 0.1938926 -0.0012729592 0.091962695 -0.009462107 -0.065759696
0.036506362 0.042842362 -0.023410391 -0.2325596 0.010438096 -0.022306774 -0.1319664 -0.043918855
-0.08036616 -0.017508272 0.0138451895 0.11689812 0.035022188 0.06586488 -0.092330195 0.07978493
-0.023661003 0.08234071 0.04680533 0.03579645 0.16220339 0.22889039 0.11715743 -0.15308148
-0.15616417 -0.17698069 -0.031130359 0.1161797 0.025144355 0.029314743 -0.039444093 -0.023249762
-0.69980574 0.49494758 0.05159274 -0.010223386 -0.091088094 -0.0058551775 -0.06832966 0.10830965
-0.071557395 0.034326818 0.10463882 0.0146156205 -0.11805673 0.027504228 0.05523706 -0.045564026
00000000: 2925 efbd 2724 2c3e 2650 4dbd 5476 c03d
00000010: d5f7 5e3d 5f64 9a3a a2a8 e03d 71f1 b03d
00000020: 55eb 85bd 5e12 dc3d b1f7 e13c 7684 e3ba
00000030: c643 d7bb 9bfb 1dbc e070 9dbc 65a1 933c
00000040: 821e 753d 2332 2ebb 30d4 713d 6745 073d
00000050: 1872 d5bc 1232 83be 3175 9dbe 3072 a2be
00000060: 34a3 183e b5dd 31bd c250 483d 1de7 4dbe
00000070: bc5a b1be 2d80 a8be 38f7 113d 31a0 3ebe
00000080: 3800 3dbd 591f 6f3e 9f4e c93d 16e8 8cbd
00000090: 589d 0cbe 09e1 fcbc 3de1 6a3b e7c2 843c
000000a0: 1dab 7dbd 75d9 21be e52b d33d 707d 92bd
000000b0: bc0a 793e 1eab 8d3e bef6 143d 80db ac3c
000000c0: 08e7 6e3e de4b fcbb f2f2 9dbd 24c9 483d
000000d0: 9f63 ba3e cae0 46be 8486 d9bc a7b2 0b3d
000000e0: 5287 c93c d2a8 2dbd 6179 bf3d 1e17 0abd
000000f0: 6bfc dfbb 0a49 0dbe 7e3f 243d 2c74 19bc
00000100: b8bb b6bd d46f acbb 146c e13c 47b7 713e
00000110: 95db c83d 6f68 bbbb c770 163e f6d9 1cbe
00000120: 2acf 743c 3eb6 be3c ec03 533e fc7d 063e
00000130: 82b4 03bd 8f14 a4bc 21bd 71bd 714a a73d
00000140: ae5e 6ebe d229 a53e c926 1abe 4467 14be
00000150: 8da3 9d3d cfab 21bc 775d 6bbd 326d 9bbd
00000160: c826 563d 72e6 2abd 61dd c4bd b694 78bd
00000170: a709 ef3d f512 11bd 2395 a5bd b922 74bc
00000180: cca1 c9bd 1af5 553d a9c6 05bc 9640 213c
00000190: 1075 16bd 093c b9be ccb8 a43c 6788 92be
000001a0: 8703 9bbe c2d5 fe3d 678e 173d 0180 a7bd
000001b0: 82d8 483e 587f 29bf ca93 013d c19e 903e
000001c0: 7100 a2be 75e7 2ebd 54cb 01be 3083 853d
000001d0: 9ab5 36bc 7023 79bd afd3 693d 9810 f23d
000001e0: 9646 9ebd 3e89 123e 04a9 c6bd 974b 83bc
000001f0: 6c88 9cbd 56c0 b03e 922a 47be df3b abbd
00000200: 3fb4 603e f214 7b3c fb80 53bd d111 463c
00000210: 016d b6bc dd3b 39be a34a c63d ef28 503d
00000220: 0d05 403c 2157 a03d 1ca3 483d df2f 953d
00000230: 5b1a edbc 4e72 a9bd a0d2 ef3c b50a 85bd
00000240: 2e6c f3bd f9a3 11bd bd89 6a3d 9b55 a1bd
00000250: d4f4 f0bb d447 4e3d 627d 1e3e feb0 803e
00000260: 3296 b63d 1519 eb3c e82e cd3d 43a9 573e
00000270: a122 113e a20f d93c aeb3 a83c 0215 51be
00000280: 7293 0e3f dee3 84be 622b dd3d f9d2 3bbd
00000290: 7ab9 fe3a 4c0d ab3a 553f 1dbd 5936 ebbc
000002a0: a3e4 e53c e290 d53d cafa 2fbc 17ad 80bd
000002b0: 21e2 dcbd 9b9b 9c3d b46e 043e 76be 62bd
000002c0: 4857 3a3c 5405 d4bd 6445 cb3d ee7c 523d
000002d0: b250 3a3d 82f3 0f3e d76c dbbd 7f7f a2be
000002e0: 4e60 33be a831 89bc 1997 a43d 67ca 253e
000002f0: 1c8b 24be 5e96 123d a1d9 08bb c960 68be
00000300: f717 093e 6589 c5bd dacc 9f3c 21b2 08bd
00000310: 89a4 193e 7bcf a33d 883c 9c3d 96ec 05be
00000320: f7ac 883d 8766 68be b668 163d c88b 463e
00000330: 6cd9 a6ba f056 bc3d f406 1bbc 05ad 86bd
00000340: b287 153d 797b 2f3d 26c7 bfbc 1b24 6ebe
00000350: 8c04 2b3c b2bc b6bc 3322 07be 42e4 33bd
00000360: 0397 a4bd 826d 8fbc efd6 623c 4868 ef3d
00000370: 6d73 0f3d 2be4 863d 9d17 bdbd 4866 a33d
00000380: b8d4 c1bc 3fa2 a83d f2b6 3f3d 4c9f 123d
00000390: a518 263e 3e62 6a3e 3cf0 ef3d 64c1 1cbe
000003a0: 80e9 1fbe 6d3a 35be 1805 ffbc 9fef ed3d
000003b0: 89fb cd3c 7925 f03c 2190 21bd 4976 bebc
000003c0: 7826 33bf c569 fd3e e952 533d fd7f 27bc
000003d0: 658c babd cadc bfbb 6cf0 8bbd 73d1 dd3d
000003e0: af8c 92bd 479a 0c3d e14c d63d 5b76 6f3c
000003f0: bac7 f1bd 8c50 e13c 4140 623d 58a1 3abd

bias f4 [256]
-0.093609974 0.019322343 0.051677287 0.106635146 0.0476389 0.04493379 -0.00243841 -0.062022105
0.027196003 -0.0020879125 -0.024537519 -0.12692657 0.13002986 -0.06903586 -0.049794495 0.013390928
-0.031700883 0.0675907 0.11209129 -0.08596045 0.012254828 -0.022964148 0.11246606 -0.14224523
0.018513324 0.045846827 0.14362288 0.020784516 0.1309993 -0.09097652 -0.019808998 -0.17199418
0.033302575 0.07438234 -0.014414883 -0.120212294 -0.078902565 -0.051720083 -0.09259719 0.06352266
0.05476332 -0.13077682 0.0018458889 0.09059436 0.056360412 -0.026625913 0.09661686 0.13329527
-0.041096408 -0.078464456 0.098159716 -0.053286333 0.025313228 -0.054074246 0.008031743 0.037362352
-0.048577532 0.061134707 -0.08026479 -0.006554031 0.035037413 -0.010143157 0.10606753 0.07892908
-0.087663434 0.056718957 0.10416383 -0.12991767 0.05743534 0.08283701 -0.031461112 0.019175041
0.015354586 0.05995286 0.117217734 -0.0356673 -0.004427749 0.03381013 -0.08180266 0.05834526
-0.06612037 0.1336405 -0.07490541 0.06242973 0.09232348 0.052656796 -0.05188784 -0.07697973
0.047432058 -0.062861994 0.0124461595 -0.040792577 -0.05864946 0.07862966 -0.13563658 -0.0392619
-0.060656223 -0.114081405 0.09829504 0.07062907 0.09251805 0.073561676 -0.08297058 -0.09550929
0.080340065 -0.100843325 0.042134546 -0.123573095 0.023963349 -0.04373385 -0.0070044855 -0.072179176
0.12589002 0.11581837 -0.07128995 0.08476394 -0.013721683 -0.07391781 -0.00067178777 -0.08780516
0.06275939 0.0075091324 0.03223215 0.08059779 0.016754672 -0.015607905 -0.08174589 0.060063563
0.0042120893 0.008542333 0.0369241 0.031004624 -0.08373741 -0.09330408 -0.07212107 0.14872433
0.08698134 0.08436182 -0.015837446 -0.03433597 0.016996173 0.031867437 0.032415118 -0.04761225
-0.02624979 -0.035896063 -0.046431273 -0.02578793 0.048310023 -0.016808698 0.073628865 0.098626725
0.0052003455 -0.07501281 -0.031020593 0.029163836 0.090243675 0.008240444 -0.13344735 0.058601823
-0.08219548 -0.03214769 0.058805786 0.11453952 0.11009894 0.026471062 -0.08534845 -0.11342998
0.051821273 -0.04757068 0.0067712134 0.04779212 -0.027212216 0.057648905 0.030036043 0.07739372
-0.14237866 -0.01527558 0.09674186 0.0061053885 -0.05026262 -0.052714203 -0.07348853 0.0026714366
-0.022722883 -0.0027331307 -0.07822145 0.0017374525 0.052005827 0.029949298 -0.06572961 -0.05331709
0.051801477 -0.05224272 -0.08570047 -0.061345864 -0.0417073 0.021350054 0.051539287 -0.08130663
-0.1006624 0.064840056 -0.049706865 -0.03578332 0.06592967 -0.006108562 0.037003536 0.009509931
0.09367216 0.012498839 7.007994e-05 -0.06938404 0.040411267 -0.09055248 -0.033754118 0.035242572
0.0412486 -0.049648244 0.015162882 0.07288079 -0.014745302 -0.078015596 0.013341375 0.051637385
-0.01914335 -0.09937383 -0.0026050182 -0.07311848 -0.049291015 0.1004939 -0.0045175133 0.08826662
0.010936447 -0.005988971 -0.053008813 -0.011287706 0.052241948 -0.08210201 0.040847618 0.08748817
-0.025835698 -0.03206056 -0.014451875 -0.0024899053 0.06647741 -0.019795116 -0.03535034 -0.025265193
-0.09033925 -0.13560133 0.07299387 -0.017709704 -0.04890187 -0.0018128009 -0.0918363 0.05225517
00000000: 96b6 bfbd e449 9e3c 90ab 533d 8763 da3d
00000010: 0221 433d 7e0c 383d bbcd 1fbb e40a 7ebd
00000020: 27ca de3c 5cd5 08bb e802 c9bc 0af9 01be
00000030: 8c26 053e ac62 8dbd 50f5 4bbd 9f65 5b3c
00000040: c9d8 01bd fe6c 8a3d 1e90 e53d 080c b0bd
00000050: 79c8 483c 4f1f bcbc 9b54 e63d bca8 11be
00000060: 41a9 973c e2c9 3b3d e011 133e 4a44 aa3c
00000070: ae24 063e e651 babd 7b46 a2bc 3e1f 30be
00000080: 4868 083d c555 983d 672c 6cbc dd31 f6bd
00000090: ab97 a1bd 70d8 53bd 98a3 bdbd 2b18 823d
000000a0: 814f 603d 5cea 05be c1f1 f13a 8989 b93d
000000b0: 2dda 663d 961e dabc 0fdf c53d 8e7e 083e
000000c0: b554 28bd f9b1 a0bd f607 c93d c542 5abd
000000d0: b05d cf3c f57c 5dbd 9297 033c 4409 193d
000000e0: 3cf9 46bd 6368 7a3d de61 a4bd 32c3 d6bb
000000f0: 6483 0f3d 7c2f 26bc ef39 d93d 92a5 a13d
00000100: e388 b3bd 2352 683d d953 d53d 2309 05be
00000110: 5241 6b3d 73a6 a93d 5edd 00bd fa14 9d3c
00000120: cd91 7b3c 2191 753d da0f f03d e017 12bd
00000130: a716 91bb 7e7c 0a3d 2788 a7bd 70fb 6e3d
00000140: 1e6a 87bd 0ed9 083e 0268 99bd 51b6 7f3d
00000150: 1814 bd3d a7ae 573d 5888 54bd 8ca7 9dbd
00000160: 1e48 423d cabd 80bd faea 4b3c 1e16 27bd
00000170: 6b3a 70bd 9608 a13d 51e4 0abe 16d1 20bd
00000180: a972 78bd 83a3 e9bd e94e c93d f9a5 903d
00000190: 1a7a bd3d 81a7 963d 7bec a9bd 609a c3bd
000001a0: 5589 a43d f286 cebd 4695 2c3d e413 fdbd
000001b0: c94e c43c 4422 33bd e285 e5bb add2 93bd
000001c0: 50e9 003e 2e32 ed3d 7700 92bd b798 ad3d
000001d0: e9d0 60bc 3962 97bd ea1a 30ba 31d3 b3bd
000001e0: ff87 803d 2b0f f63b dc05 043d 7410 a53d
000001f0: 1841 893c 4cb8 7fbc 646a a7bd 3605 763d
00000200: 9105 8a3b 24f5 0b3c ba3d 173d 69fd fd3c
00000210: 857e abbd 3616 bfbd 36b4 93bd 314b 183e
00000220: 4623 b23d e4c5 ac3d 88bd 81bc e0a3 0cbd
00000230: 8f3b 8b3c 6e87 023d b7c5 043d 1005 43bd
00000240: cd09 d7bc c007 13bd b82e 3ebd 3541 d3bc
00000250: bbe0 453d 65b2 89bc bbca 963d cffc c93d
00000260: a967 aa3b 51a0 99bd e61e febc ffe8 ee3c
00000270: add1 b83d ed02 073c 6ca6 08be 7708 703d
00000280: 1b56 a8bd 4cad 03bd 56de 703d b293 ea3d
00000290: 8e7b e13d d7d9 d83c 2bcb aebd fa4d e8bd
000002a0: 8b42 543d 79d9 42bd 0ee1 dd3b acc1 433d
000002b0: 27ec debc 4221 6c3d 260e f63c 9980 9e3d
000002c0: b6cb 11be 6d46 7abc 9920 c63d b60f c83b
000002d0: 2de0 4dbd d9ea 57bd 2881 96bd 4513 2f3b
000002e0: 5725 babc 531e 33bb 9132 a0bd 3bbb e33a
000002f0: 1004 553d 3b58 f53c 3f9d 86bd 0563 5abd
00000300: c92d 543d 76fc 55bd ba83 afbd cd45 7bbd
00000310: 46d5 2abd 4fe6 ae3c dc1a 533d 1784 a6bd
00000320: 1728 cebd ddca 843d 6d99 4bbd 8891 12bd
00000330: 2306 873d 552a c8bb 0591 173d 8bcf 1b3c
00000340: 30d7 bf3d eec7 4c3c e2f7 9238 3819 8ebd
00000350: 4986 253d 9473 b9bd c241 0abd 845a 103d
00000360: 4bf4 283d f55b 4bbd bd6d 783c 8642 953d
00000370: 4796 71bc a4c6 9fbd c895 5a3c b981 533d
00000380: 84d2 9cbc 8284 cbbd f4b8 2abb 24bf 95bd
00000390: 60e5 49bd bfcf cd3d a607 94bb 21c5 b43d
000003a0: c92e 333c 213f c4bb c51f 59bd 12f0 38bc
000003b0: a7fb 553d 1925 a8bd d54f 273d ff2c b33d
000003c0: 63a5 d3bc ef51 03bd 8fc7 6cbc ae2d 23bb
000003d0: 4f25 883d 5e29 a2bc 85cb 10bd f3f8 cebc
000003e0: c903 b9bd 13db 0abe cf7d 953d f113 91bc
000003f0: 544d 48bd 819b edba ac14 bcbd 8409 563d

weight f4 [128, 256]
-0.13375852 0.17536433 0.020101512 0.072120205 0.0020960206 -0.047870293 0.00016364879 -0.050636236
-0.05854253 0.08843567 -0.08203476 -0.074330054 -0.019679602 -0.00825911 0.19765404 -0.121741354
-0.12231945 0.005982097 0.06499252 0.09448814 -0.11777069 -0.10150866 -0.062376168 -0.12729663
-0.08159371 -0.008032385 0.062855214 -0.036693107 0.034242537 -0.0074791294 0.11988303 -0.020892933
0.08998892 -0.028569374 0.038834423 -0.020955427 -0.025837354 0.05641716 0.050615776 0.029725512
0.04617676 -0.007935898 -0.10857492 -0.06537471 -0.06743763 0.034237925 -0.014359589 -0.0031585502
0.047443353 0.01564462 -0.019153165 -0.07898421 -0.04739478 -0.12903827 0.05304846 -0.14413872
-0.19272411 0.16827884 0.11393463 -0.117953144 0.005576819 0.06662955 0.08511596 -0.027362987
-0.10354 0.021574795 -0.0531796 0.17022923 -0.03133266 0.025792122 0.020302765 0.0152751105
0.0148904165 -0.017295318 0.11616451 0.117541336 0.018082848 -0.0012153087 -0.17138994 -0.091181524
0.125568 -0.12279959 0.10077997 0.03124528 -0.026275558 -0.03549852 -0.09365482 -0.06175845
-0.061929464 -0.02705324 0.012070706 -0.10454959 -0.046696946 -0.025818402 -0.013863734 0.05735913
0.12396184 0.1531643 0.08370216 -0.12003326 -0.02334371 0.09374655 -0.03150307 -0.008495232
-0.047441594 -0.062393345 0.050038055 -0.08028087 -0.020156944 -0.10389611 -0.0015372119 -0.013549093
0.052579172 0.102933325 -0.01779705 -0.018262811 0.12319083 0.018996434 -0.08715396 0.017943587
-0.06859578 -0.103525564 -0.0056026382 0.038553618 0.068826936 -0.064442545 0.02140526 -0.0903919
0.047770422 -0.12622201 -0.10758208 -0.07503327 -0.036009576 -0.12918927 0.052323926 0.078005776
0.06530444 -0.12625255 0.0076929433 -0.1048717 -0.085728645 0.32404113 -0.038333755 -0.19235806
0.033434574 0.021159125 0.018671786 0.11511119 0.00075166917 -0.048056807 -0.011704713 0.0090336995
0.019568106 -0.1604177 0.07184877 -0.13719517 -0.07051972 -0.010374043 -0.01938794 -0.019881584
0.01513092 -0.010932225 -0.038260974 -0.07684729 -0.02690287 0.12985438 0.07328059 -0.032812838
-0.19770485 0.021303324 -0.057854813 0.016830564 0.07088715 -0.008452598 0.03514298 0.100162625
-0.021103136 -0.080028325 -0.046073925 -0.0038272825 -0.12992233 0.13637109 0.07457776 0.07711769
0.10184905 0.040846433 0.0155170625 0.05944352 -0.030464731 -0.07211329 -0.08630828 -0.05720861
0.007481625 0.08394999 -0.03174147 -0.01927259 0.08824237 0.06111416 0.0007496784 -0.13374743
0.027231926 -0.08101394 0.20483203 0.09054108 -0.07024257 0.005899533 -0.12430471 -0.004949966
-0.06283594 -0.0073803263 -0.18303268 -0.08309414 0.06166022 -0.015906181 -0.031343643 -0.040103327
-0.004153893 -0.13686156 -0.036237605 -0.073514946 0.052165408 -0.009688752 -0.09297931 0.14905836
0.09869007 0.0175138 0.11337368 -0.14083348 -0.13552201 -0.07439224 -0.031295 0.05134174
0.1056932 -0.06042679 -0.030062929 0.045400362 0.068370916 -0.06929638 0.028666759 -0.12532416
-0.09187427 -0.013598643 -0.11452973 0.13526805 0.0062009245 -0.058936745 -0.1507343 0.13150927
-0.09884338 0.07396766 -0.015240855 -0.12715079 0.10952241 -0.051060226 0.034222145 -0.09516743
00000000: fef7 08be b592 333e edab a43c c2b3 933d
00000010: 645d 093b a413 44bd 2399 2b39 f167 4fbd
00000020: 4bca 6fbd c31d b53d d701 a8bd 5b3a 98bd
00000030: 1e37 a1bc 3851 07bc d265 4a3e 8853 f9bd
00000040: 9f82 fabd 7705 c43b cc1a 853d ff82 c13d
00000050: c231 f1bd c6e3 cfbd 277e 7fbd 0c5a 02be
00000060: 9a1a a7bd 449a 03bc 3cba 803d 834b 16bd
00000070: e741 0c3d 7c13 f5bb 3c85 f53d a827 abbc
00000080: 1c4c b83d 520a eabc d810 1f3d b7aa abbc
00000090: dca8 d3bc ae15 673d 7d52 4f3d eb82 f33c
000000a0: d823 3d3d 9205 02bc 875c debd 2de3 85bd
000000b0: bd1c 8abd 113d 0c3d 7b44 6bbc aeff 4ebb
000000c0: f653 423d 2529 803c 19e7 9cbc 79c2 a1bd
000000d0: 0721 42bd 9c22 04be 5849 593d 1a99 13be
000000e0: 7859 45be 4a51 2c3e 8f56 e93d 6b91 f1bd
000000f0: c0bd b63b 1375 883d 4751 ae3d 5828 e0bc
00000100: c80c d4bd a0bd b03c dad2 59bd 9250 2e3e
00000110: ad56 00bd 004a d33c fc51 a63c 7544 7a3c
00000120: eff6 733c e9ae 8dbc a9e7 ed3d 83b9 f03d
00000130: 7b22 943c fe4a 9fba d880 2fbe 61bd babd
00000140: e694 003e 5a7e fbbd bb65 ce3d 1af6 ff3c
00000150: d73f d7bc e566 11bd 19ce bfbd 6ef6 7cbd
00000160: c0a9 7dbd c29e ddbc 36c4 453c 181e d6bd
00000170: 4c45 3fbd 1d81 d3bc b724 63bc 68f1 6a3d
00000180: b5df fd3d 1ad7 1c3e 0a6c ab3d ffd3 f5bd
00000190: 4f3b bfbc 31fe bf3d 5d09 01bd 962f 0bbc
000001a0: 1e52 42bd 2a90 7fbd b4f4 4c3d 4c6a a4bd
000001b0: 2d20 a5bc 7cc7 d4bd 467c c9ba 04fd 5dbc
000001c0: 425d 573d b5ce d23d 1ecb 91bc e49b 95bc
000001d0: 794b fc3d 699e 9b3c c67d b2bd 6efe 923c
000001e0: f27b 8cbd 3605 d4bd 5696 b7bb 66ea 1d3d
000001f0: 23f5 8c3d 74fa 83bd 155a af3c 631f b9bd
00000200: ebaa 433d 5840 01be fe53 dcbd 0bab 99bd
00000210: c77e 13bd 314a 04be 9d51 563d 7ec1 9f3d
00000220: 56be 853d 5948 01be 1615 fc3b f9c6 d6bd
00000230: 8092 afbd b8e8 a53e db03 1dbd 83f9 44be
00000240: b1f2 083d e755 ad3c 93f5 983c 6abf eb3d
00000250: aa0b 453a 37d7 44bd 20c5 3fbc 1502 143c
00000260: 4b4d a03c 8a44 24be 7325 933d e47c 0cbe
00000270: a56c 90bd e4f7 29bc 75d3 9ebc b4de a2bc
00000280: aee7 773c 131d 33bc 8ab7 1cbd 1d62 9dbd
00000290: 6863 dcbc 8cf8 043e 2214 963d c166 06bd
000002a0: 2473 4abe 4f84 ae3c 2bf9 6cbd 40e0 893c
000002b0: 482d 913d c47c 0abc 16f2 0f3d 1022 cd3d
000002c0: 7ce0 acbc e4e5 a3bd 03b8 3cbd 25d3 7abb
000002d0: 5c0a 05be dda4 0b3e 3abc 983d e1ef 9d3d
000002e0: 3c96 d03d 974e 273d 473b 7e3c 0c7b 733d
000002f0: 2c91 f9bc 22b0 93bd 65c2 b0bd 9353 6abd
00000300: 6b28 f53b f9ed ab3d 5803 02bd 8de1 9dbc
00000310: 6ab8 b43d d752 7a3d 1186 443a 16f5 08be
00000320: 7d15 df3c a3ea a5bd 7dbf 513e 9a6d b93d
00000330: 56db 8fbd df50 c13b 7893 febd 5333 a2bb
00000340: 21b0 80bd aad6 f1bb eb6c 3bbe 432d aabd
00000350: 6d8f 7c3d ae4d 82bc 3162 00bd 6343 24bd
00000360: 611d 88bb 7025 0cbe e26d 14bd 018f 96bd
00000370: 65ab 553d 92bd 1ebc f06b bebd c1a2 183e
00000380: 051e ca3d 1a79 8f3c 7630 e83d a736 10be
00000390: 48c6 0abe f55a 98bd 302f 00bd b74b 523d
000003a0: ad75 d83d 1582 77bd 8846 f6bc bbf5 393d
000003b0: 0d06 8c3d 43eb 8dbd 8dd6 ea3c fa54 00be
000003c0: 9428 bcbd d8cc 5ebc 908e eabd b583 0a3e
000003d0: 2031 cb3b a867 71bd 185a 1abe 5eaa 063e
000003e0: 666e cabd 5b7c 973d c7b4 79bc d133 02be
000003f0: 494d e03d 8724 51bd 852c 0c3d 24e7 c2bd

bias f4 [128]
-0.008892476 0.04639598 -0.09347477 -0.03929135 0.03229479 -0.012809129 -0.007985836 0.04214099
0.02573507 0.014869609 0.03473063 -0.05121341 -0.071795434 -0.02670103 0.0072324337 -0.06016868
-0.043644294 0.013996408 0.0052612633 -0.079396255 0.013035759 -0.06513861 -0.041799195 -0.055171534
-0.061256625 0.050998453 0.032089885 -0.028846303 -0.030474104 -0.033574007 -0.08073112 -0.07544437
-0.044075035 -0.087722465 -0.03354949 -0.061001956 0.014417794 0.02215137 -0.0006492133 -0.0045592943
0.020513248 -0.011165691 0.008595231 -0.03269849 -0.037768718 -0.03998427 0.053163063 -0.039761078
-0.039402485 -0.05517718 -0.020589445 -0.080152124 -0.030064378 -0.070022814 0.0016412389 -0.059278335
0.04100106 -0.06258409 0.022391539 -0.018160332 -0.09274188 -0.008836363 -0.012462333 -0.040699597
0.02910069 -0.013831208 -0.048760165 -0.027244518 0.0006655248 0.023066554 -0.093297064 0.034978647
-0.057484828 -0.021185271 -0.06274861 -0.06504416 -0.053400554 -0.07234899 0.021979801 -0.02199232
0.020306055 -0.05200767 -0.07133322 -0.08031495 -0.047389958 -0.08682763 -0.032501645 0.010019535
-0.01382102 0.06994861 -0.034691576 -0.015853737 -0.067596175 -0.047848824 -0.1170747 -0.020818003
0.0038917765 0.008320327 0.053104877 -0.057017297 0.01852277 -0.05424132 -0.036991786 0.025936026
-0.09532534 -0.063480705 0.0567613 0.012604874 -0.11519194 -0.05288343 -0.0525685 -0.030413458
-0.008143052 0.041480727 -0.08774147 0.075389534 -0.012193187 -0.045059774 -0.03315585 0.013580433
-0.045174815 -0.07270964 -0.09945756 0.013747717 0.026288904 -0.05934212 -0.06312018 0.006746382
00000000: bfb1 11bc b609 3e3d b36f bfbd f7ef 20bd
00000010: 8b47 043d 62dd 51bc 06d7 02bc 089c 2c3d
00000020: 5bd2 d23c a99f 733c b541 0e3d 27c5 51bd
00000030: 7c09 93bd 1ebc dabc 0dfe ec3b 6f73 76bd
00000040: 5cc4 32bd 3151 653c ad66 ac3b 819a a2bd
00000050: f093 553c 6467 85bd a235 2bbd 8cfb 61bd
00000060: 3ae8 7abd c1e3 503d af70 033d 154f ecbc
00000070: d4a4 f9bc e684 09bd 5c56 a5bd 9482 9abd
00000080: 0688 34bd d6a7 b3bd 316b 09bd 30dd 79bd
00000090: 9c38 6c3c ca76 b53c f82f 2aba 2266 95bb
000000a0: 660b a83c 4df0 36bc 03d3 0c3c daee 05bd
000000b0: 5fb3 1abd 8cc6 23bd 83c1 593d 83dc 22bd
000000c0: 8064 21bd 7701 62bd 32ab a8bc cc26 a4bd
000000d0: 9249 f6bc 1f68 8fbd d71e d73a d7cd 72bd
000000e0: baf0 273d 162c 80bd 766e b73c fac4 94bc
000000f0: 74ef bdbd 65c6 10bc d02e 4cbc 9fb4 26bd
00000100: 9264 ee3c 4b9c 62bc bdb8 47bd e52f dfbc
00000110: 9d76 2e3a 12f6 bc3c 8812 bfbd c545 0f3d
00000120: 3675 6bbd bc8c adbc 5882 80bd df35 85bd
00000130: 8aba 5abd b52b 94bd fc0e b43c 3d29 b4bc
00000140: e258 a63c ff05 55bd 2717 92bd 2a7c a4bd
00000150: f91b 42bd afd2 b1bd 7220 05bd fa28 243c
00000160: 8f71 62bc 3841 8f3d c118 0ebd b2df 81bc
00000170: dd6f 8abd 21fd 43bd dcc4 efbd 848a aabc
00000180: 2d0d 7f3b fb51 083c 8084 593d f88a 69bd
00000190: 10bd 973c 252c 5ebd b384 17bd ca77 d43c
000001a0: ef39 c3bd 2c02 82bd 897e 683d ac84 4e3c
000001b0: c0e9 ebbd 4c9c 58bd 1152 57bd a525 f9bc
000001c0: 706a 05bc b2e7 293d cdb1 b3bd d465 9a3d
000001d0: efc5 47bc 9990 38bd 6ece 07bd 7780 5e3c
000001e0: 3a09 39bd cbe8 94bd 68b0 cbbd 1b3e 613c
000001f0: d45b d73c b910 73bd 2745 81bd c110 dd3b

weight f4 [128, 128]
0.065446235 -0.049514063 0.023830919 0.002302016 0.09216535 0.08019972 0.031558365 0.03965328
0.10194007 -0.016465902 0.0098925 0.123614766 0.058800086 0.011339694 -0.07140478 -0.074659474
-0.015399013 -0.0057451436 0.0548756 -0.023250086 0.065081775 0.052505538 0.0576997 0.042214427
0.10308344 0.063501276 0.042477794 0.00013359677 0.04194074 0.10372313 -0.040201444 0.0281111
-0.15180314 0.033242133 -0.05434828 0.016591283 0.08206151 -0.032601856 0.052572846 0.07912115
0.07667735 0.042950645 0.04940304 -0.008260996 0.020012159 0.016891409 -0.08915838 -0.04559865
0.041743 -0.035512086 0.037285514 0.05334032 0.09549297 0.0923128 0.10551458 0.021448253
0.020520208 -0.022740437 -0.029262349 0.09097459 -0.04125011 -0.08170193 -0.006165911 0.14725286
-0.0077622323 -0.043147776 0.21467252 -0.0017737744 0.007055817 0.0398338 -0.023525836 -0.09044668
0.058046672 -0.026546447 0.037154123 0.029860985 0.084020086 -0.030691441 -0.007538324 0.08025527
-0.1315473 -0.0811305 -0.07776599 0.18230623 -0.010854106 -0.104509145 -0.09933342 -0.045136385
0.058319602 0.01383365 0.10329307 0.03303659 0.016151074 0.063800685 0.010267508 -0.04739282
0.00892137 -0.05621815 -0.08206426 0.08207091 -0.06170802 -0.08915255 0.06412928 -0.059585206
0.0017058825 0.0857934 0.10082923 0.017400477 0.09908207 -0.050320648 -0.02351458 0.086565554
-0.09682839 0.06771525 0.08453141 -0.033172734 0.06994455 0.021860918 -0.023209443 0.072427735
0.1130745 -0.05800828 0.067450844 -0.100386485 -0.09248446 0.12064358 -0.019672344 0.029592413
0.02104095 -0.057723403 0.029348467 0.030455243 -0.039304346 -0.010519838 0.01004765 0.03683505
-0.019479549 -0.046542216 0.07987226 0.0345913 0.08890497 0.061532386 0.090566814 -0.044261605
0.068071626 0.08770987 -0.016373795 -0.037444733 0.007125687 0.10487365 -0.059974056 0.082043245
0.06745276 -0.039237868 0.01614594 -0.06604454 0.017361227 -0.122764125 -0.045699555 -0.017863097
-0.09390457 -0.03690945 0.019703979 0.11459754 -0.06957839 0.05207232 0.023496475 -0.019395059
-0.03388358 -0.007856249 -0.011729747 -0.025997005 -0.0066877073 0.020352548 -0.012628778 -0.06725443
0.08756361 -0.021463916 0.08399153 -0.020972187 -0.021292916 0.02820573 -0.061866324 -0.052274443
0.03318041 -0.00022470407 0.033354547 0.08124343 0.015129649 0.06351174 0.02781527 0.039922953
-0.09458144 0.022481631 0.045862313 0.0757673 -0.010320172 -0.0029417935 0.028957127 -0.0592221
-0.08505377 0.02569378 0.08674768 -0.14055905 0.0018388495 -0.037535515 -0.07546967 0.051480856
0.009309577 -0.025660211 0.081910536 -0.030182827 -0.04538074 -0.03654612 0.003614835 -0.0070459386
-0.043747563 0.02643498 0.011354531 0.073074676 0.072629414 -0.0046374574 0.052047748 0.059296146
-0.05748217 0.00908732 0.083412476 -0.022116907 -0.07697479 -0.09512841 -2.2218539e-05 -0.0465754
-0.0013136639 0.015451321 0.034014594 0.021215498 0.0917435 -0.0588795 -0.048497394 0.03839153
-0.00026252214 -0.03277568 0.04085131 0.0033178986 -0.0325754 -0.041502632 0.05113998 0.0058149444
-0.08442515 -0.00943138 -0.08584606 -0.056544896 0.029326944 -0.016921896 0.024516033 0.0004985978
00000000: ad08 863d 42cf 4abd 0f39 c33c 6bdd 163b
00000010: 30c1 bc3d c03f a43d 5843 013d 7a6b 223d
00000020: f5c5 d03d 80e3 86bc 2714 223c bd29 fd3d
00000030: 5cd8 703d 20ca 393c ab3c 92bd 11e7 98bd
00000040: 244c 7cbc c241 bcbb 3dc5 603d f776 bebc
00000050: 9849 853d 0c10 573d 8556 6c3d 09e9 2c3d
00000060: 691d d33d f50c 823d 32fd 2d3d 1c16 0c39
00000070: 0eca 2b3d cb6c d43d 45aa 24bd 4049 e63c
00000080: 4872 1bbe e728 083d 4d9c 5ebd 71ea 873c
00000090: dd0f a83d 8689 05bd a056 573d 450a a23d
000000a0: 0409 9d3d 04ed 2f3d d85a 4a3d 2159 07bc
000000b0: 8af0 a33c da5f 8a3c ab98 b6bd a6c5 3abd
000000c0: b5fa 2a3d 1f75 11bd b2b8 183d 617b 5a3d
000000d0: d191 c33d 7e0e bd3d 0718 d83d 3fb4 af3c
000000e0: ff19 a83c 274a babc 98b7 efbc e350 ba3d
000000f0: e0f5 28bd 5753 a7bd 690b cabb 74c9 163e
00000100: 535a febb b9bb 30bd 1dd3 5b3e fe7d e8ba
00000110: 7c34 e73b c428 233d 41b9 c0bc 1c3c b9bd
00000120: 59c2 6d3d ef77 d9bc ec2e 183d 069f f43c
00000130: b912 ac3d 9e6c fbbc 0c04 f7bb e05c a43d
00000140: 56b4 06be bf27 a6bd c643 9fbd 7cae 3a3e
00000150: 6cd5 31bc e408 d6bd 526f cbbd eee0 38bd
00000160: 89e0 6e3d 89a6 623c 518b d33d 6051 073d
00000170: 424f 843c efa9 823d 0d39 283c f91e 42bd
00000180: f02a 123c 0145 66bd 4f11 a8bd cb14 a83d
00000190: 8cc1 7cbd 9d95 b6bd 3656 833d 9e0f 74bd
000001a0: eb97 df3a 73b4 af3d 8e7f ce3d 728b 8e3c
000001b0: 8aeb ca3d 061d 4ebd a6a1 c0bc 4849 b13d
000001c0: f74d c6bd 4bae 8a3d ce1e ad3d 22e0 07bd
000001d0: 173f 8f3d ab15 b33c bb21 bebc fe54 943d
000001e0: 9a93 e73d 179a 6dbd ab23 8a3d 6e97 cdbd
000001f0: 7e68 bdbd fb13 f73d e527 a1bc ca6b f23c
00000200: 125e ac3c 606f 6cbd 326c f03c 467d f93c
00000210: 98fd 20bd 665b 2cbc e69e 243c 59e0 163d
00000220: 9393 9fbc 0da3 3ebd 1194 a33d 9baf 0d3d
00000230: cf13 b63d 6209 7c3d 187b b93d a84b 35bd
00000240: 2369 8b3d 3ba1 b33d 5622 86bc a65f 19bd
00000250: 987e e93b ffc7 d63d 5ba7 75bd 4a06 a83d
00000260: ac24 8a3d e3b7 20bd 7e44 843c 5c42 87bd
00000270: 2239 8e3c c26b fbbd 752f 3bbd a155 92bc
00000280: 0a51 c0bd 5d2e 17bd 3d6a a13c 1db2 ea3d
00000290: 1d7f 8ebd c949 553d ae7b c03c 63e2 9ebc
000002a0: 82c9 0abd 7fb7 00bc 202e 40bc acf7 d4bc
000002b0: 8e24 dbbb 63ba a63c efe8 4ebc b1bc 89bd
000002c0: 8d54 b33d 18d5 afbc c003 ac3d ddcd abbc
000002d0: 7b6e aebc b40f e73c 8b67 7dbd ba1d 56bd
000002e0: 2ee8 073d 8a9e 6bb9 c79e 083d f562 a63d
000002f0: 59e2 773c 7112 823d d9dc e33c 4086 233d
00000300: eab3 c1bd 662b b83c 1fda 3b3d e32b 9b3d
00000310: f015 29bc 1bcb 40bb 7f37 ed3c df92 72bd
00000320: ac30 aebd c37b d23c c5a8 b13d b6ee 0fbe
00000330: 8d05 f13a d7be 19bd d88f 9abd 97dd 523d
00000340: 3287 183c 5d35 d2bc b6c0 a73d fa41 f7bc
00000350: 28e1 39bd 62b1 15bd dee6 6c3b 9ee1 e6bb
00000360: a530 33bd 2c8e d83c 5b08 3a3c 2da8 953d
00000370: bbbe 943d d0f5 97bb 0530 553d 84e0 723d
00000380: 6d72 6bbd fce2 143c 29d4 aa3d 842e b5bc
00000390: f5a4 9dbd afd2 c2bd f361 bab7 d9c5 3ebd
000003a0: 3f2f acba 8a27 7d3c e352 0b3d 20cc ad3c
000003b0: 04e4 bb3d a12b 71bd 34a5 46bd 7040 1d3d
000003c0: 20a3 89b9 cb3f 06bd b453 273d 1a71 593b
000003d0: c86d 05bd aafe 29bd 2878 513d 4a8b be3b
000003e0: 18e7 acbd 1386 1abc 0fd0 afbd 9f9b 67bd
000003f0: 0f3f f03c ca9f 8abc d9d5 c83c 55b4 023a

bias f4 [128]
0.037130427 -0.035936255 0.028936755 -0.08395467 0.03202191 -0.010257739 -0.06415208 -0.051361255
-0.0033960869 -0.042182222 -0.082716644 -0.0043049464 -0.04631766 0.06926899 -4.6889063e-06 -0.009721501
-0.07570379 0.021207135 0.021777682 -0.13281496 -0.044279832 -0.10223478 -0.07793221 0.014435303
0.01195802 -0.026935732 0.009469858 0.05202654 -0.07446993 -0.057815373 -0.019495608 -0.061328083
-0.030246697 -0.035185426 -0.08158472 -0.07928465 -0.008747304 0.04812701 -0.15807039 0.0044881585
0.07780615 -0.055119447 0.00157504 0.045453794 -0.06429901 -0.0051505165 -0.12211949 -0.08978907
-0.058809683 0.057520702 -0.04728449 -0.060139216 -9.1467205e-05 -0.015829036 -0.12964448 0.01744698
0.038120706 0.029284166 0.042943634 -0.023096044 0.05948384 -0.12592703 -0.11091689 -0.0050902814
-0.019349542 -0.013833431 0.049303256 -0.014760827 -0.08420003 0.054160938 -0.024131725 -0.00803447
0.0023646988 0.013395255 -0.060501866 -0.018059589 0.013511434 0.016838867 0.06944725 -0.057741888
-0.051348157 -0.03349322 0.059368484 0.004408521 0.0334402 -0.1174432 -0.029624598 -0.05323004
0.038509637 -0.09346421 -0.0861031 -0.03461403 0.015153421 -0.01934855 0.03829604 -0.04674498
-0.02765651 0.023355301 0.04257549 -0.10241028 -0.047151282 -0.09821162 0.06083614 -0.023219401
-0.035996296 0.047508907 -0.037680686 0.04378208 -0.07292711 0.057361644 0.044981945 -0.07464558
-0.06304055 0.042917714 0.052457985 -0.043317825 0.016393673 -0.11110677 0.07531595 -0.053075507
0.02525542 0.05295067 -0.027149666 -0.1205478 0.0023941484 -0.057179973 0.040515948 0.03754072
00000000: 1316 183d e531 13bd c60c ed3c 6df0 abbd
00000010: 6829 033d 1310 28bc 2a62 83bd 2e60 52bd
00000020: e290 5ebb 44c7 2cbd 5867 a9bd 8210 8dbb
00000030: 96b7 3dbd e6dc 8d3d 6655 9db6 ee46 1fbc
00000040: 970a 9bbd 96ba ad3c 1c67 b23c a500 08be
00000050: c55e 35bd 7860 d1bd ec9a 9fbd 0d82 6c3c
00000060: 92eb 433c 53a8 dcbc 7727 1b3c c819 553d
00000070: b183 98bd d0cf 6cbd 41b5 9fbc 2833 7bbd
00000080: ecc7 f7bc 981e 10bd e415 a7bd fe5f a2bd
00000090: da50 0fbc d420 453d 34dd 21be 6711 933b
000000a0: d558 9f3d eec4 61bd 9371 ce3a c22d 3a3d
000000b0: 33af 83bd aac5 a8bb c819 fabd 55e3 b7bd
000000c0: 6ce2 70bd d49a 6b3d 62ad 41bd 8a54 76bd
000000d0: 15d2 bfb8 e5ab 81bc 86c1 04be f8ec 8e3c
000000e0: 7524 1c3d 59e5 ef3c aae5 2f3d ea33 bdbc
000000f0: 54a5 733d 04f3 00be 6528 e3bd 60cc a6bb
00000100: ee82 9ebc 9da5 62bc 36f2 493d 65d7 71bc
00000110: 1171 acbd dcd7 5d3d e5af c5bc 02a3 03bc
00000120: 10f9 1a3b c677 5b3c ced0 77bd b4f1 93bc
00000130: 105f 5d3c aaf1 893c 5c3a 8e3d c282 6cbd
00000140: 7252 52bd 3030 09bd 5e2c 733d 5b75 903b
00000150: 97f8 083d 0f86 f0bd 49af f2bc be07 5abd
00000160: 48bc 1d3d 2a6a bfbd d256 b0bd 71c7 0dbd
00000170: 0e46 783c da80 9ebc 4fdc 1c3d aa77 3fbd
00000180: e88f e2bc 9e53 bf3c a363 2e3d 7bbc d1bd
00000190: b421 41bd 2c23 c9bd 512f 793d 9d36 bebc
000001a0: da70 13bd b398 423d 1057 1abd d754 333d
000001b0: cf5a 95bd 0bf4 6a3d fd3e 383d c8df 98bd
000001c0: 671b 81bd 7cca 2f3d 2fde 563d 086e 31bd
000001d0: 064c 863c f28b e3bd 403f 9a3d b465 59bd
000001e0: 74e4 ce3c cde2 583d fa68 debc c4e1 f6bd
000001f0: 25e7 1c3b 8c35 6abd 0df4 253d 4cc4 193d

weight f4 [12, 128]
0.008475362 -0.013468986 -0.003929188 -0.009548094 0.025796806 0.020248277 0.028625159 -0.00061185786
0.020451115 0.0038019966 0.004101397 0.0044522043 0.0026682103 0.0003722239 -0.0040811794 0.0018110407
-0.07999602 -0.0019209752 0.0099748755 0.014947565 -0.0012945064 0.005093684 -0.020763135 0.00014824128
1.573834e-05 -0.00071641617 0.029512666 -0.0062950575 0.0059366575 0.016811978 0.016842568 -0.010569552
-0.012032969 0.021472493 -0.018332122 -0.0006985242 0.0050290055 0.007008248 0.08526657 -0.024366993
0.012994577 -0.01640469 -0.0024507574 0.010145863 -0.0060005095 -0.0294344 -0.05885144 0.006762189
-0.019105503 0.0037420746 0.03967019 -0.005614843 -0.014634195 -0.012518487 -0.031707533 0.0016643823
0.0060620923 -0.00031665553 -0.005668841 -0.023115268 0.0021608963 -0.039489422 -0.013973382 -0.008048896
-0.04686909 0.0016428714 0.00018221528 -0.01951689 -0.053331595 0.034037706 0.011537003 -0.007988138
-0.00017439129 0.008330426 -0.0007738201 0.0140999425 -0.00064740755 -0.00050718524 -0.029760016 0.0116782095
-0.015425144 -0.012003194 0.019168636 -0.0020942506 0.04319269 -0.013796813 0.015538964 0.0013038676
0.003607652 -0.0024818871 0.010816062 -0.0016495619 0.004873115 -0.010100469 0.034633856 0.004571539
-0.0028096656 0.0010703553 -0.0026647046 -0.037645098 0.021075131 0.028964425 -0.008365304 -0.020271929
0.00060652284 0.0042041102 0.0076202825 0.025527975 -0.010697129 0.017918685 -0.00048867223 0.017165152
-0.0033715644 -0.0018340735 0.017670514 -0.0029225044 -0.0032473789 -0.03354684 0.010170071 0.030773047
0.0020464899 -0.0023878887 -0.043732602 -0.005263223 -0.0029384503 -0.011171805 -0.0016740295 -0.01267636
0.020146716 -0.009854736 0.00060144754 -0.016588213 0.019436488 0.00028400056 -0.03594758 -0.0115584675
-0.014581074 -0.0013146967 -0.027790431 0.006588029 0.010574066 -0.019271597 0.011758929 -0.02502498
-0.01887195 -0.000904746 -0.011070289 -0.0065181414 -0.011852146 0.0393345 -0.011100948 0.0056133517
-0.008657703 -0.0028621242 -0.033796817 -0.0035335012 -0.023841875 -0.023860475 0.038713235 -0.0033537296
-0.0071698655 -0.0065608397 0.021097261 -0.03448977 0.004069744 -0.013512557 -0.0047250036 0.038632736
0.04033837 -0.0018351233 0.0008241297 -0.0016275253 -0.02295703 -0.0029979693 -0.037225652 0.010869646
-0.032944895 -0.000543411 0.012863277 -0.013415508 0.034345016 0.037566118 0.011815294 -0.004399593
0.010278379 -0.012688895 0.0029560407 -0.008610986 -0.013266807 -0.022490013 0.0220253 -0.00038058663
-0.012788017 0.0051372116 0.0057172244 0.017712716 -0.0029140809 -0.010740929 0.020990767 -0.008799904
-0.0037090513 0.004153013 0.00916206 -0.01276605 0.01211459 0.027801504 0.04540619 -0.020426925
-0.015984984 -0.0027877802 0.013149935 0.007857623 0.016349718 0.013661014 0.0013799989 -0.013799857
0.0027494046 0.03965359 0.0059019728 0.0046924553 0.015167542 -0.017959349 -0.008579045 -0.010757615
0.042211406 0.00032903763 0.020110618 -0.030927472 0.004510587 -0.017674776 0.029321603 0.0094539225
-0.013701576 -0.0139186755 0.0113903675 -0.031706054 -0.014495078 0.016750319 0.029320506 -0.019518534
-0.0011103213 -0.0132923275 -0.006746411 0.001113226 0.0016680256 -0.007949199 -0.019294562 -0.024414832
-0.0067857006 -0.01254543 -0.005442789 0.002496404 0.0038801902 -0.0063930782 -0.01960973 0.023764642
00000000: 3fdc 0a3c 06ad 5cbc 6bc0 80bb 9c6f 1cbc
00000010: d353 d33c b7df a53c 4f7f ea3c 1665 20ba
00000020: 1989 a73c eb2a 793b 0365 863b cce3 913b
00000030: 24dd 2e3b 0c27 c339 6abb 85bb 7160 ed3a
00000040: f4d4 a3bd 3bc9 fbba a96d 233c a2e6 743c
00000050: 6dac a9ba ebe8 a63b 7317 aabc 3771 1b39
00000060: d405 8437 e0cd 3bba 8cc4 f13c c546 cebb
00000070: 4b88 c23b 46b9 893c 6df9 893c ea2b 2dbc
00000080: ee25 45bc 15e7 af3c 3f2d 96bc 2a1d 37ba
00000090: 5bca a43b 72a5 e53b 3da0 ae3d 4a9d c7bc
000000a0: 35e7 543c 2163 86bc e39c 20bb d53a 263c
000000b0: ec9f c4bb 6920 f1bc 350e 71bd 5a95 dd3b
000000c0: 2583 9cbc 983d 753b 367d 223d b8fc b7bb
000000d0: 43c4 6fbc 571a 4dbc c2df 01bd 6727 da3a
000000e0: 84a4 c63b c904 a6b9 afc1 b9bb 3b5c bdbc
000000f0: d39d 0d3b a9bf 21bd 9df0 64bc 84df 03bc
00000100: cef9 3fbd 9e55 d73a 0b11 3f39 e3e1 9fbc
00000110: 3b72 5abd 1f6b 0b3d b305 3d3c aee0 02bc
00000120: cedc 36b9 577c 083c 30da 4aba 7203 673c
00000130: c9b6 29ba a0f4 04ba 47cb f3bc f655 3f3c
00000140: beb9 7cbc 0ba9 44bc 8b07 9d3c b23f 09bb
00000150: d1ea 303d 070c 62bc 2497 7e3c 89e6 aa3a
00000160: 5b6e 6c3b 28a7 22bb da35 313c 1d36 d8ba
00000170: a7ae 9f3b 707c 25bc 3bdc 0d3d d9cc 953b
00000180: 5e22 38bb 2a4b 8c3a 53a2 2ebb bf31 1abd
00000190: c1a5 ac3c cd46 ed3c a10e 09bc 5111 a6bc
000001a0: 0fff 1e3a a2c2 893b 90b3 f93b 0b20 d13c
000001b0: 0343 2fbc 35ca 923c 3d1a 00ba ef9d 8c3c
000001c0: 77f5 5cbb 4b65 f0ba c1c1 903c 7d87 3fbb
000001d0: fad1 54bb 6968 09bd 5fa0 263c c217 fc3c
000001e0: 671e 063b 207e 1cbb f520 33bd 1d77 acbb
000001f0: 0493 40bb f209 37bc 1c6b dbba 82b0 4fbc
00000200: ba0a a53c c275 21bc 76aa 1d3a 01e4 87bc
00000210: 4539 9f3c e9e5 9439 c53d 13bd ba5f 3dbc
00000220: 75e5 6ebc e751 acba c2a8 e3bc 65e0 d73b
00000230: d93e 2d3c 78df 9dbc 86a8 403c 3001 cdbc
00000240: 5999 9abc 7a2c 6dba 2860 35bc 2296 d5bb
00000250: 812f 42bc 361d 213d c0e0 35bc 35f0 b73b
00000260: 0ad9 0dbc 7a92 3bbb 886e 0abd 5092 67bb
00000270: 0950 c3bc 0b77 c3bc c591 1e3d 3fca 5bbb
00000280: 31f1 eabb 50fc d6bb 2ad4 ac3c 2545 0dbd
00000290: 7d5b 853b c663 5dbc 34d4 9abb 5c3d 1e3d
000002a0: d939 253d 8588 f0ba 680a 583a b052 d5ba
000002b0: 6210 bcbc 9479 44bb ed79 18bd 9a16 323c
000002c0: 3af1 06bd b273 0eba 7fc0 523c b8cc 5bbc
000002d0: 5cad 0c3d eede 193d ef94 413c 762a 90bb
000002e0: a566 283c 15e5 4fbc 22ba 413b 1815 0dbc
000002f0: 065d 59bc fa3c b8bc 676e b43c 7989 c7b9
00000300: d584 51bc 0e56 a83b 8e57 bb3b 421a 913c
00000310: 2afa 3ebb b9fa 2fbc d4f4 ab3c 792d 10bc
00000320: 8e13 73bb 0016 883b 771c 163c b228 51bc
00000330: 467c 463c fbbf e33c d7fb 393d 5e56 a7bc
00000340: f1f2 82bc 31b3 36bb d372 573c 42bd 003c
00000350: d8ef 853c 72d2 5f3c 14e1 b43a cc18 62bc
00000360: 5b2f 343b ce6b 223d 5665 c13b 2bc3 993b
00000370: 4881 783c 7c1f 93bc 1f8f 0cbc b540 30bc
00000380: dee5 2c3d af82 ac39 06bf a43c 9c5b fdbc
00000390: 8ccd 933b b1ca 90bc dc33 f03c a0e4 1a3c
000003a0: 937c 60bc 280b 64bc aa9e 3a3c 35de 01bd
000003b0: c37c 6dbc f737 893c 8f31 f03c 55e5 9fbc
000003c0: 3388 91ba 10c8 59bc ff10 ddbb abe9 913a
000003d0: a7a1 da3a 5b3d 02bc a10f 9ebc 9d01 c8bc
000003e0: 955a debb 598b 4dbc 6c59 b2bb b69a 233b
000003f0: ca4a 7e3b 077d d1bb 96a4 a0bc 11ae c23c

bias f4 [12]
0.043944232 0.084934734 0.012458691 -0.12090606 -0.003378841 -0.11366487 0.045790795 -0.08169823
-0.024299461 -0.13602145 0.029447839 0.071316205
00000000: defe 333d 43f2 ad3d 8a1f 4c3c 999d f7bd
00000010: 8c6f 5dbb 21c9 e8bd 218f 3b3d 6751 a7bd
00000020: aa0f c7bc 3549 0bbe 983c f13c 3b0e 923d
