deploy/models/booster_gym_v2/model_4800.pt (torch, 298238 bytes, 8 tensors)

weight f4 [256, 80]
00000000: c6a8 74be 60fa 593e 67e9 49bd fe32 9e3d
00000010: 9571 2a3d 7dfd 1e3d a2a8 e03d 71f1 b03d
00000020: 55eb 85bd 5e12 dc3d b1f7 e13c ab34 3ebd
00000030: f62c a8bd 3e4e a4bc 0493 12bd 4698 7c3c
00000040: 0167 853d 8d19 5fbc 1e4b 693d 86c9 283d
00000050: c48d 36bd beb5 56be 76bf a7be 712f 98be
00000060: dcc1 453e a227 b7bd 830e 883c 45c3 b8bd
00000070: b80d d0be 0c45 9bbe e43d 49bb 0d66 3cbe
00000080: bed3 6dbd 68f6 2b3e 8e6c 2d3e 1f24 e8bd
00000090: 2d67 0dbe e999 1bbd d9c4 17bc b705 e03d
000000a0: c7b1 0abd feeb aebd 7e14 92bb ca2a 54be
000000b0: 7134 333e 6e76 e83e 5ba4 28bd 77d1 58bd
000000c0: e285 903e 7e14 bdbd e5fd adbd 18a7 403d
000000d0: bb2c ca3e 8776 93bd 49de bb3c 1955 893c
000000e0: 6180 27bd 225f 30bd 2efa 153d d277 e8bc
000000f0: e6ac 20bb 5a0d 0ebe d096 573d bee7 8abc
00000100: f076 84bd 99fc 5039 a9e2 07ba 8aa9 aa3e
00000110: 2a56 d33d af7c a63d eb1d 053e 1227 28be
00000120: 1826 aabc 2a1e 5a3d 6949 743e 6088 433e
00000130: 1892 a6bc 44af 08bc 5e0c 40bd 2d00 433d
00000140: 2a69 93be 8aed 6b3e 9668 4fbe c087 c0bd
00000150: 7f6f d33c e950 89bb 775d 6bbd 326d 9bbd
00000160: c826 563d 72e6 2abd 61dd c4bd 5fc3 6dbd
00000170: 835a 9f3d 3585 e8bc c814 a03a e870 1abd
00000180: bc2f a3bd bb51 683d 9aaf a3bd 5a08 c73a
00000190: 47aa 4fbd fb3f ccbe c440 d03c e75d 8dbe
000001a0: fd3e bebe d8f5 193e ad4f 6b3c 392a 83bd
000001b0: 891f 903e 6ce0 4ebf 82ee 4e3c c531 a63e
000001c0: 7064 bbbe af97 04bd 705b cbbd 8e7c d5bc
000001d0: 0e75 a8bb 80cd 883c 86cc 943d f00b 1e3d
000001e0: eb42 43bc f8ff 303e 7ad8 05bd 6888 96bd
000001f0: 0b11 48bc 148d fa3e b9e3 acbe 175f dbbd
00000200: c305 3a3e 0c82 1b3d 718b a2bd d594 5839
00000210: ad8e 0abe 8682 07bd 99e3 953d 8d8d 8b3d
00000220: bd8d 283c 42b5 9e3d 8dc6 083d f557 a33d
00000230: dcf9 833c 7a6a 9bbd a7cd b53c 760c 5cbd
00000240: 4a67 07be 5e45 41bd cd04 ba3d 447a 7dbd
00000250: 7ff5 a63a 265b 2e3e de70 f33d ddca 803e
00000260: aed7 793d 15dc e93d 70f4 193e 73e2 6f3e
00000270: 983c 243e 19b9 7fbc 3c43 b2bb 2640 28be
00000280: 1b60 2d3f 82e2 c7be b72c fe3d 02be 2ebd
00000290: 42bd 5fbd 3539 07bd 553f 1dbd 5936 ebbc
000002a0: a3e4 e53c e290 d53d cafa 2fbc 009e cdbd
000002b0: 739f 07be f931 9b3d b471 8f3d e3c6 7ebd
000002c0: cccc a53c e8cc d8bd dc75 e73d d5c4 3f3d
000002d0: 37ec 0a3d b94d 283e 652a f4bd 03d3 b0be
000002e0: 6837 76be 8c6b 30bc 778a cc3c 6f35 d93d
000002f0: ca54 76be 042b 7fbc 9fc5 973c 8fd1 6dbe
00000300: 7797 ed3d e841 51bd 28db 0a3d 863b a1bd
00000310: 2e36 6f3c 6429 e63c 9ba6 2f3d 993e 5abe
00000320: 5079 c93c 9d55 65be 4582 54bc c057 3a3e
00000330: d6e8 333d cd57 f13c 50cf 263e 3d3a 0dbe
00000340: df26 c2bc 9c3f 793d 5c54 16bc d2ed d7be
00000350: 8054 fabd 98c0 8bbd 3c75 12be 0c8c c7bb
00000360: 02d0 60bd 7e03 e8bc 5827 543d 9de1 ec3d
00000370: ec84 dc3c 7aac 503d b88c c7bd d8e0 983d
00000380: de36 e8bc 8b07 b23d 64fc 173d 131c c93d
00000390: ab4b 1b3e 565f 7e3e 0404 0c3e 4d31 31be
000003a0: 9e42 33be 9664 34be 7b70 063d 25cd a93d
000003b0: d05e 903d 0578 993d f47f de3b 3945 91bd
000003c0: 504a 7bbf 1db2 043f b368 383c 5ee7 67bd
000003d0: 4e89 01be 60d4 1abd 6cf0 8bbd 73d1 dd3d
000003e0: af8c 92bd 479a 0c3d e14c d63d 3510 2abd
000003f0: 0a98 35be 9b1e aa3c 2d37 783d 193e 6dbd
-0.23892507 0.21286917 -0.049294855 0.0772457 0.041612227 0.038815964 0.10969664 0.08639801
-0.06539027 0.10745691 0.027583929 -0.046436947 -0.082117006 -0.02005684 -0.035784736 0.015417164
0.06513787 -0.013616932 0.056956403 0.041207813 -0.044568792 -0.20967767 -0.3276326 -0.29723695
0.19312233 -0.08943106 0.016608482 -0.0902162 -0.40635467 -0.30326116 -0.0030707056 -0.18398304
-0.05806326 0.16793215 0.16935942 -0.113350146 -0.1380889 -0.037988577 -0.009263241 0.1093859
-0.033860948 -0.08541106 -0.0044580093 -0.20719448 0.17500474 0.45402855 -0.041172367 -0.052934136
0.28227144 -0.09232424 -0.08495692 0.047034353 0.39487252 -0.07200342 0.022933142 0.01676421
-0.040893916 -0.043059476 0.036615543 -0.028377447 -0.0024517118 -0.1387228 0.05263406 -0.016956206
-0.06467998 0.00019930526 -0.00051836163 0.33332473 0.10319169 0.0812925 0.12999694 -0.16421154
-0.020770118 0.053251423 0.23856129 0.19094992 -0.020333335 -0.008342568 -0.046886794 0.04760759
-0.2879117 0.23039833 -0.2025474 -0.09400892 0.025810001 -0.0041905534 -0.057462182 -0.07589187
0.05228308 -0.041723676 -0.09612537 -0.05804765 0.077809356 -0.02838383 0.0012213225 -0.037705332
-0.07968089 0.05671857 -0.07992478 0.0015184984 -0.0506995 -0.39892563 0.025421508 -0.27610704
-0.3715743 0.15035188 0.014362258 -0.06404538 0.2814906 -0.8081119 0.012630107 0.32459846
-0.36600065 -0.03237122 -0.0992955 -0.026060369 -0.005140907 0.016699553 0.07265572 0.038585603
-0.01191781 0.17285144 -0.03267715 -0.07350236 -0.012211095 0.4893576 -0.3376749 -0.10711496
0.1816626 0.03796582 -0.079367526 0.0002065481 -0.13530989 -0.03308346 0.073188014 0.06814108
0.010287699 0.07749416 0.033392478 0.07975761 0.016110353 -0.07588668 0.02219279 -0.05372282
-0.13222995 -0.047185294 0.09082947 -0.06188418 0.0012737958 0.17026958 0.11886762 0.25154772
0.060996704 0.114189304 0.15034652 0.23426227 0.1603874 -0.015608096 -0.005440144 -0.1643072
0.6772477 -0.3904 0.124108724 -0.042661674 -0.05462385 -0.03301354 -0.038390476 -0.028712438
0.028063124 0.10428025 -0.010740945 -0.10039902 -0.13244419 0.07577891 0.07004109 -0.062201392
0.020239256 -0.10585958 0.11301777 0.046818573 0.03391668 0.16435899 -0.119221486 -0.3453599
-0.24044573 -0.010767829 0.024968369 0.10605895 -0.24055782 -0.015574221 0.01852685 -0.23224472
0.11601155 -0.051088244 0.03390041 -0.07872681 0.01460032 0.028095908 0.042883497 -0.21312942
0.02459398 -0.2239594 -0.012970512 0.18197536 0.04392322 0.029460812 0.16290021 -0.13791747
-0.023700176 0.06085168 -0.009175386 -0.4217363 -0.12223148 -0.06823844 -0.14302534 -0.006089693
-0.05488587 -0.028321978 0.051795334 0.1156647 0.02691885 0.050945736 -0.09743637 0.074647605
-0.028346475 0.08692845 0.037105933 0.09819808 0.15165584 0.24841055 0.13673407 -0.17303963
-0.17505881 -0.17616495 0.032822113 0.08291081 0.07049334 0.07493595 0.0067901555 -0.07093281
-0.98160267 0.5183428 0.011255431 -0.056617133 -0.12650034 -0.037800193 -0.06832966 0.10830965
-0.071557395 0.034326818 0.10463882 -0.041519362 -0.1773378 0.020766547 0.060599495 -0.05792055

bias f4 [256]
00000000: 74ec c6bd 3881 a63d cf92 ee3c 1316 1a3e
00000010: 83cc 503d f3a7 543d e96a 35bb 5218 acbd
00000020: 7a58 4c3d bea7 30bb b251 1ebd 549e 29be
00000030: 0ccf 283e cb9f dcbd 841c 04bd 1201 5e3c
00000040: 0617 95bd 128d 933d ba55 153e bfc3 babd
00000050: 0820 e53c e91d 33bc 943d e13d de70 5cbe
00000060: e627 2b3c e069 ac3d 1a88 4a3e 468e e53c
00000070: a98f 323e 4094 d2bd cb9f e3bc 6e5e 84be
00000080: 8a68 003d caa6 6e3d f75f 3abc 00c1 36be
00000090: d2ec bfbd 9918 92bd 727b d5bd f277 593d
000000a0: 3d90 af3d 5b24 46be f241 d4bb 9c41 1e3e
000000b0: 4fdd 9f3d 1b9b 8bbc 0a46 cf3d a1c1 1e3e
000000c0: 34a7 b7bd f511 ecbd 468a dc3d 8f76 7dbd
000000d0: a26b 3e3c 0da2 74bd f00a 11bc ad7f b93d
000000e0: 0f41 91bd d24e 823d 1d67 acbd bbb3 4c3b
000000f0: 1f10 5d3c 1420 693c 7713 e53d b3a2 d63d
00000100: c0e7 04be f7fa 3a3d b0e3 1e3e 6c8d 3dbe
00000110: 1bad 803d 08a6 9e3d a08a 9bbd 1412 013c
00000120: 8e92 67bb 8fbb fe3c 55d7 0a3e 848b 78bd
00000130: 509b 66ba 6bfb 5c3d 1029 e9bd dd79 9c3d
00000140: 8f8b d2bd 0bb5 213e f036 b2bd aa7d ca3d
00000150: 30d8 b93d c963 9a3d cd46 4ebd 117e c1bd
00000160: 74f2 923d 3594 a3bd f99f 1b3d bdfa 2ebc
00000170: 4a29 c0bd 7cab 8a3d cc74 36be d8f3 0fbe
00000180: 44f0 98bd d0a3 17be aaf2 d93d 6bea c23d
00000190: 6180 bc3d 5fda 8e3d 82a1 dbbd cb3a 04be
000001a0: 54a8 853d 32b3 0dbe eb2f 473c e8eb 08be
000001b0: 2273 eb3b bacc 8dbd 57a3 3b3c 2e7b e4bd
000001c0: e51e 263e f189 273e 2704 b1bd f759 dd3d
000001d0: 384a cdbc 1268 0dbe aeb0 26bb 83bf 2bbe
000001e0: e6ab 9e3d c4b5 ef3b 65b3 433d 09dd c83d
000001f0: dca9 2e3d 8c66 e0bc 6d49 8ebd d80c 783d
00000200: 7d86 53bc a1e4 da3c eac7 ba3c 0146 cb3c
00000210: a93b 05be f295 c7bd b803 0bbe 738c 423e
00000220: 954d ac3d ebef 273e f666 4fbd f681 2ebd
00000230: e43f aebc 66bc ed3c ba86 3f3c bd1d 35bd
00000240: ec34 f8bc f062 8abd e904 67bd 4324 6ebd
00000250: 864f dc3c b194 94bd 9c78 973d d15f 0a3e
00000260: bc01 3cbc 2194 07bd 80d9 57bd 070a d73c
00000270: d5e9 e43d 41be b9bc c590 14be cc19 8c3d
00000280: 6627 09be f09c 87bd 3206 873d 67b5 063e
00000290: c2b2 db3d a742 323d ce98 a0bd 7c30 1cbe
000002a0: fef1 833d 336f a2bd 7338 33bc f2d8 3b3d
000002b0: 237c 2bbd f37e 953d 3eaf 433c baa9 f13d
000002c0: 8138 24be 0645 74bc cb18 d03d bf0f d93c
000002d0: 0d6d 6dbd 044d 10bd cb75 9ebd 33d9 71bb
000002e0: c729 5fbd e6e9 5db9 aed9 3ebd 03c5 1a3d
000002f0: 4da4 863d 5953 d73b 73ee 4ebd b08c a4bd
00000300: 90ed 0e3c 825b c9bd 7e5f f5bd 6fed 98bd
00000310: ee4a 0fbe 1606 1ebb 0d9a 963c 3ee9 dcbd
00000320: 262d e2bd 1854 e33d 0e15 57bd 6c9f 89bd
00000330: 7ea8 863d 49ab 88bc f340 013d e927 843b
00000340: e205 363e 0717 073c 8e98 91bc 87ed ccbd
00000350: e650 3b3d 9f52 c8bd 91d7 6ebd 19a3 433d
00000360: 4f4b 933d 4d25 80bd 3dff 07bd 5588 6a3d
00000370: 18ef 91bd 423e 02be a4fd 8a3c b457 263d
00000380: d0c1 39bd 6af2 efbd bafc 87bc ca35 84bd
00000390: 6d0b 91bd 851d 2d3e 99b3 babc 97a1 083e
000003a0: 743d cbbb 5164 e33c 1f33 4cbd f12e 5dbd
000003b0: 0eb7 613d 42f2 dfbd c0de c93b 5db9 d33d
000003c0: 677a 03bd 6440 69bd a254 f8bc fdd6 53bd
000003d0: 92ba b73d 60f6 0d3d c826 55bd 01fc 80bd
000003e0: 7330 d2bd e3a3 42be 1b46 573d 1411 5ebd
000003f0: 3c9d bfbd 4278 5ebc ec95 25be e4f4 163d
-0.097130686 0.08130115 0.029122738 0.15047483 0.050976288 0.05191798 -0.0027682132 -0.08403076
0.049889065 -0.002695545 -0.03865213 -0.16564304 0.16485232 -0.107726656 -0.032253757 0.01355006
-0.07279782 0.072046414 0.14583483 -0.09119367 0.027969375 -0.010932424 0.10998073 -0.2152743
0.010446524 0.084186316 0.19778481 0.028021943 0.17437615 -0.10282183 -0.027786156 -0.25853294
0.031349696 0.05826453 -0.011375419 -0.17847061 -0.09371342 -0.07133598 -0.10423936 0.053092904
0.08572433 -0.19349806 -0.006477588 0.15454715 0.07805883 -0.017041733 0.10120781 0.15503551
-0.08967438 -0.115268625 0.10768561 -0.061880644 0.011622341 -0.059724856 -0.008852705 0.09057555
-0.07092487 0.0636269 -0.08418105 0.0031235057 0.013492613 0.014228839 0.11185353 0.10480251
-0.1297903 0.045649495 0.15516543 -0.1851098 0.06283017 0.07746512 -0.075948 0.007877845
-0.0035335156 0.031095294 0.13558705 -0.060679927 -0.0008796947 0.05395071 -0.11384785 0.07640431
-0.10280525 0.15791719 -0.08701885 0.0988725 0.090744376 0.07538564 -0.05036049 -0.094478734
0.071751505 -0.079872526 0.03799436 -0.010679898 -0.09382875 0.06770989 -0.17817992 -0.14057863
-0.07467702 -0.14808583 0.106419876 0.09517368 0.09204174 0.06975245 -0.107241645 -0.12913053
0.06526247 -0.13837889 0.012157421 -0.13371241 0.0071853558 -0.06923814 0.0114525175 -0.11156307
0.16222723 0.16361214 -0.0864337 0.10808175 -0.025059804 -0.13809231 -0.00254349 -0.16772275
0.07747631 0.0073153693 0.047778506 0.09807784 0.04264246 -0.027392648 -0.069475986 0.060559124
-0.0129104825 0.026720347 0.022800405 0.024813654 -0.1301104 -0.09745397 -0.13575637 0.1899889
0.08413235 0.16400115 -0.0506353 -0.04260441 -0.0212707 0.0290205 0.011689836 -0.044217814
-0.030298673 -0.06757152 -0.056401167 -0.05814005 0.026893388 -0.07254923 0.07396051 0.13513114
-0.011475023 -0.03310025 -0.05269766 0.026249899 0.111774124 -0.022673728 -0.1450835 0.06840858
-0.13393936 -0.0662173 0.065929785 0.13155137 0.10727455 0.043520596 -0.07841645 -0.1525287
0.06442641 -0.07931366 -0.0109387515 0.045861192 -0.041866433 0.07299604 0.011943636 0.11799951
-0.1603718 -0.014909035 0.10160979 0.026496766 -0.057965327 -0.035229698 -0.07737311 -0.0036903142
-0.0544832 -0.00021163336 -0.046594314 0.03778554 0.06574307 0.006571215 -0.05052037 -0.080346465
0.0087236315 -0.09831907 -0.11981104 -0.07467162 -0.13993427 -0.0024112514 0.018384004 -0.10786675
-0.11043768 0.11100024 -0.052510314 -0.067198604 0.06575106 -0.016683238 0.03155608 0.004033078
0.17775682 0.008245236 -0.017772939 -0.10006242 0.045731448 -0.09781384 -0.05831105 0.047762964
0.07192098 -0.062571146 -0.0332024 0.057258923 -0.07125682 -0.12719062 0.016966648 0.040610984
-0.04535085 -0.11716159 -0.016600002 -0.06455572 -0.070822574 0.16905792 -0.022790717 0.13342892
-0.006202394 0.027757796 -0.04985344 -0.053999845 0.055106215 -0.10934879 0.006160587 0.103380896
-0.032099154 -0.056946173 -0.030313794 -0.0517187 0.08971132 0.03465879 -0.052038938 -0.06298066
-0.10263147 -0.1900783 0.052557092 -0.054215506 -0.09356162 -0.013578476 -0.16170472 0.03685464

weight f4 [128, 256]
00000000: 7dd0 2dbe 5e5d 183d 20f6 c6bc d8a8 073e
00000010: cdd3 b33d 6303 d33c 60e0 6c3c 8f6d 8ebd
00000020: 2480 adbd 01f8 ea3d 99df 9dbd a603 bbbd
00000030: ee9b 63bd da72 a23d 4997 263e d3ac 08be
00000040: e524 d9bd 80a0 aebd c541 babc 02f4 0b3e
00000050: 46fa 46be fc1c dfbd cc4a 25bd 1e56 a6bd
00000060: 0ab6 07be cc8a 0cbe ae27 e83b 65ca 72bd
00000070: 4a6b 5e3d b422 c13d ad2c fd3d acd3 3fbd
00000080: ecff ef3d e747 bf3b 55c8 203e 9d44 8c3d
00000090: 842d 6abd 12c4 0f3e caf5 733d 66b4 983d
000000a0: b0dc 133d f393 ccbc dd00 16be bde4 9fbd
000000b0: 17f6 b4bd a059 263d 0414 9e3d c9c4 273d
000000c0: 3785 963d 816a 9b3c ce88 a2bd 2ace 86bc
000000d0: 0056 ff3c cbb6 e8bd a607 4e3d f9bf f0bd
000000e0: 2f81 37be 71e3 d03d 1823 e53d 536b 01be
000000f0: 7e4f 5ebd ef00 d83d 8ee7 9d3c f6a8 0fbd
00000100: a341 a5bd 33df 823c e352 b9bd e790 873d
00000110: 6bd1 123d 1285 9f3d 44f2 5f3d 5c1c c03c
00000120: c7e7 c73d bf56 10bd 22f7 c43d 44c4 3c3e
00000130: d2b3 d4ba 36a1 47bd cee8 5bbe 6ed2 33be
00000140: 9805 c93d c1c9 83bd a971 163e b15e 0a3b
00000150: db58 3bbd 8b2f 0fbe eef4 03be d518 8bbd
00000160: b757 60bd e842 8fbc 0567 9cbc 8e10 a0bd
00000170: 5803 5dbc a2ae 113d 274f d7bc 6fd0 ba3d
00000180: 9bab df3d d988 553e 1012 d03d 6979 b0bd
00000190: b0af 973c e08e c33d c200 56bd eff2 033d
000001a0: 025f 76bc d1b1 dfba 02f0 9c3c 2556 44bc
000001b0: 019a 863b 431b d4bd 744c d83c 9717 9c3c
000001c0: 2386 f23c 205e db3c e913 95bc 5204 d5bd
000001d0: 039f 073e 027b 983b a13d aebd daa9 643d
000001e0: 3d24 9abd 8000 3fbe 3ca6 583b 7bb4 48bb
000001f0: 944d 3a3d 874f a4bd acc5 5e3d 43a4 32bc
00000200: e54a e33d c1e3 f4bd 81a1 11be ed49 a5bd
00000210: 8682 d03d 369a 91bb ad95 e3b8 c159 81bb
00000220: 98ad 433d 8dd7 10be 82a3 2c3d 3e4d 1abd
00000230: 7ab5 b2bd c6c1 a23e 3e83 c7bd 5807 cdbd
00000240: 2832 9c3d 139d 573c 0574 11bc 8e0b 2b3e
00000250: 966b 803d ff70 82bd 4b2c a9bc 9a04 a3bd
00000260: a58c 1cbd 2f20 4dbe cf0b 933c dd26 dabd
00000270: 23ca 8cbd 6931 9d3d ee2a 593d 71c7 883c
00000280: 0487 c93d ece8 5b3d a84f 0ebd fecf 60bd
00000290: b8e6 a9bc dd39 633e 7ea3 4d3d 8e4e 53bd
000002a0: dfbb 70be 7187 673d c8ea 57bd 5470 123d
000002b0: 03a6 cc3d c5bb 563c faa6 ea3c 4007 a03d
000002c0: 523b ddbc ed07 1abe 7570 60bd f2ee ba3a
000002d0: 16f5 c6bd 8670 ec3d 8ff9 a73d bf8c a03c
000002e0: dded 043d 879b 7d3d 633c 343c 304a 783d
000002f0: 4dfb 57bc ad12 cf3c 4001 72bd e4c6 bdbc
00000300: 17cf 5a3b 229f d93d 3817 2c3d e667 42bd
00000310: d587 053e 528e ee3d e842 11bc 0643 c8bd
00000320: 2203 933d 78bf 1cbe e115 7a3e 6e0b 873d
00000330: 7910 c6bd 947b a83b 9a78 92bd 166c 063d
00000340: 08a3 b0bd 1e98 10bd cee9 dfbd f91b 90bd
00000350: 7c8b 053d b375 023d dfba 903c 9fee 6ebd
00000360: 5957 9d3c e605 05be 10ea cabd 0a31 d9bd
00000370: 5c5a ac3d 2fe2 61bb 7558 03be 4a4c c63d
00000380: a0ba ab3d 229d e73c e6e8 383e d003 1ebe
00000390: c885 02be 4956 22be 71c6 a8bd 5b75 65bd
000003a0: 461a 293e 7acc 21bb e4a6 17bd 0cf3 413d
000003b0: 5ef0 763d 66e8 f13b be0b 283d 6358 42be
000003c0: d3e5 22be 95d7 2d3d ff1f c1bd c32e 0f3e
000003d0: 6725 a03d 6e74 d6bd 7c6d 5bbe cf84 2d3e
000003e0: 32c0 14be 8fcd 663d 8b5b d4bc 3465 17be
000003f0: 570d fd3d 06a9 0cbd da7d d43c 36cb aebd
-0.16974063 0.037198417 -0.024287283 0.13248003 0.08780632 0.02575845 0.014457792 -0.069544904
-0.084717065 0.11473084 -0.077086635 -0.09131555 -0.055568628 0.079320624 0.16268648 -0.13347177
-0.1060274 -0.08526707 -0.02273644 0.136673 -0.19431409 -0.108942 -0.040354535 -0.08121894
-0.13253036 -0.13724822 0.0070848083 -0.05927505 0.054301538 0.09430447 0.12362037 -0.046832725
0.11718735 0.005837429 0.1570142 0.068490244 -0.057172313 0.14039639 0.059560575 0.07456283
0.036099136 -0.024972891 -0.14648767 -0.078073 -0.088360004 0.040612817 0.077186614 0.040959153
0.073496275 0.018971683 -0.0793625 -0.016455729 0.031168938 -0.1136299 0.050300263 -0.11755366
-0.17920373 0.10199631 0.11188334 -0.12638597 -0.05427503 0.10547053 0.019275453 -0.035073243
-0.0806916 0.01597557 -0.090490125 0.06619435 0.035844248 0.07789053 0.054674402 0.023451023
0.09761005 -0.035238978 0.09617449 0.18434244 -0.0016227907 -0.048737727 -0.21475527 -0.17560741
0.0981552 -0.06434966 0.14691795 0.002111357 -0.045739036 -0.1398298 -0.12886402 -0.06791846
-0.05477115 -0.017487958 -0.019092092 -0.078156576 -0.013489567 0.035566933 -0.02628286 0.09121787
0.10921403 0.20852984 0.10159695 -0.08616907 0.018516392 0.095487356 -0.052246816 0.0322141
-0.0150373 -0.0017066543 0.019157413 -0.011983429 0.004107714 -0.10356762 0.026403643 0.019054217
0.029604977 0.02677828 -0.01819797 -0.10401215 0.13244252 0.0046533355 -0.085078485 0.055826046
-0.07526443 -0.18652534 0.0033058068 -0.0030625153 0.04548414 -0.08022981 0.054387733 -0.010903421
0.110982694 -0.11957503 -0.14221765 -0.08070741 0.10181145 -0.004443432 -0.00010852083 -0.003947467
0.047772974 -0.14144726 0.04214812 -0.03767132 -0.0872602 0.31788462 -0.09741829 -0.10011166
0.07626754 0.013160008 -0.008877759 0.16703627 0.062705204 -0.063692085 -0.020651003 -0.07959862
-0.038220067 -0.20031808 0.017949967 -0.10651944 -0.06874492 0.0767544 0.053019457 0.016696664
0.09840205 0.05368893 -0.034743935 -0.054885857 -0.020739898 0.22190042 0.050204746 -0.051588587
-0.23509167 0.05652565 -0.05271414 0.035751656 0.09992602 0.013106291 0.028644074 0.07813883
-0.027005825 -0.15042086 -0.054794747 0.0014261885 -0.09714715 0.115449 0.082018964 0.019598363
0.032453407 0.0619159 0.011000725 0.060617626 -0.013182473 0.02527746 -0.059083223 -0.023166128
0.0033387595 0.10626055 0.04201433 -0.047462367 0.13040097 0.11648239 -0.008866049 -0.09778409
0.07178332 -0.15307415 0.24422409 0.06593977 -0.09671111 0.005141685 -0.07151909 0.032817923
-0.08624846 -0.03530132 -0.109332666 -0.07036585 0.032603726 0.031850528 0.017667232 -0.058333036
0.01920669 -0.12990531 -0.09907925 -0.106050566 0.08415672 -0.0034467091 -0.12826712 0.0968252
0.08385205 0.028273169 0.18057594 -0.15431142 -0.12746346 -0.15853228 -0.08240975 -0.056020122
0.16513929 -0.0024688528 -0.037024394 0.04735093 0.060287826 0.0073824404 0.041026823 -0.1897903
-0.15907983 0.042441923 -0.09429931 0.13982682 0.07819634 -0.10471426 -0.21428484 0.16945194
-0.14526442 0.05634838 -0.025922557 -0.147847 0.1235606 -0.03434088 0.025938917 -0.08534853

bias f4 [128]
00000000: 14a6 0cbd ba9b 253d 0fc6 0bbe cf5e 48bd
00000010: 7657 513d 6c41 d2bc c289 c6bc 77d2 ee3c
00000020: f244 23bc 3bd7 21bc 9aa6 253d 0df2 87bd
00000030: 38ef debd 5162 06bd f375 53bc 1b31 c1bd
00000040: e7f1 84bd 3d4b 52bd caed 99bc 06a7 09be
00000050: 4a82 ad3c aaa7 d2bd 679c 59bd 4462 a1bd
00000060: 3bec 80bd 65df 803d 2e51 d93c 68cd 4abd
00000070: 01a1 67bd b1c6 cdbc 26c4 f2bd ad6b 07be
00000080: a436 b5bd 4781 eebd c6de 04bd b061 a0bd
00000090: 393e 043d c0c7 4f3c 5237 42bc 5c7f 69bb
000000a0: 6f49 d53c d474 44bb 9b04 a3b9 384f 6ebd
000000b0: aecd 1abd 554d 6cbd 2cc8 323d c126 95bd
000000c0: ea9f 62bd edfb c8bd 5668 22bd 4290 f4bd
000000d0: 6947 57bc 4c0f 66be 7c64 cc3b 4fc3 9bbd
000000e0: bcbf e13c 0f50 a5bd cb96 9c3c 87f3 84bc
000000f0: ebaa 06be e84c 89bc 6c70 c8bc 98d8 0bbe
00000100: 29db 003c 8d99 3fbc ade2 8cbd 0629 79bd
00000110: 0be6 083c d742 7a3c 5b52 36be 67d8 703c
00000120: a59b 9fbd 5241 34bd 1ccd 8ebd 6d94 9cbd
00000130: 90b5 95bd 9ed2 aabd 7fb4 923c 7079 e9bc
00000140: 59b3 e13b 20dc 0abe 9f2e 8ebd 4a21 e4bd
00000150: 369a bcbd 1486 d4bd bfdb 53bd 5e0f ad3b
00000160: 96fb a4bc 1f5f 993d ae69 edbc b687 a3bc
00000170: f7f9 93bd ff41 84bd 5d41 fdbd 474c 24bd
00000180: 8f2e ddbc 9ca2 c6bb 196c 603d 4f82 a4bd
00000190: d447 9f3c b66c a6bd 0f4a 93bd deba 853b
000001a0: f7cc cebd 84de bdbd f370 983d a301 193b
000001b0: a0c9 04be 6106 bdbd b71f b1bd 1e49 32bd
000001c0: 6394 cdbc ee76 8e3c 474e d4bd 82fc c43d
000001d0: 33e1 0bbd 2f8e 8ebd 9491 6fbd 5d4f 94ba
000001e0: e4e3 41bd b36e 0fbe 5e44 efbd 19a2 083b
000001f0: 3eb3 c73c e177 a4bd bd25 88bd 8b39 00ba
-0.034338072 0.040431716 -0.13649772 -0.04891854 0.0511088 -0.025665961 -0.02423561 0.029153092
-0.009965168 -0.009877975 0.040442087 -0.066379644 -0.10885471 -0.032808606 -0.012906539 -0.09433194
-0.06491452 -0.051341284 -0.018790144 -0.1344262 0.02118029 -0.10285886 -0.053127673 -0.07880071
-0.062950574 0.06292609 0.026527967 -0.049512297 -0.05655003 -0.025119158 -0.118538186 -0.13224669
-0.088483125 -0.116457514 -0.032439016 -0.078311324 0.032285903 0.012681901 -0.01185401 -0.003562889
0.026035992 -0.0029976862 -0.00031093214 -0.058181018 -0.037793808 -0.057690937 0.04364793 -0.07282782
-0.055328287 -0.09813676 -0.039650284 -0.119415775 -0.013139584 -0.22466773 0.0062375646 -0.076056115
0.027557246 -0.080719106 0.019114872 -0.016229404 -0.13151138 -0.016760305 -0.02446767 -0.13656843
0.007864752 -0.011694324 -0.068791725 -0.06083014 0.008355628 0.015274725 -0.17804854 0.014700032
-0.07793359 -0.044007607 -0.06972715 -0.076454975 -0.07310021 -0.08340953 0.017908333 -0.028500289
0.006887835 -0.13560534 -0.06942486 -0.11139162 -0.09209101 -0.10377136 -0.051723238 0.005281373
-0.020139497 0.07488846 -0.028981056 -0.019962173 -0.072254114 -0.064579 -0.12365983 -0.040111806
-0.02699974 -0.006061865 0.05479059 -0.08032667 0.01944343 -0.08126204 -0.0719186 0.004081114
-0.10097688 -0.09270957 0.07443418 0.0023346923 -0.12967539 -0.09229732 -0.08648627 -0.04352676
-0.02509517 0.017390694 -0.10366493 0.096184745 -0.034150314 -0.06960713 -0.058488443 -0.0011315156
-0.047336474 -0.14007072 -0.11682962 0.002084857 0.024377462 -0.080306776 -0.06647823 -0.0004891387

weight f4 [128, 128]
00000000: c5f0 d83c 9662 173c 832c 7a3b 62cc 7ebb
00000010: 42a7 e23d 1907 fd3d c89b 3d3d 99d1 113d
00000020: 920d 013e 0dfd 58bd 96d0 debc 1847 0b3e
00000030: 634e 863d 59c1 ea3c 27ad 68bd 37e6 95bd
00000040: ed36 31bd 2626 e13c 1c6e 913d 02af f9bc
00000050: 387a aa3d 8773 8a3d 5819 ec3c 9952 1b3d
00000060: 4004 ee3d 55ab 763a 19ef b03d b3db 41bc
00000070: b14f 3f3d 0433 9c3d 5efd 35bd c51f c23b
00000080: 17a8 d8bd 1785 853c 8e07 21be c26b bebc
00000090: b794 033e 9e4a 55bd 0292 c23d 0de1 883d
000000a0: 2c40 c53d d52e d33c f1c4 61bb a7ed 46bb
000000b0: d299 853c 6970 0d3d 24f2 eebd 5551 16be
000000c0: d992 cc3c 7e33 f9bc 6466 dfbb a757 063b
000000d0: c351 3f3d 458c 883d f347 b63d 18f8 953c
000000e0: 6e6d 223d 86a8 75bd 55aa 83bd 9a5e a33d
000000f0: 8b86 3bbd b23c 37bd 69b6 20bd e610 343e
00000100: 35a7 c23c c9cd b1bd 80c7 613e 7367 34bd
00000110: d771 13bd c77c 8e3d 0d66 74bd 2668 23bd
00000120: ce12 973d ce31 16bd 53fe 073d d24b 993c
00000130: 89b6 b53d 2b60 70ba 47b8 cd3d 96b9 0e3e
00000140: e911 25be bc6d 8ebd 75d7 97bd 809a 103e
00000150: ac7f 20bd 3556 0fbe 7c7a f4bd f7d8 46bd
00000160: be15 913d 8592 7c3a e692 313e 6c09 9e3d
00000170: 0cf1 5b3b ac6a 1f3d 62f6 b83c 1ef5 babd
00000180: 4785 bd3b f038 88bd 6d20 78bd f154 b93d
00000190: 8d91 13bd 278c abbd 6a43 163d 839f 4bbd
000001a0: a83f 423d 8840 ed3d 415d ef3d 5c27 433d
000001b0: 73fb 033e 3a29 99bd c54f cebd d9c8 663b
000001c0: f0fb 94bd 4f1d 973d ad57 bd3d 12c0 44bc
000001d0: 0520 543d d577 603c e445 5ebd c0cc 7e3d
000001e0: 0a8c da3d 0723 8abd 1378 263d 4b32 94bd
000001f0: c1a7 88bd 3dcc 163e 561d 7fbd 1d0b 11bd
00000200: e782 963c 8023 bbbd d3ea 3a3d 3f3e d93d
00000210: 6230 b03a 3bfc 13bd 01ef 023d dc63 8bb9
00000220: f518 06bd 9c43 91bc 1334 913d 5507 c43c
00000230: e4c6 a93d 8641 8cbc 7b64 1b3d 3f52 1abd
00000240: 7a85 573d d875 6c3d b427 abbc 5a31 8fbc
00000250: 98fe 46bd 0749 ad3d 4593 5dbd 385d 8c3d
00000260: df8c 7f3d 272e 05bd a50c bb3a fa3b 77bd
00000270: acad 073d 1924 49bd 693e fabc eb9c b2bc
00000280: 7f6e bdbd 3faa 02bd 0ff0 023d 22cb be3d
00000290: a4df aebd 4642 623d 661b 7cbc 20cd b2bd
000002a0: aae6 6abc b7cd 24bd 0d43 39bd c34e 82bc
000002b0: 1a80 d5bc 6bc2 173d 7f5a 5f3b 054c d3bc
000002c0: 0028 bb3d e548 58bc dfdd 4c3d ec47 bdbc
000002d0: b7cf eebc 6e48 703d 8e8c 91bd ba35 8abd
000002e0: 206e dc3c 37a9 7d3c e09f ad3c 173d 933d
000002f0: 89b5 673c bcdc a63d 5db2 aa3c 4b68 243d
00000300: 49af b0bd 1ae5 093d 44dd 873c d1e8 883d
00000310: 49af d7bb 6c33 7c3d 8aed 003d 8d47 3dbd
00000320: 844d a9bd e77d 123c 1d65 5e3d 07bd 07be
00000330: be7c 493c d39e d6bc 2e95 e5bc fc7c 833d
00000340: a4dd ffbc 0aae c1bc 3574 cb3d a632 1abd
00000350: 6797 6abd 38b5 acbc a167 93bc a042 603c
00000360: 1a8c c1bc cee2 01bc ae09 6c3b cee3 4c3d
00000370: ae68 853d fb3e b9bc b88b 433d 813a 513d
00000380: c45c 1dbd dd7c 323d fa58 a83d 23df 3cbd
00000390: 418f 28bd b666 b5bd 0846 6fbb c734 b4bc
000003a0: 7678 11bc 1889 ad3c 1bc7 ea3c 5d74 6a3d
000003b0: b494 b23d 03e0 a2bd efd1 a6bc 338a c53c
000003c0: f79e 96bc 245e 443c ddf5 293d 73a8 573c
000003d0: 1708 2cbd 1559 10bd 0e34 193d 5b4a d63b
000003e0: bef1 9cbd 4810 82bc 4670 82bd 96ad 3bbd
000003f0: 4bf9 e13c 0ba9 4dbc 2513 933c 11f7 a7bc
0.026481995 0.009239813 0.0038173504 -0.0038879146 0.11067058 0.123548694 0.046291143 0.03560028
0.12602833 -0.052975703 -0.02719907 0.13601339 0.0655792 0.028656648 -0.056805756 -0.073193006
-0.043265272 0.02748401 0.0710108 -0.030478958 0.083240926 0.06760316 0.028820679 0.03792057
0.116219044 0.0009409686 0.08639354 -0.0118321655 0.04670686 0.07626918 -0.044431083 0.0059241974
-0.105789356 0.016298814 -0.15725538 -0.023244742 0.12849699 -0.052073114 0.09500505 0.0668355
0.096313804 0.025779167 -0.0034449662 -0.0030354054 0.016308699 0.03453103 -0.116672784 -0.14679463
0.024972366 -0.030420061 -0.006817626 0.0020499022 0.046708833 0.06667379 0.08900442 0.018306777
0.03965514 -0.05997517 -0.06428973 0.07977028 -0.045782607 -0.044735618 -0.03923646 0.17584571
0.023761371 -0.086818285 0.2204876 -0.04404397 -0.035997238 0.06957393 -0.059667636 -0.039894246
0.073766336 -0.03666859 0.033201527 0.018712912 0.088727064 -0.00091696036 0.10044914 0.13937983
-0.16120113 -0.06954524 -0.07414142 0.14121437 -0.039184257 -0.13997729 -0.119374245 -0.048546758
0.07084225 0.000963487 0.17341194 0.07716641 0.0033560423 0.03892009 0.022578422 -0.09128784
0.00578371 -0.06651485 -0.0605778 0.090494044 -0.03602748 -0.08376341 0.036685385 -0.04971267
0.04742399 0.11584574 0.11687709 0.047644958 0.12888889 -0.074785665 -0.100738086 0.003521493
-0.07274616 0.07378637 0.092452385 -0.012008684 0.05178835 0.013700445 -0.05426587 0.062206984
0.106712416 -0.06744962 0.040641855 -0.07236155 -0.066726215 0.14726348 -0.062283836 -0.03541099
0.018372966 -0.091376305 0.045634102 0.106075756 0.0013442154 -0.036129218 0.031966213 -0.00026586547
-0.032738645 -0.017732434 0.070900105 0.023929277 0.082898885 -0.017121088 0.037937623 -0.037676092
0.052617528 0.057729572 -0.020892955 -0.017479587 -0.048582643 0.084611945 -0.054095525 0.068537176
0.062390205 -0.032514717 0.0014270736 -0.060359932 0.03312461 -0.04910669 -0.030547338 -0.02180334
-0.09249591 -0.03190064 0.03196722 0.09316088 -0.0853875 0.055238985 -0.015387392 -0.08730531
-0.014337221 -0.040235247 -0.04522996 -0.015906697 -0.02606206 0.037050646 0.003408104 -0.025793085
0.09138489 -0.013200973 0.05001628 -0.023105584 -0.02915178 0.058662824 -0.07106887 -0.06748529
0.02690798 0.0154822385 0.021194398 0.07189386 0.014142402 0.081475705 0.020837003 0.040138524
-0.08627183 0.033665754 0.016585 0.06685031 -0.006582175 0.061572477 0.031476535 -0.046210814
-0.08266738 0.00894115 0.054295648 -0.13255702 0.012297807 -0.02619878 -0.028025236 0.06420323
-0.031233616 -0.023642559 0.09934274 -0.03764596 -0.057273295 -0.021082506 -0.01799375 0.01368776
-0.023626376 -0.00792761 0.0036016512 0.05002194 0.06514107 -0.02261304 0.047740668 0.051081184
-0.038418546 0.04357611 0.08220096 -0.046111237 -0.041152243 -0.08857481 -0.0036510248 -0.021997822
-0.008878818 0.021183535 0.028659394 0.05723988 0.08719769 -0.07952883 -0.020363776 0.02411375
-0.018386347 0.0119853355 0.04149424 0.01316272 -0.041999903 -0.035241205 0.03740316 0.0065396256
-0.07663296 -0.015876904 -0.06369071 -0.04581984 0.027584692 -0.01255251 0.017953465 -0.020503553

bias f4 [128]
00000000: 07f4 1b3d 95bd e3bc 4c5f 3c3d d817 a7bd
00000010: c9f6 173d 29cc 2cbd 7e58 b3bd 913b 23bd
00000020: 6933 21bc 51e2 2fbd 901f f2bd 54ac bbbc
00000030: b21f 7abd 943a 833d 7558 963b 6aea 80bc
00000040: 8b21 b1bd 2012 c23b 1494 823c cbda 45be
00000050: 6e2e 2ebd bd42 0dbe 02be 9ebd f693 a73a
00000060: e093 173c df29 05bd 1623 783c b0c3 5b3d
00000070: c9ca b2bd d645 92bd 21b9 23bd 2f70 88bd
00000080: bf0e f3bc a488 1ebd 0317 cebd 7b87 a8bd
00000090: 0d36 2ebc 1c50 223d b2af 38be 2415 bcbb
000000a0: d2bc 803d 917e 6fbd e972 65bc e6ff 063d
000000b0: babf 88bd dbb5 65bc 45bb 10be cfcf bebd
000000c0: ff18 7bbd 940b 8c3d fcc9 69bd 59aa 73bd
000000d0: 643e 8f3b 24d1 e3bc 46c3 12be 6f1d be3c
000000e0: 9c06 133d ea51 8f3c 9038 163d a8d9 f7bc
000000f0: 5ce9 853d afa6 45be 70ae 19be 042d a4bb
00000100: 85e1 2cbd a8c9 19bd 1ee1 473d d067 90bc
00000110: 764c c0bd 6f95 603d fc20 fdbc e73c dfbc
00000120: 9a3a e8bb 3112 d039 02cb aebd 69fb d2bc
00000130: d6a6 903b 045e 4abc 4054 483d be94 8dbd
00000140: 001f 59bd 78e1 27bd d24c 663d 719f 6c3c
00000150: cde6 2f3d 0af8 f1bd 6de0 46bd 3646 62bd
00000160: d30c 293d ae8f d7bd 9b8f cdbd 701f 60bd
00000170: 2f32 ab3c 123a d1bc 4dc7 ea3c 4c98 6abd
00000180: f7dc 91bd f002 7c3a 2154 363d 4732 ebbd
00000190: ed87 0dbe 88c4 cebd 9a9e e33c 0a9d a5bc
000001a0: a45d 40bd 8ebb 463d b534 d4bc 2951 fe3c
000001b0: 8e22 93bd cea0 293d 3ade 1c3d 1dca a3bd
000001c0: 0ab5 90bd 21f7 163c bc76 4d3d 15df 0cbd
000001d0: 061d 963c 6c90 d2bd ca3a 923d b3cc 85bd
000001e0: 5d56 b63c b225 713d f17a 16bd 2a15 bbbd
000001f0: 6052 a13a 239d 2cbd d4fb 653d 356b 293d
0.03807452 -0.02780036 0.04598932 -0.08158845 0.037100587 -0.04218689 -0.08757113 -0.03985173
-0.009838917 -0.04294044 -0.11822426 -0.02290932 -0.061065383 0.06407657 0.0045881816 -0.015736777
-0.08648976 0.005922571 0.01593975 -0.19321744 -0.042524748 -0.1379499 -0.07751085 0.0012785185
0.009251565 -0.032510635 0.015145084 0.05365342 -0.087300844 -0.071422264 -0.039971475 -0.06662022
-0.029670117 -0.03870453 -0.10062983 -0.08228966 -0.010633004 0.03962718 -0.18035772 -0.005739825
0.062860146 -0.058470313 -0.0140044475 0.032958888 -0.06677194 -0.0140204085 -0.14133938 -0.0931698
-0.061303135 0.06838146 -0.057077393 -0.059488628 0.004371451 -0.027809687 -0.14332303 0.023207394
0.035894975 0.017495114 0.036675036 -0.030255154 0.065386504 -0.19301866 -0.15007949 -0.005010249
-0.04220726 -0.03754583 0.048798673 -0.017627627 -0.09389584 0.05483001 -0.030899517 -0.02725072
-0.007087064 0.00039686405 -0.085348144 -0.025754647 0.0044144196 -0.012351517 0.048908472 -0.06913136
-0.05300808 -0.040986508 0.056225605 0.014442311 0.04294472 -0.11814888 -0.048553873 -0.05524274
0.041271996 -0.105254516 -0.10037156 -0.05471748 0.020897953 -0.025540385 0.028659487 -0.057274148
-0.07122224 0.0009613475 0.044513825 -0.11484199 -0.13821383 -0.10096079 0.027785588 -0.020216484
-0.046964303 0.04851871 -0.025904039 0.03104456 -0.07184325 0.04141312 0.03829787 -0.079975344
-0.070657805 0.009214194 0.050162062 -0.034392435 0.018324386 -0.102814525 0.071401194 -0.06533184
0.022257978 0.05887384 -0.03673834 -0.09134896 0.0012307875 -0.042142045 0.056148365 0.041362006

weight f4 [12, 128]
00000000: 4867 5f3c 2d36 18bc 592b 9dbb 8655 63b9
00000010: 2f9d a13c 5e86 f73c bad1 853c 5162 4fbb
00000020: 70c0 5cba 5a57 cf3b 441e 81bb 2428 23bb
00000030: e2b2 c53b b708 123c 4d3a 0c3b ea1f d43b
00000040: 1199 86bd 93e3 243c 48d0 183b 227f b03c
00000050: bfd9 ed3b 836b 82bb 36b8 e9bc 0493 1fbb
00000060: b2a9 843c 4fbf 923c 06dd fd3c e75f 853c
00000070: 040a 803b 183a 9e3c d97d 373c 6a21 74bb
00000080: 6faa f1ba 95fc e63b c53f 14bc 50c3 0ebb
00000090: 4eff f83b 647d 1c3c 8384 b93d 4825 b3bc
000000a0: c3da 8e3c a196 87bb cf6c 773a aeda bebb
000000b0: 707c 683a cf20 07bb 476c 46bd 7dc6 1c3c
000000c0: f980 82bc aba0 09bb 69c7 16bc 4b1f 94ba
000000d0: e963 233b 770b 36bc 0a50 0dbd 618c 823a
000000e0: ff95 8a3c 5c03 af3b d104 9eba fa0a c4bc
000000f0: 525d 993b 5014 7ebd 1209 b73b ab03 4a3c
00000100: 3666 16bd 77d1 0a3c 6017 a6bb 5fbd b3bc
00000110: bea1 0ebd 8d41 a43c 86dd 24bc 4333 3bbc
00000120: 2cf4 6ebb c376 f43b c2bc 083c bea5 f1ba
00000130: 212c 213b ee69 b93c be7d a4bc 6e6b f23c
00000140: de02 6bbb ccbc f1b9 060c 353c 2d3a 4dbb
00000150: 7c0f 0e3d c29c 9cbb 1e1d bcba b4a1 90ba
00000160: 7315 4fbb 91c3 eb3b a25f d13b 909e 28bc
00000170: 3bec f939 2354 c8bb 093a ce3b d9b4 aa3a
00000180: eaca ddbb c543 45b9 b0e9 35bc 3ab4 cbbc
00000190: 4713 b63c 02fd 913a 2295 6bbb f7e2 b63b
000001a0: ba4c 70bc 4c75 cf3a 9cc0 973c 8d2c d83c
000001b0: 210a 9cbb 0f7e 8f3c 6447 653c 164e c7bb
000001c0: 5ca7 d8bb 7bb2 1e3c cf7c 2dbb 4e56 2b3b
000001d0: 4e70 86ba 0e3a 28bd 9e4b 29bc 87f3 d53c
000001e0: c944 c6bb 4cc1 a7bb a0c5 4abd f28c 5cbc
000001f0: 284f ca3b 4d05 0c3c acc1 43bb ba26 28bc
00000200: 4702 a03b 1c71 0bbc 297f 173b 9c5f b2bb
00000210: 1ef6 5f3d 2808 183c d4e2 b9ba 8e52 6a3b
00000220: a6a0 91ba 7f03 14bc 17d7 56bd e27b 193c
00000230: b427 8d3b 4d40 4dba 7eac 00bb 9f24 02bd
00000240: ab68 5b3b cc9b 973a b449 76bb a714 21bb
00000250: 9afa 2cbc 4231 173d bde0 fe3b 435e 37bc
00000260: 93ee d43c 54b8 a13b dab3 8abc 598a 6a3c
00000270: 8b1e 85bc ee80 9ebc df61 c73c 7883 2cbc
00000280: d8cd 49bc 93d8 1b3c ca7c 263b 3f5b 31bd
00000290: eb16 b6bb 4881 a2bc 7acf a9bb f655 c43c
000002a0: 767b eb3b 1ea1 aa3b 35bb b83a 0fa3 26bc
000002b0: 07f7 093c 99c9 0fbb 450f f2bc 3092 133c
000002c0: 6a2e 91bc 5f2d 46bc dec0 823a 6b80 53bc
000002d0: 8911 ec3b d93a 833c 4283 8d3c 6701 b0b9
000002e0: 02fc 6cbb 3150 f53b 41e9 8abb 8a8c 4fbc
000002f0: 0a9f d7bb 61eb debc bc49 143d 2876 0ebc
00000300: 1d89 b4bc d1d2 8c3c 24ac 3cbb a642 c23c
00000310: 9f3b 03bc cdb5 b7bc 2ad3 aabb 18c4 87bb
00000320: 6d3a 97bb 4c0f dcbb 5825 6ebb efbe b2bb
00000330: c427 51bc 18fd 6fbc 44af ef3c 8500 8ebc
00000340: 7b24 c2bc 507d 373b c869 893b afc7 2b3c
00000350: cf2c 0b3c fc01 093c 625d 163c a793 db3b
00000360: b9c0 cbba 09a6 e13c a8ad 153c f196 033c
00000370: 576d 1e3a f476 fcbb 709a 933c e274 89bb
00000380: 61d1 573d 94c2 2a3b e59f 15bc fd77 3c3a
00000390: 427e 3f3c 1856 693c 8a76 633c abe9 fe3b
000003a0: 4adc 2abc 58fa c53b a5e0 313c a853 bfbc
000003b0: 5e69 2fbd 7710 23bc a9fa fa3c ad87 403a
000003c0: 05b0 e23b 4a6e 6dbc 3bf1 ce3a 264a 9b3b
000003d0: 5a81 6bbb 96ac 42bc 8f85 ff3a 70c4 b7bc
000003e0: 452e c73b 887d ad3b e407 373c fbb0 13bc
000003f0: a394 18bc 9275 a2bb 811e 053c 7352 d13c
0.013635464 -0.00929026 -0.004796427 -0.00021680267 0.019728271 0.030215438 0.016335357 -0.0031644295
-0.00084210094 0.006327552 -0.0039403755 -0.0024895752 0.0060332874 0.008913211 0.0021397055 0.006473531
-0.06572164 0.010064024 0.0023317505 0.021544997 0.0072586234 -0.0039801016 -0.028530221 -0.0024349103
0.016194198 0.017913489 0.030989181 0.016281081 0.003907444 0.01931481 0.011199438 -0.0037251362
-0.0018437634 0.007049153 -0.009048407 -0.0021783896 0.007598794 0.00955138 0.09058478 -0.021868363
0.017438298 -0.0041378294 0.0009438516 -0.0058244085 0.000886864 -0.002061892 -0.048443105 0.009568808
-0.01593064 -0.0021000307 -0.0092028165 -0.001130083 0.0024931377 -0.011111132 -0.03450016 0.0009960049
0.016917227 0.0053409766 -0.0012055879 -0.023931015 0.004680314 -0.06203109 0.005585798 0.012329976
-0.03671857 0.008472792 -0.0050687045 -0.021940885 -0.034822218 0.020050788 -0.010062581 -0.011425796
-0.0036461456 0.0074604466 0.008345785 -0.0018436236 0.0024592953 0.022633519 -0.02007949 0.029592242
-0.0035859863 -0.00046107767 0.01105023 -0.0031315193 0.034682736 -0.004779429 -0.0014351939 -0.0011034519
-0.0031598478 0.007194944 0.006389574 -0.0102917105 0.00047668986 -0.0061135455 0.0062935394 0.0013023868
-0.006768574 -0.0001881263 -0.011103079 -0.024866212 0.022225989 0.0011138024 -0.0035947044 0.0055812555
-0.014666731 0.0015827804 0.01852446 0.026388431 -0.0047619496 0.017516164 0.013994072 -0.0060823066
-0.0066117477 0.009686108 -0.0026472097 0.002614397 -0.0010256858 -0.04107099 -0.01033297 0.0261171
-0.0060506803 -0.0051194783 -0.049504876 -0.013461338 0.006173987 0.008546186 -0.0029870076 -0.010263139
0.004883084 -0.008510854 0.0023116565 -0.0054435264 0.054678075 0.009279288 -0.001418198 0.0035754773
-0.0011110499 -0.009034037 -0.05245122 0.009367915 0.0043077115 -0.0007829711 -0.0019634063 -0.031773206
0.0033479135 0.0011566817 -0.0037580552 -0.002457896 -0.010557795 0.03691221 0.0077782557 -0.011191907
0.025992667 0.0049353037 -0.016931463 0.014315211 -0.016249916 -0.019348588 0.02433866 -0.0105293915
-0.012317143 0.009512085 0.002540397 -0.04329991 -0.0055569313 -0.019837037 -0.005182204 0.02396677
0.0071863486 0.005207195 0.0014093878 -0.010170712 0.008420712 -0.002194023 -0.029548297 0.009007022
-0.017722327 -0.012095778 0.0009975692 -0.012909035 0.007204239 0.016019272 0.017274503 -0.0003357038
-0.003616095 0.007486366 -0.004239232 -0.0126677845 -0.006580238 -0.027211847 0.03620313 -0.008695163
-0.022038037 0.017190369 -0.0028789127 0.023713421 -0.00800982 -0.022425557 -0.005213161 -0.0041432492
-0.004615119 -0.0067156907 -0.0036338177 -0.00545489 -0.0127658285 -0.014647745 0.029258378 -0.017334232
-0.023699036 0.0027998276 0.0041935183 0.01048462 0.00849457 0.0083622895 0.009177538 0.006700951
-0.0015545107 0.027544992 0.009135641 0.008031593 0.00060435146 -0.00770461 0.018017977 -0.0041948417
0.052689914 0.002605592 -0.00913236 0.00071895105 0.011687817 0.014241718 0.013883242 0.0077793202
-0.010428498 0.006041806 0.010856782 -0.02335532 -0.042825095 -0.009952656 0.030637102 0.0007344436
0.006917956 -0.014491627 0.0015788445 0.004739064 -0.0035935254 -0.011881968 0.001949476 -0.022432536
0.006078514 0.0052945055 0.011171315 -0.009014363 -0.0093127815 -0.004957863 0.0081249485 0.02555201

bias f4 [12]
00000000: 7dec 183d 6972 9e3d 2933 f43b 1b3f febd
00000010: 1beb ee3b 7dde c2bd 55f3 713d b4db b2bd
00000020: 888e 0fbb 98c9 16be 07ae 093d b31d 5a3d
0.037334908 0.07736666 0.007452388 -0.1241438 0.0072912103 -0.095150925 0.05906995 -0.08733311
-0.0021905024 -0.1472534 0.03361323 0.05325098
