deploy/models/booster_gym_exp_hip/model_7500.pt (torch, 298238 bytes, 8 tensors)

weight f4 [256, 80]
000000 6e a1 43 bf 4c 99 5f 3e d7 23 c9 bc 57 c8 38 3d
       -0.764182 0.21835822 -0.024553223 0.045112934
000010 45 0e 9c 3d 44 01 6d 3d a2 a8 e0 3d 71 f1 b0 3d
       0.07619909 0.057862535 0.10969664 0.08639801
000020 55 eb 85 bd 5e 12 dc 3d b1 f7 e1 3c 27 04 8e 3d
       -0.06539027 0.10745691 0.027583929 0.06934386
000030 a5 e0 b7 bc 7f 53 9f bc b1 e0 19 3c b2 a0 99 3c
       -0.022445986 -0.019448994 0.0093919495 0.018753383
000040 2b cf 0b bc d5 1f 44 3c ba 03 26 3d 10 6b 2e 3b
       -0.008533279 0.01197048 0.040530898 0.0026614107
000050 58 7c 51 3c 35 58 61 3e d1 20 4a bc 4e 6d b5 bd
       0.0127859935 0.22006305 -0.012336926 -0.08858739
000060 75 96 d5 bd 90 57 ea bd 8f 2d a8 3e 4b cd ca be
       -0.10429088 -0.114424825 0.32847258 -0.3960975
000070 60 ad 4d bf 4e 9e aa be e6 cd a5 3e d5 06 02 bf
       -0.80342674 -0.33323902 0.3238365 -0.50791675
000080 55 2e 24 be 96 40 92 3e 88 a6 4e bc 41 1e 63 3d
       -0.160333 0.285649 -0.012612946 0.055448774
000090 6d fc 30 bc ba c8 a7 bd 86 dc 51 bc d2 d5 c2 bd
       -0.0108023705 -0.081925824 -0.012808925 -0.09513439
0000a0 76 be 77 bd 43 37 13 3e b5 fc 1b 3c 28 75 b2 3a
       -0.060484372 0.1437655 0.009520699 0.0013615238
0000b0 85 c2 62 3e b3 15 c8 3d 5e f7 0a 3d e8 09 26 3d
       0.22144516 0.09769764 0.033927314 0.04053679
0000c0 ec 24 13 bd 30 0b e6 3c b5 64 f8 bd 5d db 0e 3d
       -0.035923883 0.028081506 -0.12128583 0.03487717
0000d0 39 d0 4c 3e d3 cd 95 3d 6b fe a4 bd 65 21 ce bd
       0.20001306 0.073146485 -0.08056339 -0.10064963
0000e0 20 33 78 3d 60 b3 bf bd 47 ca dd bc 38 f1 8d bc
       0.06059563 -0.09360385 -0.027073992 -0.017326936
0000f0 dc f7 c4 bc 31 3e 17 be 27 87 77 bd 37 fb 70 3b
       -0.02404397 -0.14769818 -0.060431626 0.003677083
000100 f8 36 de bc e9 a0 f8 3b 7f fa a4 3d b9 20 a9 3d
       -0.02712582 0.0075875414 0.08055591 0.082581945
000110 63 92 8b bd 0f d8 fc 3c b7 df 0e 3d 9a f3 c0 bd
       -0.068150304 0.030864744 0.03488132 -0.09421463
000120 f5 b0 43 3d 55 68 3d 3e 65 2c 41 3e 50 d4 24 3e
       0.04777618 0.18496831 0.18864591 0.16096616
000130 2f 35 8c be 2a c5 5d bd 57 d6 30 bd 52 04 74 be
       -0.27384326 -0.05414311 -0.04317316 -0.23829773
000140 7f 4e 2f bf e6 35 54 be 8c 60 36 be 42 e5 ba bc
       -0.6847915 -0.20723686 -0.17810267 -0.022814397
000150 d7 35 4c 3d 6b 63 82 3c 77 5d 6b bd 32 6d 9b bd
       0.049856033 0.015916547 -0.057462182 -0.07589187
000160 c8 26 56 3d 72 e6 2a bd 61 dd c4 bd de 42 6d be
       0.05228308 -0.041723676 -0.09612537 -0.23170039
000170 6e a0 e6 bd 69 32 82 bd 39 af 06 be 25 11 1e bd
       -0.11261068 -0.06357271 -0.1315278 -0.03859057
000180 ce 75 9f bb 20 16 41 3d b6 ce 53 3d 1c db 29 3b
       -0.0048663383 0.04714024 0.051710807 0.0025917953
000190 29 cd 7c bc f6 77 25 bf e2 c6 b4 be e7 b0 4b 3e
       -0.015429773 -0.6463617 -0.35307986 0.19891702
0001a0 e0 6d e5 bd b2 8e 8e be 58 8c 96 3d 77 ac a8 be
       -0.112025976 -0.27843243 0.07350987 -0.3294408
0001b0 77 a5 da be f9 52 11 bf 93 9e 0b 3d ef a7 c5 3c
       -0.42704365 -0.5676723 0.034086775 0.024127929
0001c0 64 99 c5 be 57 b1 f8 bc ce 85 91 bd 54 92 03 bd
       -0.3859359 -0.030358 -0.07105599 -0.03212197
0001d0 83 17 16 3e e9 12 ad 3d 97 8a 22 bb bd 5a a3 3b
       0.14657407 0.084508725 -0.0024801844 0.004985182
0001e0 91 4d e0 ba 18 df 1f bc eb e6 25 bc 7d b9 13 bd
       -0.001711296 -0.00975778 -0.010125856 -0.036065567
0001f0 6b 98 8f 3e 89 4f 38 3f 88 81 e9 bd 7a 87 ca 3c
       0.28045973 0.7199636 -0.11401659 0.024722803
000200 af b5 98 3e ca d0 76 bb 05 5d 2b bc f4 2c a0 bc
       0.29826114 -0.003766107 -0.010459189 -0.019552685
000210 1b 6c a5 be 96 a2 35 3d 52 3e d0 bd 27 b2 dd bc
       -0.3230904 0.044344507 -0.10168137 -0.027062489
000220 ab 46 b2 3c 74 0c fd 3d dd a3 72 3e ea fe 9d 3d
       0.021762213 0.12355891 0.23695321 0.077146366
000230 59 30 10 3e 4e d9 9d bd 30 27 40 3b c7 72 4a bd
       0.14080943 -0.07707463 0.0029320233 -0.049425866
000240 a1 06 65 bd 12 c0 b3 bc f4 e1 db 3d 28 cd b3 bd
       -0.055914525 -0.021942172 0.107364565 -0.08779365
000250 f2 08 c9 3d c6 52 8b 3e fa 3f 06 3e a0 a1 74 3e
       0.09816159 0.2721159 0.13110343 0.2388978
000260 43 b0 b6 bd cb a3 4b 3e cc 19 aa 3d ae 5c 82 3e
       -0.08920338 0.19886701 0.083057016 0.25461334
000270 44 57 e9 3d 3d ab 58 3d e7 ad 1d 3e 1c bb 89 3c
       0.11393598 0.05289768 0.1539837 0.016812854
000280 1d af 0c bf 80 bd 13 3f 3b 2a 12 3e 65 0d 03 3d
       -0.549547 0.5771103 0.14273922 0.031995196
000290 ea e3 ac bc d6 e0 0c 3d 55 3f 1d bd 59 36 eb bc
       -0.021104772 0.034394108 -0.038390476 -0.028712438
0002a0 a3 e4 e5 3c e2 90 d5 3d ca fa 2f bc 66 2d 8c bb
       0.028063124 0.10428025 -0.010740945 -0.004277873
0002b0 22 68 0b bd a8 6a 72 3c c1 4e 7f bb 89 eb 5c bd
       -0.034034856 0.014795937 -0.0038956853 -0.05393556
0002c0 3a 76 ae 3d b9 28 1d be ba fe 8c 3d 79 49 64 bc
       0.08518644 -0.15347566 0.06884523 -0.013933533
0002d0 f7 ed f9 bc 45 00 a3 3e 83 f2 11 bd d6 bd b0 bf
       -0.030508978 0.31836143 -0.035631668 -1.3807933
0002e0 af 4a 07 3d c8 df 56 3e a0 c8 6d bc 75 96 3a 3e
       0.03303021 0.20983803 -0.014513165 0.18221457
0002f0 da 34 9a be 16 bb db 3e e2 f6 0f 3e 16 68 02 bf
       -0.30118448 0.42916173 0.14059022 -0.5094007
000300 e8 70 f0 3e a7 37 a3 be a5 b6 15 3e ed 9b c8 be
       0.4696114 -0.31878397 0.14620455 -0.39181462
000310 6d cb 18 be 5f 63 30 be 2d b6 85 3c e4 90 f7 bc
       -0.14921351 -0.17225407 0.01632222 -0.030220456
000320 04 68 ea bd 94 6f c7 bd 1c 70 a9 bc 9b 85 1a be
       -0.11445621 -0.09738079 -0.02068334 -0.15090029
000330 98 29 05 3e d3 e3 14 3f f3 9a b8 be 13 e2 d7 bd
       0.13004148 0.5816013 -0.36055717 -0.10541167
000340 ed e7 1d 3f e3 74 cf 3c bb 96 00 3d fb 43 3c bf
       0.61682016 0.02532429 0.031393748 -0.7354123
000350 ec 44 cc 3d e0 9f 99 bd 33 27 89 be 51 07 a6 3c
       0.09974083 -0.07501197 -0.2678772 0.02026716
000360 78 5e b7 bd 4a 91 03 be ab f9 97 3e 0a 1c d1 3d
       -0.08953565 -0.12848392 0.2968267 0.10210426
000370 d4 0d 35 bd 13 bd 97 3c 28 b6 c7 bd f1 40 95 3d
       -0.04420264 0.018522775 -0.097515404 0.07287777
000380 cd bf 85 3d 49 84 e8 3c 8d a6 4f 3d ac d2 ec 3d
       0.06530724 0.028383391 0.050695945 0.1156362
000390 0d 1c 8a 3d de 98 90 bc b1 d4 7c 3e 85 13 a3 3d
       0.067436315 -0.017651018 0.2469051 0.079627074
0003a0 47 08 b1 bd ed 0e 73 be b5 8c a5 3d c9 65 0f 3e
       -0.08644157 -0.23736162 0.08083478 0.14003672
0003b0 77 1f 26 bc 9f 37 8a be ec 3c 87 3d d6 cb a6 3e
       -0.010139338 -0.2699556 0.06603417 0.3257739
0003c0 48 4e c6 bf 6e b3 4b 3e aa a2 ca 3d 4c 57 25 be
       -1.549264 0.19892666 0.09894307 -0.16146582
0003d0 4f f7 cc 3d e0 e7 3d bc 6c f0 8b bd 73 d1 dd 3d
       0.10008108 -0.011590928 -0.06832966 0.10830965
0003e0 af 8c 92 bd 47 9a 0c 3d e1 4c d6 3d 74 3a 87 bd
       -0.071557395 0.034326818 0.10463882 -0.06602946
0003f0 2b 77 c0 be b0 96 40 3d 23 60 1d 3d 83 6b 4f 3c
       -0.37590918 0.047018707 0.03842176 0.01265991

bias f4 [256]
000000 56 ff f8 bd c7 20 9a 3d d6 5f 32 bc 9a 9b 82 3d
       -0.121580765 0.07525783 -0.010887107 0.06377335
000010 b5 c9 99 3d bc a6 60 ba 59 56 01 bb 75 48 b9 bc
       0.07509176 -0.0008569767 -0.0019735305 -0.022617558
000020 40 e8 4b bd 81 61 03 3d 7c fb 5c bc 8a f1 31 be
       -0.049782038 0.03207541 -0.013487693 -0.17377296
000030 ba 1a 30 3e 0a d8 70 bd 71 fe 07 be ce e6 3b 3b
       0.17197695 -0.05879978 -0.13280655 0.0028671506
000040 0e 66 ef bd e6 aa aa 3d d3 b3 eb 3d 92 cc c5 bd
       -0.11689387 0.083333775 0.11508908 -0.09658159
000050 a2 71 94 bc 69 db 35 bb 57 ce 8f 3d cd 67 65 be
       -0.01812059 -0.0027749187 0.07021778 -0.22402878
000060 86 c8 b7 bd 91 96 8a 3d ef 84 36 3e f0 3c a7 3d
       -0.08973794 0.067669995 0.17824148 0.0816592
000070 10 5f 3f 3e 68 87 00 be 3b 14 ce bc 5a bb e5 bd
       0.18688607 -0.12551653 -0.025156131 -0.11217375
000080 79 87 a8 3c b1 2a 35 bd c8 09 a3 3c 0a ae 07 be
       0.02057241 -0.044230167 0.019902125 -0.13249984
000090 3f 5f 5c bd c3 ea 81 bd 88 90 90 bd c9 69 01 3d
       -0.05380177 -0.06343605 -0.07058817 0.031595025
0000a0 f9 f9 75 3d 9c 11 43 be 63 7e a7 3d c8 8e a4 3d
       0.060052846 -0.19049686 0.08178403 0.08035046
0000b0 0e 76 e8 3c 54 df 8f bd c0 38 e2 3d 26 a3 32 3e
       0.028376605 -0.07025018 0.110459805 0.17445049
0000c0 1b 72 ae bd b0 4c 16 be e5 db 00 3e e7 70 ab bd
       -0.08517858 -0.14677691 0.12583883 -0.08371144
0000d0 58 85 a2 bd 39 aa 63 bd a9 04 41 3d 68 e4 89 bc
       -0.079355896 -0.05558226 0.047123585 -0.016832545
0000e0 2c c2 f6 bd 0e b8 8f 3d 2a 17 a2 bd 4f 44 2b bc
       -0.12048754 0.070175275 -0.079145744 -0.010453298
0000f0 25 99 97 3d 6e 11 46 bd ff 07 4e 3e 96 b8 03 3e
       0.07402257 -0.048356466 0.20120238 0.12863383
000100 b0 bf 8a bd 7a 4d 98 bb 42 bc 02 3e f4 67 16 be
       -0.06774843 -0.004647908 0.12767127 -0.14688092
000110 38 09 ef 3b 8e 63 10 3e 1a f2 9f bd 11 39 00 bd
       0.0072948 0.14100477 -0.07809849 -0.031304423
000120 9b 92 62 bd f0 96 3a 3d b9 be 8d 3d 8c 35 db bd
       -0.055315595 0.0455541 0.06921143 -0.10703573
000130 16 0d 6e bd c0 ba a9 3b 83 79 13 be 7d 3d 53 bb
       -0.05811795 0.005179733 -0.14401822 -0.0032232695
000140 bd d5 7f bd da aa d5 3d d0 bf e5 bd 80 bb ff 3b
       -0.062459696 0.10432978 -0.11218226 0.007804334
000150 a3 f1 4c 3d 60 7d a0 3d 9f cb ed bc 0b e5 ba bd
       0.05003513 0.078364134 -0.029027758 -0.09125718
000160 a6 47 67 bd 02 d0 b7 bd 72 7f fe 3c 82 1e f5 3c
       -0.056464814 -0.08975221 0.03106663 0.029921774
000170 29 52 6e bd 2a a4 cb 3d 90 8d 8e bd 56 ef 0d bd
       -0.058183823 0.09943421 -0.06960595 -0.034652077
000180 bd a4 ed bd 80 de 74 be 67 65 bc 3d 99 1e 38 3d
       -0.11603687 -0.23913002 0.091990285 0.044951055
000190 10 7b de 3d 75 bf d4 3d cd 56 00 be de b9 21 be
       0.10863316 0.1038808 -0.12533112 -0.15793559
0001a0 ed 31 b5 3c cb 37 26 be be 16 14 bd 52 c7 1f be
       0.022118533 -0.16232221 -0.0361545 -0.15603378
0001b0 67 59 e5 bc 17 8e 49 bc 16 67 3c bc 13 c1 a0 bd
       -0.027996732 -0.012301943 -0.011499187 -0.07849326
0001c0 98 4d 31 3e 74 7f 00 3e 13 9c 86 bd 0f e2 1c 3e
       0.17314756 0.1254862 -0.065727375 0.1532061
0001d0 43 09 de bc 2a 16 ba bc 2e ab 76 bc d4 3b e4 bd
       -0.027104026 -0.022715647 -0.015055461 -0.11144224
0001e0 48 e6 09 3e cf 59 dd 39 02 eb 9f ba be 79 1a 3e
       0.13466752 0.00042219317 -0.0012200775 0.15085503
0001f0 69 c3 0b 3c 4a eb 7c bd aa ec 04 be 6c 13 d8 bc
       0.008530476 -0.061747827 -0.12980905 -0.026376449
000200 a4 db 08 3c f9 a6 e7 bd 79 23 16 3d 26 d0 f0 3d
       0.008353148 -0.113111444 0.036654923 0.11758451
000210 54 d1 f8 bd 59 e2 e3 bd 62 0b 11 bd 97 1c 97 3d
       -0.12149301 -0.11127157 -0.035411246 0.073785
000220 f9 eb b0 3d 68 76 ff 3d c0 54 31 bd 66 e6 b7 bd
       0.08638758 0.12473756 -0.043293715 -0.08979492
000230 4f 1f a3 3d 61 d1 a5 3c 22 95 1d 3c 50 10 a2 bd
       0.07964956 0.020241441 0.009618076 -0.079132676
000240 65 cf 39 bc d5 e7 01 be 72 f2 73 bd ba f5 be bd
       -0.011340951 -0.12686093 -0.059557386 -0.09324212
000250 50 2b 7f 3d cf 5c 9b bd 97 37 1f 3b cf 4c 29 3e
       0.062297165 -0.07586061 0.0024294609 0.16533206
000260 7b 23 13 bd 8a de 95 bd 41 92 26 bd 9b 9b aa 3c
       -0.03592251 -0.073178366 -0.040666822 0.020826152
000270 05 86 4a 3d 3b 8f 57 3c bb 92 36 be 50 b9 6e 3c
       0.049444217 0.013156707 -0.1782941 0.014570549
000280 0b a5 0d be 4f 29 ce bc eb 6f b3 3d 60 2e 14 3e
       -0.1383249 -0.025166182 0.08761581 0.14470816
000290 a4 7e 44 3d 15 1d c1 bd e9 0d 2f bd b3 30 06 be
       0.047972336 -0.09429375 -0.042737875 -0.13104515
0002a0 1e 1b b8 3d 1c c5 e0 bd ff 02 b1 bc 3b 8a fa bd
       0.08989547 -0.10975096 -0.021607874 -0.122333966
0002b0 95 a8 c7 3a 2a 40 27 3d d9 e6 11 3d c4 6b d2 3d
       0.0015232736 0.040832676 0.035620544 0.10274461
0002c0 1f 2e 0d be d5 ee a2 ba 9e d5 42 3e ed e6 ea bc
       -0.13787125 -0.0012430797 0.19026801 -0.028674567
0002d0 f3 88 cd bd a5 54 54 bd 80 4f e8 bd 7e 27 e0 bc
       -0.100358866 -0.051838536 -0.113432884 -0.027362581
0002e0 eb 53 2a 3d d0 6c 03 bd 6d 5f 21 be c3 40 af bd
       0.041583937 -0.032086194 -0.15759058 -0.08557274
0002f0 73 92 0f 3d e7 7e 2f 3b 0e 64 3a be ef 63 e2 bd
       0.035051774 0.002677852 -0.1820223 -0.11054217
000300 6d e2 4d 3d bb 57 92 bd 3e 6b 01 be 6f a2 da bd
       0.050264765 -0.071456395 -0.12638566 -0.10675513
000310 0a 77 9c bd f5 9e ab bb 6e 99 86 3d e0 19 98 bd
       -0.076398924 -0.005237455 0.06572233 -0.0742681
000320 90 0d 1d be 57 90 d9 3d 15 75 06 bd b1 11 85 bd
       -0.15337205 0.10623234 -0.032826502 -0.06497515
000330 a5 72 95 3d 61 22 01 3c 51 ea 03 3e 43 e1 43 bd
       0.07297257 0.007881732 0.12882353 -0.04782225
000340 b4 e2 ef 3d 94 bf d0 3d 55 93 59 bd c5 72 14 be
       0.11713162 0.10192791 -0.053119022 -0.14496906
000350 a7 ec ad bd 4f e9 c5 bd 29 b1 c4 bd 9b e3 60 3d
       -0.084924035 -0.09663641 -0.09604103 0.05490456
000360 48 f5 14 3c 37 39 f6 bc cb 1b 07 3c ed 4c 09 3e
       0.009091683 -0.030056579 0.008246372 0.13408251
000370 1b 3a a1 3c 60 8f 00 be c6 7b 0e 3d 6f 90 dd 3d
       0.019681027 -0.12554693 0.03478601 0.10818564
000380 66 99 9c bd 70 cd 18 be c6 01 27 bc e0 ee 9a bd
       -0.07646446 -0.14922118 -0.010193294 -0.07565093
000390 32 ee 1d 3a 74 cd 25 3e 98 0f c6 3d 9e 13 d5 3d
       0.00060245686 0.16191655 0.09670943 0.10404132
0003a0 f2 b2 a5 bd ec 9c 23 bc 46 1e f8 bd 1e 67 6d bd
       -0.08090772 -0.009986144 -0.12115149 -0.05795967
0003b0 ab 8a 8d bc 09 c5 33 be 82 c9 5b 3c 43 6f ab 3d
       -0.017278036 -0.17555632 0.013414742 0.08370831
0003c0 c9 b2 d6 bc 2e 49 21 3b 51 af a1 bd 55 37 6a 3b
       -0.026208298 0.002461027 -0.07894767 0.0035738547
0003d0 8d 0e 88 3d 11 7a d1 bc 56 ff 3c bd 0e 04 91 bc
       0.066434 -0.025570901 -0.046141945 -0.017702129
0003e0 21 0f 14 be cf 12 2d be 11 19 95 3d c1 a8 32 bd
       -0.14458896 -0.16901706 0.07280172 -0.043617968
0003f0 dd 4c 29 bc 54 d0 0a bd 6f e6 14 be 5d 5d fe 3d
       -0.010333267 -0.033890083 -0.14541028 0.124201514

weight f4 [128, 256]
000000 d4 31 0a 3d a7 eb 48 3d 42 a1 1b 3d 03 46 07 3d
       0.033738926 0.04905286 0.037995584 0.033025753
000010 43 ce 6f 3d a3 42 ed 3d fd a7 ab 3b f1 fc ff bc
       0.058546316 0.115849756 0.0052385316 -0.031248542
000020 c1 43 33 be 83 17 18 be b2 60 67 3e ac 41 53 3e
       -0.17506315 -0.14852719 0.2259548 0.2063052
000030 d8 42 48 3e 42 d9 91 bd a9 f5 83 3e c9 7b 99 be
       0.19556749 -0.07121517 0.2577336 -0.29977253
000040 50 c5 31 bb ee 2d 66 3b 0f 97 3c 3d 1b 2d 9c 3d
       -0.0027125664 0.003512259 0.0460425 0.07625791
000050 92 2c 94 3d b1 a0 c4 3d 97 6e 36 be 3b b4 c5 bd
       0.072350636 0.09600962 -0.17815624 -0.09653517
000060 18 b2 55 3d fd 64 e9 3c d4 48 5d bd 90 f1 53 3e
       0.052171797 0.028490538 -0.054024532 0.20697618
000070 62 35 86 3e a5 84 22 bd cc 08 0e 3e f9 d2 84 bb
       0.26212603 -0.03967728 0.13870543 -0.00405347
000080 71 36 a2 3d aa 8c 52 3d 9c 59 3b 3d 7c cd dc bc
       0.0792054 0.05140368 0.045739755 -0.026953451
000090 9e 11 da bd 58 04 06 3e b7 21 b6 3d ee 46 8c bd
       -0.106478915 0.13087595 0.08893149 -0.06849466
0000a0 f7 34 59 bd 5a 7c 05 3d 93 3c 39 3d 4c 74 f5 3c
       -0.053029027 0.032589294 0.045223784 0.029962681
0000b0 9b e2 72 3c dd a7 07 3e f3 46 92 bc 8c 18 50 3d
       0.014824535 0.13247629 -0.017856097 0.05080466
0000c0 e5 5f 59 3e 15 3b f1 bc 54 39 91 bd 3a e9 d1 bd
       0.21227987 -0.029447118 -0.070910126 -0.102495626
0000d0 1d a7 99 bd e9 f3 b4 bd 55 fe 32 3e 8b 98 60 3d
       -0.075025775 -0.08835585 0.17479832 0.054832976
0000e0 e3 ff de bc fc a7 0d be 70 c5 fd 3d 42 b3 17 3d
       -0.027221626 -0.13833612 0.12391174 0.037036188
0000f0 02 6d 12 bd 10 7e 47 bd 5b b0 96 bd fc 97 81 3d
       -0.03574849 -0.048704207 -0.07357856 0.06327817
000100 d0 85 19 bb 0b 66 2a 3d 3f a3 0e bc 46 87 07 be
       -0.0023425706 0.041601222 -0.008705913 -0.13235196
000110 9b f0 41 be 99 a3 8b 3d 75 b9 3c bd a5 7e 4c 3e
       -0.1893944 0.06818313 -0.046075303 0.19970186
000120 5a 24 49 be 66 f6 b5 3d c2 0d d6 3d 10 4f 3b bb
       -0.19642773 0.088848874 0.10451843 -0.002858106
000130 34 9f 77 3b f1 d8 30 be 37 dd 25 bd 16 45 b9 3d
       0.0037784101 -0.17270257 -0.04049417 0.0904638
000140 72 bd 2e 3d 50 dc 32 be 1b 24 23 bd 10 0c 44 bd
       0.042661138 -0.17466855 -0.039829355 -0.047863066
000150 cb 88 b6 be de 79 26 bd b9 29 b4 bc 68 6c 0f 3e
       -0.3565124 -0.040643565 -0.021992551 0.14006197
000160 58 d5 91 3e 0f 67 bd 3d a9 2f 44 3e af c7 96 bd
       0.2848308 0.092481725 0.19158806 -0.073623054
000170 73 82 04 3e e3 65 5d 3d a1 ba ce 3c ed f2 75 be
       0.12940387 0.054052245 0.025235476 -0.2401845
000180 c5 dc 9b 3e ac f5 1a be 99 6b ac 3d 84 36 21 3d
       0.3044187 -0.15132779 0.0841896 0.03935863
000190 49 2b 4c bc 06 aa dd bd 05 71 ca 3c 1c dd aa bd
       -0.012461492 -0.10823445 0.024712095 -0.083429545
0001a0 c5 c5 df bd 9d 07 90 be 8f 5d ce bd c1 28 1f 3d
       -0.109263934 -0.28130808 -0.10076439 0.038857225
0001b0 35 22 0d 3e 1c a1 d9 bd 6c 16 5b bd a0 19 84 3c
       0.1378258 -0.10626432 -0.05348818 0.0161255
0001c0 92 b7 01 3d 41 92 11 bd ad 04 34 3d 9d a8 84 bc
       0.031669207 -0.03553987 0.04394977 -0.016193682
0001d0 7f 33 1a bd 6b de 3c 3e e6 1e aa bc 80 7c dd bd
       -0.037646767 0.1844422 -0.020766687 -0.10814762
0001e0 3f d6 1c be 4b cc 03 3d a1 47 73 bd c0 7c f2 bd
       -0.15316103 0.03217725 -0.059394483 -0.118402004
0001f0 c0 72 ad 3d bf ec 8c bd 04 b7 fa 3d 2e 29 bf 3d
       0.084691525 -0.06881093 0.12241939 0.09334026
000200 9f fa 3d bc a5 10 95 3e e3 55 91 3a 46 2f dd 3d
       -0.011595397 0.2911426 0.0011088218 0.10800032
000210 a6 3a 50 be 23 4f 44 3c 6c 48 4b 3e ed a0 12 37
       -0.20334873 0.011981758 0.19851846 8.739747e-06
000220 f7 99 6c 3d 4d c3 4c 3e e8 73 50 bc db ea 44 bd
       0.05776402 0.19996376 -0.012722947 -0.048075538
000230 e1 3a 85 bc 29 41 8a bc 82 83 78 3c 73 bd f1 3c
       -0.016263427 -0.016876774 0.015168073 0.029509282
000240 75 7c 41 3b 73 94 a2 3d 6e e9 88 3e 14 86 34 bd
       0.0029523645 0.07938471 0.26740593 -0.04407318
000250 86 b5 d2 3d ad ce 5e 3c 78 cb 1d 3d 1f d2 5d bd
       0.10288529 0.01359908 0.03852412 -0.054155465
000260 6c 89 db bd ae f1 20 3e b3 e7 92 bd 99 ef a9 3d
       -0.107195705 0.15717193 -0.07173099 0.08297653
000270 a3 d0 1d be bc 0b 02 be 73 92 44 be 66 c1 48 3d
       -0.1541162 -0.12699789 -0.19196491 0.049012564
000280 1e 59 34 be 2f 95 06 3e b9 5d c8 bd a4 91 89 bd
       -0.1761212 0.13142847 -0.09783501 -0.06717232
000290 a6 e6 69 3d 67 f2 d9 3d 24 51 c9 3d cc 06 1c bc
       0.05710473 0.10641938 0.098299295 -0.009523105
0002a0 df ba bf bb 3e 07 49 bd 11 8f 94 be f9 cc 08 3e
       -0.005851134 -0.049079172 -0.290154 0.13359441
0002b0 e7 8f 89 be 23 6e 94 3d e4 df d9 3c 81 97 92 3d
       -0.268676 0.072475694 0.026596017 0.07157803
0002c0 e1 f9 18 3e 7d 0c 52 be 4e 10 22 be 2d 02 bd bd
       0.14939071 -0.20512576 -0.15826532 -0.092289306
0002d0 b4 f9 88 3e 1f 2f e0 bd 1d 1f ef 3d 12 28 89 3e
       0.26753008 -0.10946488 0.11675856 0.26788384
0002e0 76 e3 7d 3d 38 b9 c5 3d 20 77 83 be 4d 36 16 3e
       0.0619845 0.09654468 -0.25676823 0.14669152
0002f0 e3 3e 3b bd 67 de 89 3e d6 b3 34 be 63 34 82 be
       -0.04571427 0.26927492 -0.17646727 -0.25430593
000300 ca 2c 1a bd eb fd 61 3e 68 bc 04 be f5 ba b1 3d
       -0.03764037 0.22069518 -0.12962496 0.08678237
000310 85 c7 99 3d dd e2 63 bc de ce b0 bd c0 36 e1 b7
       0.075087585 -0.013909069 -0.08633207 -2.6847585e-05
000320 a7 70 9e bd f3 56 1f be 36 a0 13 3e 91 49 8c bd
       -0.077363305 -0.15560512 0.14416584 -0.06849969
000330 d8 ba 58 bc 41 a0 e9 3d 25 69 a7 3d 15 2f be 38
       -0.013228141 0.11407519 0.081743516 9.068676e-05
000340 5e 8a 9b 3d aa 3f 34 bd a3 a7 b3 3d 45 47 48 bd
       0.07594751 -0.044006027 0.087722085 -0.048896093
000350 95 74 2c bd b2 7a d1 bd bf af 6a 3d ac 0d b5 bd
       -0.04210337 -0.102284804 0.05729651 -0.08840498
000360 f9 b0 61 3e 0f c0 fa bd 33 8e e2 3d f1 07 12 3e
       0.22040166 -0.122436635 0.110622786 0.14260842
000370 c7 13 f4 3d c5 30 0b 3e bd bb ea bd 07 59 1f bc
       0.11917835 0.13592823 -0.114615895 -0.009725816
000380 69 bc 13 3e 07 cf 1e 3e ef 5b 88 bc d4 3c ee bc
       0.14427342 0.15508662 -0.0166454 -0.02908174
000390 b9 87 dd bd 46 f4 9e 3c 2a 45 4d be 90 01 a0 3d
       -0.10816903 0.019403588 -0.20045915 0.07812798
0003a0 9b 20 9e bc f4 91 ba bd 52 d9 53 bd b7 ac bb bb
       -0.019302657 -0.091098696 -0.051720925 -0.0057273763
0003b0 79 e3 97 bd 19 be 0a be 87 a1 ce 3d 5b bb 4c be
       -0.07416434 -0.13549079 0.10089403 -0.19993345
0003c0 9b 67 ff bc a0 80 c8 3c 70 cd 75 bd 12 2b c6 3d
       -0.031177333 0.024475396 -0.060010374 0.09676184
0003d0 82 0e f7 bd 09 9f 2e 3e 76 d1 77 bb 73 38 36 be
       -0.12063314 0.17052855 -0.0037814057 -0.17794971
0003e0 03 e3 86 be 64 32 1a be 53 06 98 be 25 14 79 3d
       -0.2634507 -0.15058285 -0.29692325 0.060810227
0003f0 4f f0 f9 3d 4e a5 64 3c 17 c5 88 bc 14 3b 7a 3d
       0.12204038 0.013955427 -0.016695542 0.061091498

bias f4 [128]
000000 9e 95 72 bd b9 f6 01 3e 20 78 ef bd c3 87 4f bd
       -0.059224717 0.12691773 -0.11692834 -0.05066658
000010 e8 ff 57 bd 5a 41 8d bc 08 1d 0f be fb d8 98 3c
       -0.052734286 -0.017243076 -0.13975918 0.018658152
000020 80 37 96 3d 78 92 55 3d 9f a9 a4 3c ee dd ed bd
       0.073348045 0.052141637 0.020100413 -0.11614595
000030 87 5d 08 be 9f da 67 bd 97 41 6a bd 2a c2 1f be
       -0.13316928 -0.056604978 -0.057191458 -0.15601411
000040 1d e0 f7 3b 46 63 45 ba 04 6c 8c 3c 84 5d 90 be
       0.007564558 -0.00075297465 0.01714135 -0.28196347
000050 94 df 05 be 41 03 17 3d 17 76 09 bc c0 a8 09 be
       -0.1307357 0.036868338 -0.008389971 -0.1344328
000060 0f 21 e1 bc e1 d4 b8 3d 52 59 88 3c 71 41 19 bb
       -0.027481584 0.090249784 0.016644154 -0.0023384953
000070 74 1b e6 bd cc e9 4e bd 63 cd b7 be 59 ab 54 be
       -0.11235705 -0.050515935 -0.35898885 -0.20768489
000080 5b 38 98 3d 86 00 d0 bd e6 7f 7a bd b5 cb e1 bd
       0.07432624 -0.1015635 -0.06115713 -0.11025182
000090 f7 48 02 bd 53 23 c2 3d 4b 9e ae 3d 0d 96 77 bd
       -0.031807866 0.09479394 0.08526286 -0.060445834
0000a0 b9 61 72 bd e2 8b 12 3c 79 d6 d7 bc 19 21 d9 bd
       -0.059175227 0.0089444835 -0.026347386 -0.10602016
0000b0 c5 01 14 3c 2b b1 13 be d6 29 e1 be be 8d 36 3d
       0.009033625 -0.14423053 -0.4397723 0.04456877
0000c0 00 38 aa bd 3a c3 9a bd 7b ca 8d bd c3 3d b2 bd
       -0.083114624 -0.07556768 -0.06923386 -0.08703186
0000d0 04 fb 85 bd ce 81 ff 3c 7f bf f3 3c 1f bd 95 bd
       -0.06542018 0.031189825 0.029754398 -0.073114626
0000e0 96 ef 6e 39 d4 ef 8e bd 95 62 8a 3c f2 c2 40 be
       0.00022786701 -0.06979337 0.01689271 -0.18824366
0000f0 b9 fe 91 be 83 19 a8 bc b7 29 71 bd a6 d3 9b be
       -0.2851465 -0.020519977 -0.058877673 -0.30434912
000100 12 68 87 3c cf 12 1c be 00 b2 0c be cf 79 02 bd
       0.016529117 -0.1524155 -0.13739777 -0.031854447
000110 50 96 cc bc 09 da cf 3a 28 9f ae be f6 34 38 bb
       -0.024974018 0.0015857826 -0.34105802 -0.002810774
000120 29 b8 1a be 22 d7 bb be d3 5d 33 be 2a 13 da bd
       -0.15109314 -0.3668757 -0.1751626 -0.106481865
000130 f9 a7 18 be a6 68 07 be 52 5d 99 3d e4 ba 2e be
       -0.14907826 -0.13223514 0.074885026 -0.1706348
000140 bb 45 b0 3d 5e a1 4b bd dd 38 30 3b aa ed d7 bd
       0.0860705 -0.04971444 0.0026889362 -0.10543378
000150 d4 17 42 bd 9e 92 4b bd b0 f1 0c be 6e d0 3a bd
       -0.047386006 -0.049700372 -0.13764071 -0.04560893
000160 51 2d 10 bd 1f 89 d7 3d fc 78 6a bd 5c 47 93 bc
       -0.035199467 0.10524201 -0.057244286 -0.017978363
000170 97 19 bf bd 6d 6f 4c bd 1d 0c 29 be e2 d6 1a bd
       -0.09331053 -0.04991095 -0.16508527 -0.037802584
000180 ee c6 6a bc a6 92 fe 3c d0 de 6f bd 3f 1f 3b be
       -0.014329655 0.031075787 -0.0585621 -0.18273638
000190 5e 06 22 bc 9c 42 90 bd 49 99 8e bd ec c7 f5 3b
       -0.009889213 -0.07043955 -0.069628306 0.007500639
0001a0 29 60 aa bd 98 b1 04 bc 05 be 16 3d fa 08 48 bd
       -0.08319122 -0.008098982 0.03680231 -0.048836686
0001b0 b3 a0 c6 bd 48 6f b8 bd c8 6a 39 bf 05 66 25 bd
       -0.0969862 -0.090056 -0.7242856 -0.040380497
0001c0 9c b5 44 bb f6 a1 26 3d d2 93 39 bd 27 a4 81 3c
       -0.0030015474 0.0406818 -0.045306988 0.015825344
0001d0 b3 aa 13 be 80 51 53 bd b1 5b 3e be 54 c0 90 3b
       -0.14420585 -0.051591396 -0.18589665 0.0044174585
0001e0 97 36 88 3d 0c b0 96 bd 16 69 51 be 47 09 c0 b8
       0.06651037 -0.07357797 -0.20450243 -9.1570015e-05
0001f0 88 bf f4 bc a0 26 98 bb ab 43 f3 bd 69 41 25 bc
       -0.029876485 -0.0046432763 -0.11878141 -0.010086396

weight f4 [128, 128]
000000 6e cd c3 bc 5e bf 40 bc 40 99 4f bd b5 10 d0 3b
       -0.023901667 -0.0117643755 -0.05068326 0.006349648
000010 34 1b 98 3c d3 47 4a 3d 4f 25 f3 bc e8 3c d0 bb
       0.018567659 0.049384903 -0.029680876 -0.006354917
000020 80 84 13 bc 8c 74 e8 bb df 7e bf bc 72 88 8e 3d
       -0.009003758 -0.0070939716 -0.023375927 0.06959619
000030 67 ab 25 3d 23 19 a1 bd de bd eb 3a 0e a4 88 bc
       0.040446665 -0.078661226 0.0017985662 -0.01667979
000040 a6 3e a2 bc e5 50 db 3c 9b d2 cf 3b cb 42 77 bb
       -0.019805264 0.026771972 0.006342245 -0.003772902
000050 45 04 2d 3d d4 de 60 3a 96 ac 6b 3d 6c d8 8e bd
       0.0422404 0.0008578126 0.057537638 -0.06974873
000060 06 3d c1 bc 82 b1 71 bc 6f f9 09 3d ff af c7 bc
       -0.023588669 -0.014751794 0.033685144 -0.024375914
000070 f5 ea a9 3c 23 b5 bb bc 82 cc b9 3b ca ab c4 bb
       0.020741919 -0.022913521 0.005670131 -0.006001924
000080 54 9a 10 bd 08 36 20 bb eb 6e 83 bd 36 f1 e5 3c
       -0.03530343 -0.0024446268 -0.0641764 0.02806912
000090 15 49 36 3c ec dc 3a bd 52 1d e2 bb bd 83 32 bd
       0.011125823 -0.045620844 -0.006900468 -0.043582667
0000a0 8e a5 05 bc 52 cc 23 bd 87 eb 99 3c bf d5 c3 bc
       -0.008157147 -0.039989777 0.018789066 -0.023905633
0000b0 e4 8d 88 bc 17 ad 58 bd 07 4d e6 bc cb cc c7 3c
       -0.016669221 -0.052899446 -0.028112901 0.024389645
0000c0 23 cc 04 bd de 92 a4 bd 88 78 36 bd 88 62 f9 bb
       -0.032421242 -0.08035825 -0.04454854 -0.007610623
0000d0 6d 2b be 3c 26 74 9d bb 99 07 2e 3c dd 3d ed 3b
       0.023214066 -0.0048051057 0.010621929 0.0072400407
0000e0 07 fe cc 3b 39 c5 7a 3d af 54 d9 bc 63 76 65 3d
       0.0062558684 0.061223242 -0.026529638 0.056021105
0000f0 97 3a ff bc 80 ab 03 bd 9c 57 92 bc ca 8c 17 3d
       -0.031155868 -0.032145977 -0.017864041 0.0369995
000100 e4 07 8b bc 1a 15 35 3b f7 00 d9 bc f9 a6 30 3d
       -0.016971536 0.0027630986 -0.026489718 0.043127988
000110 1f 75 c3 bb 48 d9 72 3c 57 e7 d2 3a 00 32 6a bb
       -0.0059648897 0.014822312 0.0016090673 -0.0035735369
000120 c0 9f 9e 3d 1a df 60 bc d6 b3 aa 3c a4 9b 16 3d
       0.07745314 -0.013725067 0.020837706 0.036769524
000130 a8 31 ea 3c 70 ad e0 3b 06 7d 02 bd 53 f0 b0 3c
       0.028588131 0.006856613 -0.031857513 0.02159897
000140 17 80 1f bd cc 67 91 3c c1 f0 62 bd 4c 0d e4 3c
       -0.038940515 0.01774969 -0.055405382 0.027838372
000150 94 2e ef 3b 62 94 6a bd 68 a4 01 bd aa 9f ef bc
       0.0072992537 -0.057270415 -0.03165093 -0.029250938
000160 13 f3 80 3d 50 d4 b4 bc e0 6e 81 3c 73 61 91 bd
       0.06296363 -0.022073895 0.01579994 -0.07098665
000170 c6 bd 9d 3c 14 9a c2 3c de 63 46 bd 68 8c 09 3d
       0.01925553 0.02375511 -0.048435085 0.033581167
000180 56 db a4 3d a3 54 f0 bb 68 ac 1e 3c ff 53 b8 3b
       0.080496475 -0.0073343082 0.00968466 0.0056252475
000190 8b 35 29 3d 9c 1a 1c bc 3e ee c5 ba fa 45 d3 bb
       0.04131083 -0.009527829 -0.0015100909 -0.006447551
0001a0 2d c5 ed bc 99 81 22 3b 63 57 d7 3c ab 51 f4 bc
       -0.029024685 0.0024796485 0.026286786 -0.029824099
0001b0 35 16 52 3c 1e 4f 15 3c 89 dd 91 3c 15 39 39 3c
       0.012822677 0.009113101 0.017805832 0.011305113
0001c0 42 0f 04 bc cb b1 d3 ba 79 ba 28 3d 53 c1 e7 3c
       -0.008060278 -0.0016151009 0.04119346 0.028290426
0001d0 00 48 9b ba 9c c2 9c 3c fd 7d d0 bc 8f 3e 41 bc
       -0.0011847019 0.019135766 -0.0254507 -0.0117947
0001e0 d0 43 69 3d ea 2a 1c bc e5 66 18 3c de 5a 1d bc
       0.056949437 -0.009531716 0.009301876 -0.009604184
0001f0 85 b9 34 3c a8 e1 0d bc 5a db ae 3c a2 71 a4 bc
       0.011030559 -0.008659758 0.02134483 -0.020073716
000200 10 2b 6c bd 46 a2 0e be d0 63 90 3d 80 9f c7 3d
       -0.057658255 -0.1392909 0.07050288 0.09747219
000210 7d 60 a9 bd e4 77 54 ba 3e 20 05 bb c0 ad ff 3c
       -0.08270357 -0.00081050233 -0.0020313407 0.03121078
000220 57 7d 8c bd 20 16 3d be 15 09 d0 3c 0d 96 cf 3d
       -0.06859844 -0.18465471 0.025394956 0.10136042
000230 a9 3a 50 3d 1a 20 00 3d 46 f3 d5 3d 3f de 73 be
       0.050837193 0.031280614 0.10446791 -0.23815249
000240 2f 0e 8b 3b cb 6b 34 3c 77 6d 84 3d 21 bc 80 3c
       0.004243634 0.011012028 0.06466191 0.015714707
000250 a8 ea de 3d ad 2f 30 bd f3 ba ac bd b6 0a ef 3d
       0.10884601 -0.043014217 -0.08434095 0.11671965
000260 21 33 8e 3c 10 bf 64 3d 69 11 aa 3d 20 0a 4a bd
       0.017358365 0.055846274 0.08304102 -0.049326062
000270 37 a5 e5 bc f5 09 63 be 6c b1 74 bd ce 4c 46 ba
       -0.028032882 -0.22171767 -0.059739515 -0.00075645454
000280 e9 94 08 be be 8d 0c bd c8 b0 85 bd 03 0b 16 3e
       -0.13338055 -0.034314863 -0.06527859 0.14652638
000290 53 ce 07 be d7 b2 c6 3d fe e6 2c 3e 99 25 c0 bd
       -0.132623 0.0970208 0.16884992 -0.09382171
0002a0 7c fc 8d bd 7d e5 2a bd 59 f2 04 3d 35 d9 df 3c
       -0.06932923 -0.041722763 0.032457683 0.027325252
0002b0 29 49 10 bc ce 58 9a bd 46 6c 73 bd 43 bc 8b 3c
       -0.008806505 -0.075364694 -0.05942943 0.017057544
0002c0 2f 56 a7 3d 3d 4d a0 bd 0b c2 11 3e 35 de 1f bd
       0.08170735 -0.07827232 0.14234178 -0.039030273
0002d0 6d ab 73 3d 22 2d cb bc 3e ce 35 bc 80 63 c5 bd
       0.059489656 -0.024801794 -0.011096535 -0.09638119
0002e0 ba 09 13 3e af 3b a1 3d 38 b3 38 bd 2a 57 f9 bc
       0.14359179 0.07872712 -0.04509279 -0.03043707
0002f0 b8 75 c4 bd c8 ae 33 3d b6 b5 1e bd 53 a6 3a 3d
       -0.095927656 0.043867856 -0.03874751 0.045568775
000300 45 29 d8 3c 40 f4 b8 3d 6f 32 02 3d 9a f5 b1 bb
       0.026386866 0.09030962 0.03178638 -0.0054308893
000310 fa 33 13 3d d4 e8 0d bd 9d 17 49 3d 1c c0 ea 3c
       0.03593824 -0.03464587 0.049094785 0.028656058
000320 e3 7b 08 be c8 bf b5 3d e9 71 33 3d cb 20 38 3d
       -0.13328509 0.0887447 0.043809805 0.04495315
000330 4c 00 bf bc da 33 cc bd 03 d3 fc 3c ca f3 5b bd
       -0.023315571 -0.099708274 0.030862337 -0.053699292
000340 fa 06 91 3d 5c 24 0b bd 86 42 da 3d 37 4d 88 bd
       0.07081409 -0.033970222 0.106572196 -0.066553526
000350 ce 15 c1 3c bc 38 c4 bd 13 6a 4b be 8a 16 64 3d
       0.023569968 -0.09581134 -0.19864683 0.055685557
000360 19 6c 1b 3d d1 f6 01 be bb bb 48 3b 30 5e e7 3c
       0.037944887 -0.12691809 0.0030629474 0.028243154
000370 e7 de 74 3c 2f 2e bf 3d 5b dc d1 3d 12 64 92 bd
       0.014945722 0.09334981 0.102471076 -0.07147993
000380 ed 1e 12 be a5 4f bf bc 28 6d 0b 3e 55 8c d2 3c
       -0.1426961 -0.023353407 0.13615859 0.025701681
000390 4d 38 c7 bd b1 2b fc 3d 5a 5b 90 bd e4 15 0f bd
       -0.097275354 0.12313021 -0.07048674 -0.034932986
0003a0 cd 40 89 bd 72 06 33 3d 87 41 85 bc 84 5a ca bc
       -0.06701813 0.04370732 -0.016266597 -0.024701364
0003b0 d8 57 db bc 1f 0a 94 bd 30 f0 67 3e b6 eb 72 bd
       -0.026775286 -0.07228493 0.22650218 -0.059306823
0003c0 82 e3 8d 3d ba e7 d2 bd 4c 65 85 3d 8f 1e 95 3d
       0.06928159 -0.102981046 0.065134615 0.07281219
0003d0 91 78 3d be d3 f9 98 bd 94 45 8b bb 3b d6 c7 3c
       -0.18503024 -0.07469525 -0.0042502377 0.024394145
0003e0 ef 75 ae bd 87 c9 4c bd 1e 1a a9 bd cf 92 a7 bd
       -0.08518588 -0.04999688 -0.082569346 -0.081822984
0003f0 aa 1e 7d bd cb f5 29 bb 98 93 33 3e ae 98 c6 3c
       -0.06179682 -0.0025933858 0.17536771 0.024242725

bias f4 [128]
000000 3b 4b 94 3d a7 df d9 bd 56 0c e2 3c 2d 77 aa bd
       0.072409116 -0.106383614 0.027593773 -0.08323512
000010 91 a7 a2 bd e8 9b 0c be ad 72 02 be ed 1c 52 bd
       -0.07942117 -0.13731349 -0.12739058 -0.051297117
000020 65 7b c6 bd d4 66 20 bd 57 b7 4a bd 0f 49 d1 3b
       -0.096915044 -0.039160565 -0.049491253 0.006386883
000030 8a a6 4b bd ca 73 e8 3c 57 d3 a0 3c 73 71 b4 3c
       -0.04971937 0.028375525 0.019632025 0.022026753
000040 60 58 1f bd 88 7e 09 bd 75 ec 1a 3d b7 a9 f0 bd
       -0.03890264 -0.033567935 0.03782316 -0.117511205
000050 db 23 bf bb 9a f0 a4 bc 41 91 49 bc 5d ce 87 bb
       -0.0058331317 -0.020134259 -0.012302698 -0.0041444735
000060 ca b5 88 3c a9 68 4e bd e7 9a c1 3c 4d 58 52 3d
       0.016688246 -0.05039278 0.023633434 0.05135374
000070 2d c3 e0 bd 10 67 9a bc 0f 39 8d 3b cb 01 9d bd
       -0.10974727 -0.018847972 0.0043097804 -0.076663576
000080 33 36 27 bd ef c8 f2 3c e5 87 c6 bd af 48 95 bd
       -0.040823173 0.029636828 -0.096938886 -0.07289254
000090 e2 d9 4a 3d 54 c3 82 3d b7 ad 1d be ed b1 1b bd
       0.049524195 0.06384912 -0.15398298 -0.03801148
0000a0 67 c5 34 3d d6 5c 0f be a1 c3 28 bc ed 24 c6 3c
       0.04413357 -0.14000258 -0.010300548 0.02418753
0000b0 16 79 7c bd 29 bc 70 bd 64 0c 42 be ce 2b da bd
       -0.061638914 -0.058773194 -0.18950039 -0.10652886
0000c0 9d 52 9a bd 1a 78 84 3d c1 83 05 be 43 15 1b bf
       -0.075352885 0.0646822 -0.13038541 -0.6057932
0000d0 00 e7 02 3d b5 ad 90 bc 5d d2 c0 be 6d 1f 95 bd
       0.03195858 -0.017660955 -0.37660494 -0.072813846
0000e0 1d fb 62 3d 8c c8 02 3d 85 8d 5c 3d 71 75 09 be
       0.05541526 0.031929538 0.0538459 -0.13423707
0000f0 dc dc c8 3c ec 3c 3b be c7 6c d1 bd 7a cd 22 3c
       0.024519376 -0.18284959 -0.10225826 0.009936685
000100 92 91 95 bc 99 80 03 3d f7 f0 a1 3d e7 a2 e0 bb
       -0.01825789 0.032105062 0.079072885 -0.006855357
000110 c1 95 f6 bd 93 ba a0 3c e2 c8 54 3d 56 b4 4f bc
       -0.12040282 0.019620216 0.05194939 -0.012677273
000120 65 2c b8 3c fd ed 85 bd d7 89 5c bd d9 14 82 3c
       0.022482106 -0.06539533 -0.05384239 0.015879082
000130 02 33 6a 3d 30 61 80 3d fc 9b 2c 3d 44 45 90 bd
       0.05717755 0.06268537 0.042140946 -0.07044461
000140 c1 9f 91 bd 82 b8 66 3b cb 94 1d 3c fe cc 13 3d
       -0.07110549 0.003520519 0.009617995 0.036084168
000150 4d 75 8c bb 17 b4 7b be fe 89 50 bc 0c 59 e2 bc
       -0.0042864443 -0.24580418 -0.012728212 -0.027630351
000160 69 b6 8e 3c bf d0 2c be c4 2b 84 be ac 94 aa bc
       0.017420964 -0.16876505 -0.2581464 -0.020822845
000170 1d 8e 3b bb 9c 82 27 bc 7b 9b 86 3d fd 10 87 bd
       -0.0028618642 -0.010224011 0.06572624 -0.06595037
000180 f9 c9 10 bd 3e 79 ac 3c 97 d2 b2 bd 91 9a ef bd
       -0.035348866 0.021053907 -0.08731573 -0.11699403
000190 e5 b6 9b bd 08 6f 97 be 0b d2 e1 3d f7 be 90 bc
       -0.07603244 -0.29576898 0.11026391 -0.017669184
0001a0 74 34 96 bd cb 5c 10 3d b6 23 5d bc 13 35 81 3d
       -0.073342234 0.035244744 -0.013497284 0.06308951
0001b0 eb aa 2b bd 96 3a 99 3c 88 1c d9 bb d3 19 fa bd
       -0.041911047 0.018704694 -0.0066257156 -0.12211957
0001c0 48 6e 80 bd f3 2a 48 bd 89 a8 09 3d d3 91 25 bd
       -0.062710345 -0.048869085 0.033607993 -0.040422272
0001d0 3b ce 32 3d ac 5f aa bd 95 ca c2 3d c3 4d 7a bd
       0.043653708 -0.08319029 0.09511296 -0.061109316
0001e0 74 f9 ac 3a 22 b8 94 3d 64 4e d7 3c 63 8d 23 be
       0.0013196901 0.07261683 0.026282497 -0.15971904
0001f0 d8 7c f6 3c d6 87 53 bd a0 c2 b5 3d 20 65 9e 3d
       0.030088827 -0.051643215 0.088750124 0.07734132

weight f4 [12, 128]
000000 c1 40 f6 3b 32 40 73 bc fc 52 ca bb 5c 16 19 bc
       0.0075150435 -0.014846848 -0.0061744433 -0.00934371
000010 a2 95 b2 3b 46 4c 79 bc 2b 58 04 bc 25 6c 04 bb
       0.0054499665 -0.015215939 -0.0080776615 -0.002020606
000020 dc ef 11 bc 64 38 b0 bb 09 ba 5c bb 62 28 3d bb
       -0.008907285 -0.005377816 -0.0033680222 -0.0028863181
000030 e0 51 79 3c c2 80 0a bb f9 81 e6 bb 41 27 35 bc
       0.015217274 -0.0021133875 -0.007034537 -0.011056722
000040 e4 b4 6b 3b 14 3c 5e ba 2c 41 fe ba 17 ad 94 3a
       0.0035965974 -0.000847758 -0.0019398085 0.0011343089
000050 bf 35 14 ba 60 44 15 3b 06 3d 28 b8 37 8f 9c ba
       -0.0005653761 0.002277635 -4.0111154e-05 -0.0011944537
000060 58 aa 84 b8 62 a4 14 3c 25 8b 75 ba 3b 37 da 3a
       -6.3259795e-05 0.009072395 -0.00093667425 0.001664854
000070 79 15 b4 bc bd d6 2f 3b 61 53 12 3c 93 82 37 bc
       -0.021982895 0.0026830875 0.008931012 -0.011200565
000080 dc de 21 ba f5 c9 5b 3b 1c 7d 33 bc 49 bd 8f 3c
       -0.0006174871 0.0033537124 -0.010955121 0.017546313
000090 cf 54 54 bb 96 70 ec ba 78 ab 7d 3d 37 11 95 bb
       -0.0032399183 -0.0018038924 0.061931103 -0.0045491713
0000a0 d7 ea db ba 55 55 0f bd 95 16 05 3b 9f ac 8a 3a
       -0.0016778362 -0.03499349 0.002030765 0.001058001
0000b0 99 fe 62 3c 2f 79 09 3d 7a a3 9c bb 71 49 38 3c
       0.013854646 0.033562835 -0.00478023 0.011247979
0000c0 58 da b0 3b 3f e6 03 bc 69 e4 04 bb fa 10 7b bc
       0.0053971224 -0.0080505 -0.0020277745 -0.015323872
0000d0 0f 20 ca 3b 5b 86 39 3b ac 22 bd bc db 31 84 3c
       0.0061683725 0.0028308842 -0.023087822 0.016137054
0000e0 b4 35 d3 3b dc 60 de 3b 2b 45 da 3b 28 9a 2b bc
       0.006445611 0.006786449 0.0066610775 -0.010473765
0000f0 92 4f 45 bc 2a 17 ae 3c 67 e4 15 bb a3 a0 f4 ba
       -0.012042897 0.02125128 -0.0022871734 -0.0018663596
000100 c3 27 40 bb e1 69 2f bc d7 50 8f b9 95 a1 47 ba
       -0.0029320575 -0.010706396 -0.00027335316 -0.0007615325
000110 34 c1 8d bc 44 87 73 3c bd ac 39 3b 48 4e bb b8
       -0.01730404 0.014863793 0.002833172 -8.931436e-05
000120 5d e1 09 bb 6c 3b 0e 3d 5f 3c e0 bb 16 43 63 bb
       -0.0021038868 0.034724638 -0.0068431343 -0.0034677438
000130 df 72 e7 3b f6 eb c8 ba 42 2b 5a bb 7a 86 cc bb
       0.0070632542 -0.0015329111 -0.0033289944 -0.006241617
000140 12 4d d5 3b d8 62 41 ba fd 4f a4 3b ae e0 37 3b
       0.0065094316 -0.00073770946 0.005014418 0.0028057504
000150 77 fb 12 3d ea cf a0 bc 18 b9 d0 3a 26 14 40 ba
       0.035884347 -0.019630391 0.0015924303 -0.0007327221
000160 61 e0 21 3b 22 4e ba 3b a3 cd 20 bd dc 97 e7 3b
       0.002470039 0.0056855837 -0.03925861 0.0070676636
000170 ab 6b b3 3b 81 2e 16 ba 38 1b 30 3b 8c 9e 81 3b
       0.0054754815 -0.00057289755 0.0026871692 0.003955668
000180 b4 34 e1 3b 29 d5 11 3c 73 91 63 bc 06 7e 0f bc
       0.006872738 0.008900919 -0.013889658 -0.008758074
000190 de e4 55 bb 12 82 79 3d b3 6b 8b bc 14 50 89 bc
       -0.0032637636 0.06091506 -0.017019128 -0.016761817
0001a0 26 c4 0f 3c 70 cd 20 bb a5 d2 2d bc f8 63 d1 3c
       0.008774793 -0.0024536513 -0.010609304 0.025560364
0001b0 a5 5d 22 3c 88 fc 9a 3c d5 6f 27 3c 9b 3c b1 3b
       0.009910022 0.018919244 0.010219534 0.005408836
0001c0 91 a3 95 bb bf 17 93 3c ac 4d b1 bb 04 6e 9d 3c
       -0.004566618 0.017955659 -0.0054108705 0.019217499
0001d0 43 f1 26 bb f0 e5 67 3a f0 6b 2e bb 19 eb be 3b
       -0.0025473393 0.0008846214 -0.0026614629 0.0058263657
0001e0 72 1e 6f ba 94 42 a2 bc 88 18 02 bb 45 5c 68 bc
       -0.0009121663 -0.019807138 -0.0019851048 -0.014182155
0001f0 e7 c4 7a 3b d4 13 da bb c5 c4 87 bc 2d e3 08 b9
       0.0038264336 -0.0066551957 -0.01657332 -0.000130546
000200 99 55 40 bb b8 ec 67 3c 2c f5 49 bc b7 2e 16 3b
       -0.0029347895 0.014155559 -0.01232652 0.0022916028
000210 4c db e0 3b 9d f3 81 3c 5a dd 1e bd 0c 70 92 3b
       0.0068620797 0.015863234 -0.038785316 0.0044689234
000220 48 9d fd bc 44 be fb 3b 89 e8 ca 3b 6c 67 0d 3d
       -0.030958787 0.0076825935 0.006192271 0.03452246
000230 43 31 50 3c e7 76 b1 ba 5b a5 6b bc d7 ff b0 3a
       0.012707057 -0.0013539464 -0.014382686 0.0013503981
000240 f5 06 98 3b 3d 1b c6 3b eb 7e 12 3c fd b4 b2 3a
       0.004639501 0.0060457275 0.008941392 0.0013634261
000250 a1 87 3f bb c0 66 01 3c 73 2f 55 bb 1c 8a 95 bc
       -0.0029225128 0.007898033 -0.0032529503 -0.018254332
000260 a9 df ed 3a a5 02 d3 3c 7a 9e 80 bc 59 b1 f4 3b
       0.0018148321 0.025758097 -0.015700568 0.0074674306
000270 9a 91 09 3d 80 b4 09 bc be 6c 5d 3b 49 ca d8 ba
       0.033586122 -0.008404851 0.003378674 -0.0016539778
000280 31 f4 a0 bb cc 58 a1 3b d4 d0 3a b9 7e bb d8 ba
       -0.0049119224 0.0049239155 -0.00017816137 -0.0016535369
000290 9a 61 39 3b 8d 4f de bb 96 d8 12 3b d3 ef 1f 3b
       0.0028286935 -0.0067843855 0.0022406927 0.002440442
0002a0 85 31 a1 3c e8 cb c2 bc b2 e1 19 3b 02 0d 1c bb
       0.019676933 -0.02377887 0.0023480472 -0.0023811464
0002b0 ee 77 02 3c 91 16 68 3b 65 cc 8d 3c 6a 72 3d 3c
       0.007963164 0.0035413841 0.017309377 0.011562923
0002c0 34 72 13 3c c1 b4 df bc d4 70 1c 3c 5e 2c 35 3d
       0.008999396 -0.02730787 0.009548385 0.044231765
0002d0 4d ab 01 3b 40 eb bd bb a3 a4 18 bd a4 0f 13 3c
       0.001978594 -0.0057958663 -0.037266385 0.008975897
0002e0 10 64 95 bc 0c 1c d6 bb d2 7d e1 3a f6 ed cf bc
       -0.01823619 -0.006534105 0.0017203635 -0.025382023
0002f0 25 51 b8 3b 56 76 b1 bc 07 d9 03 bb 10 0c 84 bb
       0.0056249076 -0.021662872 -0.0020118372 -0.0040297583
000300 b9 dc fb bb 64 56 a8 3b 0a 1e 8c ba 2e 89 b8 bb
       -0.0076862243 0.0051372517 -0.0010690105 -0.0056315875
000310 11 79 19 ba 3e a9 ee bb dc 23 87 3c 92 06 a4 bb
       -0.0005854527 -0.007283359 0.016496591 -0.005005666
000320 1a 5a 90 3b 20 28 11 bd e0 2b e4 bb e7 32 06 3b
       0.004405272 -0.035438657 -0.006963238 0.0020477118
000330 fb 11 d8 bc 97 ff ab 3a 0e 4f 8d 3a 9c 19 07 3c
       -0.026375761 0.0013122436 0.0010781006 0.008245852
000340 fb 8d fd 39 e4 e5 ff 3b 03 dc 0c 3c 01 c0 e8 3b
       0.00048361704 0.0078093875 0.008597377 0.007102967
000350 a3 59 59 bc 14 6f a2 3b 35 58 9c 3b 48 ff 0b 3c
       -0.013266 0.004957089 0.0047712573 0.0085447505
000360 67 31 a7 bb 5f 76 5a bb e8 dd 3d bb 93 a8 e5 3a
       -0.0051023248 -0.0033334715 -0.0028971378 0.0017521553
000370 2e f6 88 3a c0 2d d6 39 4f b7 6f bb 0c 70 3b 3b
       0.0010449344 0.00040851347 -0.0036577766 0.002860072
000380 73 51 55 3b c3 60 20 bb ad fa 14 bc 8e 78 69 3c
       0.0032549768 -0.0024471737 -0.009092969 0.014249934
000390 5a c6 51 3b c5 79 1b 3d e7 14 a8 3b eb 94 cd ba
       0.0032009096 0.037957925 0.005129445 -0.001568464
0003a0 74 9d b7 3b 67 13 db bb a5 37 8b 3b b6 79 7f bb
       0.0056034867 -0.0066856625 0.0042485767 -0.0038982457
0003b0 cc 93 1b 3b 3f df fe bb 70 e5 33 3c 2b 31 21 bd
       0.0023739217 -0.007778078 0.010979995 -0.03935353
0003c0 98 fb 1f bc 19 8e a7 bb d7 e9 8f ba fb 2e 8b 3c
       -0.0097645745 -0.005113375 -0.0010979724 0.016990175
0003d0 b8 e9 56 3b 01 f5 95 bb b6 8a ee ba 6c 85 e1 3a
       0.0032793116 -0.004576326 -0.0018199298 0.00172059
0003e0 9f 45 3d bc 9a 5e f8 bb 61 9e b4 bb 6b 99 8a 3b
       -0.0115522435 -0.0075796368 -0.0055120443 0.0042297146
0003f0 0e 8a 5b ba 46 b8 fe 3b 82 4f be bc 8f 86 61 3c
       -0.0008374759 0.007773432 -0.023231272 0.013764991

bias f4 [12]
000000 61 03 53 3d 9e 69 5f 3d 78 68 c6 bc 89 14 46 be
       0.051516894 0.054544084 -0.024219736 -0.19343771
000010 8a 2e 91 3d e0 5d 8d bc a3 69 92 3d 9b 3c a1 bd
       0.07088955 -0.017256677 0.07149055 -0.07872888
000020 ee de 41 bd 4e 53 40 be 3f 65 0f 3e e6 c1 f3 3c
       -0.047331743 -0.18781778 0.14003466 0.029755544
