deploy/models/booster_gym_v3/model_200.pt (torch, 298211 bytes, 8 tensors)

weight f4 [256, 80]
000000 6e e8 13 bd 50 f4 15 3e 0a b1 8a bd c4 69 f6 3c
       -0.036110334 0.14643979 -0.06772049 0.03007973
000010 f3 f3 6e bd 8e 7e 00 bd a2 a8 e0 3d 71 f1 b0 3d
       -0.058338117 -0.031370692 0.10969664 0.08639801
000020 55 eb 85 bd 5e 12 dc 3d b1 f7 e1 3c ec c2 12 3d
       -0.06539027 0.10745691 0.027583929 0.035830423
000030 98 4b 67 bc 42 8a 5a bc f2 b0 8c bc de 7f 9b 3c
       -0.014117144 -0.013338627 -0.017174218 0.01898187
000040 24 26 0c 3c 80 37 03 3b 38 8e 11 3e 01 33 40 3d
       0.008554015 0.0020022094 0.14214408 0.04692364
000050 4b 89 34 bc 3b 38 24 3c e5 80 1f be 98 0d 0d be
       -0.011019061 0.010023172 -0.15576513 -0.13774717
000060 f3 9b 48 3e f4 7b ca 3b b1 fd 65 3d e2 db 27 be
       0.1959074 0.006179327 0.056150142 -0.16392472
000070 66 71 da be f4 ad 92 bd f3 10 b5 3d 27 43 22 be
       -0.4266464 -0.07162085 0.088411234 -0.15845929
000080 c4 3d e2 3c 81 e4 08 3e 34 47 81 3d 0d 5b 94 3d
       0.027617343 0.13368417 0.06312409 0.07243929
000090 35 f2 2e bc 12 16 b0 3c 6e 48 25 bd d5 25 64 3d
       -0.010677864 0.021494899 -0.040352277 0.055700142
0000a0 34 a2 15 3d 37 64 63 bd 04 05 99 3d 9b 84 e7 bd
       0.036531642 -0.055515494 0.0747166 -0.11304589
0000b0 90 2e 92 3d 70 f5 79 3d d5 72 9b bd cf 3a af bc
       0.07137787 0.061025083 -0.07590262 -0.021390347
0000c0 22 e3 e4 3c ce 5e 29 bd b7 e9 90 bd 20 34 ef 3d
       0.027940337 -0.04135018 -0.070758276 0.11679864
0000d0 27 49 2f 3e 87 6c 15 bd 5b cc c9 3c 09 2e ca bc
       0.17117749 -0.036480453 0.024633577 -0.024680154
0000e0 ce be c1 3c 08 cb f3 bc 4b 83 94 3d 27 39 e8 bc
       0.023650553 -0.029759899 0.07251605 -0.028347565
0000f0 40 bd 54 3c 94 67 00 be 37 5b 00 3c 04 c1 a1 ba
       0.012984574 -0.12539512 0.007834247 -0.0012340848
000100 fe 1b 15 bc 24 f9 70 3b 3a d9 1e 3d 5c 7e d2 3d
       -0.009100912 0.0036769593 0.038781382 0.102780074
000110 46 a5 23 bb 7b be 47 bd 61 30 8c 3d ea 04 2f be
       -0.0024970337 -0.04876564 0.06845165 -0.17091718
000120 6b 31 8e bc a3 f0 1b bb 5e 77 bd bd dc 78 1e 3e
       -0.017357549 -0.0023794554 -0.09251283 0.15475792
000130 d2 60 93 3c c1 b1 a3 3c a4 04 9c bd 9e 6e 45 3d
       0.017990503 0.01998222 -0.07618073 0.048201196
000140 cd 0e 68 bd 94 23 13 3d 0d 23 f9 bd 23 a6 93 bd
       -0.05665474 0.0359226 -0.121648885 -0.072094224
000150 51 43 c7 3d a0 06 9e bc 77 5d 6b bd 32 6d 9b bd
       0.097296365 -0.019290268 -0.057462182 -0.07589187
000160 c8 26 56 3d 72 e6 2a bd 61 dd c4 bd 53 67 66 bc
       0.05228308 -0.041723676 -0.09612537 -0.01406272
000170 4c 25 be 3d 87 24 32 bd a7 16 4e bd 76 f5 6c ba
       0.092844576 -0.043491866 -0.05031457 -0.0009039262
000180 11 db a3 bd 20 cf 63 3d 8d 17 22 bd b5 cb ba 3b
       -0.08000768 0.05561745 -0.03957324 0.0057005533
000190 e3 77 90 bd 0a 81 0b 3d 4e b3 47 bd b2 1f 9c bd
       -0.070541166 0.034058608 -0.048754983 -0.07623233
0001a0 b9 44 4a be 7b 39 17 bd e3 ba 07 be 05 1c 28 be
       -0.19752778 -0.036920052 -0.13254885 -0.16416939
0001b0 af 13 bf bc 7d 52 57 be 0b c2 bf 3d 3d 50 89 3e
       -0.023324816 -0.2102756 0.09363183 0.2681903
0001c0 bd 11 9a be d4 30 0a bd 76 1f 1f bc 02 88 6a 3d
       -0.30091658 -0.033737972 -0.009712091 0.057258613
0001d0 f0 ce 51 3d 1b f3 43 bd e9 f5 cd bc c5 d5 f3 3d
       0.05122274 -0.047839265 -0.025141673 0.11906008
0001e0 e3 1d 8d bd 08 b9 88 3d 66 7f b1 3c c0 48 23 3d
       -0.06890466 0.06675917 0.021667194 0.0398643
0001f0 7b d9 90 3d 78 00 aa 3e 85 78 2c be e4 37 30 bd
       0.07072731 0.33203483 -0.1684285 -0.04302205
000200 3a 17 e2 3d 31 cb 56 bd f5 4e 4e bd 73 3b 2a 3e
       0.11039586 -0.052439872 -0.050368268 0.1662424
000210 4e 71 0c 3d 8e f2 10 bb a1 aa f2 3d cb 60 bb bd
       0.034287743 -0.002211723 0.11848951 -0.09149321
000220 66 44 18 bc 2c cd cb 3d a6 d0 29 3d db e4 7f 3d
       -0.009293651 0.09951243 0.04145875 0.062474113
000230 94 79 04 3d 83 c3 0e bd 2a 31 a3 3c 84 d6 86 bd
       0.03234251 -0.034854423 0.019920904 -0.06583884
000240 84 25 ae bd 1d 6e 0f bd fb f7 75 3d e7 aa aa bd
       -0.08503249 -0.03501712 0.060050946 -0.08333378
000250 ae 98 b0 3c 91 44 a4 bb 8e b2 9a 3d 92 53 89 3e
       0.021557178 -0.0050130566 0.07553588 0.26821572
000260 69 19 4e 3c 5b 12 ab 3c bb e5 67 bd 17 06 a1 3d
       0.0125793 0.020882776 -0.056615572 0.0786249
000270 eb d6 b3 3d 3b 46 14 3e 21 0e b1 3c a3 d8 73 be
       0.08781227 0.14479916 0.021613183 -0.23813109
000280 f4 2c 0e 3e 37 94 fd bc 71 c8 46 3d 24 15 f4 bd
       0.13884336 -0.030954463 0.048531 -0.11918095
000290 f1 f1 26 3c ba 7c b0 bc 55 3f 1d bd 59 36 eb bc
       0.010189519 -0.02154385 -0.038390476 -0.028712438
0002a0 a3 e4 e5 3c e2 90 d5 3d ca fa 2f bc e0 6e f8 bd
       0.028063124 0.10428025 -0.010740945 -0.12130523
0002b0 53 14 0f 3c 37 59 6b 3d a0 69 19 3d aa 34 92 bd
       0.008732873 0.05745813 0.037454247 -0.07138951
0002c0 5c 64 1f 3d ff a0 e4 bd a9 1b c5 3d c9 8a 67 3c
       0.03891407 -0.1116352 0.096244164 0.01413221
0002d0 79 3f 7c b9 81 08 e1 3d 59 3c ea 3d 91 20 e4 bd
       -0.00024056238 0.1098795 0.11437292 -0.11139024
0002e0 93 c9 9f 3b 9b 88 0b 3e 12 0f 58 bc e1 a8 09 3d
       0.0048763244 0.1362633 -0.013187187 0.03360832
0002f0 1f b9 d4 3c 1a 34 9a bd 63 c8 a9 bd 4b b6 de be
       0.025967179 -0.07529469 -0.08290174 -0.43498453
000300 c5 0e 8c 3e 97 28 22 3d e1 c2 97 3b e9 7c 14 3e
       0.27355018 0.03958949 0.0046313857 0.14500774
000310 d8 2e a2 3d 00 b5 fd 3d ac 6d 4d bd d1 f3 0c be
       0.07919091 0.12388039 -0.05015342 -0.13764884
000320 2b 13 5b 3c 83 ab 19 bd ac d7 2b bd 1e d4 15 3e
       0.013371269 -0.037517082 -0.041953728 0.14631698
000330 6b c7 19 3e b0 f9 1a 3d d0 2d e4 3d 1d 5c a5 3d
       0.15017478 0.037835777 0.111415505 0.0807421
000340 fd 42 80 3b 72 e4 e5 bc 66 bd e8 b9 9a ff a9 bc
       0.0039142356 -0.028063033 -0.000443916 -0.020751763
000350 b7 5c 82 3e 81 af 6c bd f0 2f 12 be 04 f8 1b bd
       0.2546136 -0.05778456 -0.14276099 -0.038078323
000360 ad 12 06 bc ae 65 73 bd 20 93 0e bb 28 89 be 3d
       -0.008183164 -0.05942314 -0.0021755174 0.09303504
000370 e6 8b b8 bb 7e 15 6a 3d d5 f5 95 bd 5e f6 55 3d
       -0.0056319116 0.057149403 -0.07322279 0.052236907
000380 75 2d 70 bd a5 63 85 3d 3f 1a d7 3b 91 31 cb 3d
       -0.0586371 0.06513146 0.006564408 0.099215634
000390 60 75 c6 3d 23 bb b8 3d e1 fe ed 3d 10 ed 2b be
       0.09690356 0.090200685 0.1162088 -0.16789651
0003a0 cc a3 39 be e0 2f 81 bd 78 e0 94 3d 2b d2 23 3d
       -0.1812889 -0.063079596 0.072693765 0.039995354
0003b0 10 6b 1e bd a0 46 e3 bd 00 a3 62 3d 0d 72 3a 3d
       -0.03867632 -0.11097455 0.05533123 0.045518924
0003c0 8f b3 b7 be 5e ad 84 3e 51 00 8a 3d c1 bd 00 be
       -0.3587918 0.2591352 0.067383416 -0.12572385
0003d0 40 8b 24 be 76 95 15 3d 6c f0 8b bd 73 d1 dd 3d
       -0.16068745 0.03651949 -0.06832966 0.10830965
0003e0 af 8c 92 bd 47 9a 0c 3d e1 4c d6 3d af 78 78 3d
       -0.071557395 0.034326818 0.10463882 0.060661968
0003f0 73 2a b4 bd 2f 14 2b 3d ad 07 a6 3d 0a ab 83 bd
       -0.08797159 0.041767295 0.08106933 -0.064291075

bias f4 [256]
000000 7c 4b a6 bd 12 c8 9e 3c e3 22 b2 3d aa 4f a2 3d
       -0.08119866 0.01938251 0.0869806 0.07925351
000010 27 e9 ce 3d 52 27 c0 3c 80 52 5d bb 9b 93 a2 bd
       0.10103064 0.02345625 -0.0033771098 -0.0793831
000020 4d fc 37 3c 82 27 9d 3c 7d 19 77 bd e0 95 c8 bd
       0.011229587 0.019183878 -0.060327042 -0.097942114
000030 11 25 e5 3d b6 29 33 bd aa 8e bd bd a8 8d f4 bb
       0.111887105 -0.04374095 -0.09255727 -0.007463176
000040 08 be 01 bd 03 72 4f 3d c4 03 e7 3d a6 da a0 bd
       -0.03167537 0.05064584 0.11280015 -0.07854204
000050 86 88 9b 3c 4a 8a 26 bd cb 1e dd 3d e5 02 d4 bd
       0.018985998 -0.040659226 0.10796889 -0.103521146
000060 8d 82 d1 bc 6a bf 74 3d 2b 9b ca 3d f1 65 9c 3b
       -0.025574947 0.05975286 0.09892877 0.0047728946
000070 39 a2 b3 3d 3d e2 95 bd e1 28 e8 bc 4e 70 d3 bd
       0.08771176 -0.07318542 -0.028339805 -0.10324155
000080 ab 28 31 3d d7 6e 99 3d 96 5c 88 bc 55 5c e3 bd
       0.043251675 0.07491844 -0.01664571 -0.11101595
000090 ac 41 5b bd 64 7f 38 bd f1 da c2 bd 02 e8 b6 3d
       -0.053529426 -0.045043364 -0.09514416 0.08930971
0000a0 3d 35 a5 3c ef ed ce bd 20 f5 4f 3b a4 6f 91 3d
       0.020166988 -0.10103976 0.00317318 0.07101372
0000b0 33 06 43 3d 96 2d 1f bd 24 ea f8 3d 88 12 82 3d
       0.047613334 -0.038861834 0.12154034 0.06351191
0000c0 50 a7 b4 3b a4 65 a4 bd 73 89 cf 3d bc 84 3b bd
       0.0055131093 -0.08027199 0.10133638 -0.045780882
0000d0 3d d5 2c 3d e1 07 3e bd 12 59 44 3d c7 6d 68 3c
       0.042195547 -0.046394233 0.047936507 0.014186329
0000e0 eb 64 5a bd 22 da a4 3d c5 61 94 bd e7 ba 0d 3c
       -0.0533189 0.08049418 -0.072452106 0.008650518
0000f0 83 3c 74 3d 4d b5 af bb d8 fa ca 3d 70 96 98 3d
       0.05962802 -0.005362189 0.09911126 0.07450569
000100 7a 76 75 bd 16 15 81 3d 6a 15 a1 3d 18 1e db bd
       -0.05992744 0.0630285 0.078654125 -0.10699099
000110 67 23 81 3d 82 1d b5 3d 5c 79 35 bd 9b fc 00 3d
       0.063055806 0.08843519 -0.04430519 0.031490903
000120 c5 a5 28 3c 0f c3 65 3d 43 df cd 3d eb bf c3 bc
       0.010293429 0.056094225 0.100523494 -0.023895225
000130 81 34 fa bc b4 6d bf 3c c2 ca e0 bc bf 52 39 3d
       -0.030542614 0.02336774 -0.027440432 0.04524493
000140 21 08 aa bd 21 81 f2 3d 2c ef 86 bd cd 56 00 3d
       -0.08302332 0.11841036 -0.06588587 0.03133278
000150 13 41 8f 3d fb 78 11 3d bd 05 48 bd 88 ac a8 bd
       0.06994834 0.035515767 -0.048833597 -0.08236033
000160 09 3a 4a 3d e4 75 9d bd 3b 7b 37 3b 82 4c 73 bd
       0.049371753 -0.076885015 0.0027997035 -0.059399135
000170 98 fc 1f bd e9 0e 88 3d 22 19 e1 bd ce d7 79 3c
       -0.03905925 0.06643469 -0.10991122 0.015249206
000180 55 ac a6 bd aa da 7b bd d5 c8 a6 3d 72 12 5a 3d
       -0.081383385 -0.06148783 0.081437744 0.053240247
000190 50 fb a9 3d 7e 47 8f 3d 6c ff 92 bd 59 b5 bc bd
       0.08299887 0.06996058 -0.07177624 -0.09214277
0001a0 93 a0 d3 3d dc f4 dd bd 58 ed c4 3d 01 71 c3 bd
       0.103333615 -0.10837719 0.09615582 -0.09543038
0001b0 38 11 27 3d 67 c3 9f bc e4 63 56 bc 9f c0 25 bd
       0.040787905 -0.019502355 -0.013085339 -0.0404669
0001c0 c9 6a e3 3d 8e 29 98 3d bb 03 0e bd 50 92 72 3d
       0.11104352 0.07429801 -0.034671526 0.059221566
0001d0 91 32 92 bc 93 03 17 bd 14 32 bb 3a 9f 9e 7c bd
       -0.017846378 -0.036868643 0.0014281892 -0.06167471
0001e0 87 9d 5a 3d fd 58 66 3b 39 2f 23 3a 45 3f 91 3d
       0.053372886 0.0035148256 0.0006224993 0.07092146
0001f0 13 c6 66 3b 1c a3 78 bc 8a 5c db bd 90 b4 86 3d
       0.0035213276 -0.015175607 -0.1071101 0.06577408
000200 af fb ef 3b c1 4e 80 bc fd 72 17 3d de 64 f4 3c
       0.007323704 -0.015662553 0.036974896 0.029833253
000210 a2 17 5c bd d1 4f 9c bd 09 fd 34 bd c8 42 ed 3d
       -0.053733476 -0.07632411 -0.044186626 0.11585003
000220 94 5d a0 3d 17 90 93 3d c1 28 c1 3c 90 f6 60 bc
       0.078303486 0.07205217 0.023579003 -0.01373066
000230 2c 84 f0 3c bb 50 db 3c e5 c0 0d 3d 38 41 1c bd
       0.0293599 0.026771894 0.034607787 -0.038148135
000240 ad a0 2f bd e2 14 7d bd 49 5c 57 bd 97 19 66 bc
       -0.04287784 -0.061787494 -0.052578244 -0.014044187
000250 17 3d 8e 3d de 71 b8 bc e0 8f 65 3d fb 15 db 3d
       0.06945246 -0.022515234 0.056045413 0.10697552
000260 6b c2 a9 3c c1 07 bf bd 78 b1 a3 bb bf 82 28 3d
       0.020722589 -0.09327651 -0.004995521 0.041140314
000270 34 7e ad 3d ac 98 27 3c e5 63 0a be 15 49 b1 3d
       0.08471337 0.010229271 -0.13514669 0.086565174
000280 e9 d3 93 bd 02 7f 07 bc 18 b8 b2 3d 2c 1d ff 3d
       -0.07218153 -0.008270027 0.08726519 0.12456736
000290 d4 62 f8 3d e9 26 ab 3c 00 db a7 bd 6b f1 74 bd
       0.12128225 0.020892577 -0.08196068 -0.059800547
0002a0 b1 4b 8f 3d 2a cd 52 bd 88 64 7d 3d 3c 2a 68 3d
       0.06996859 -0.05146519 0.061863452 0.056680903
0002b0 5b 1f 48 bc 51 00 65 3d e7 c5 6b 3d 37 f3 a0 3d
       -0.012214507 0.055908505 0.05756178 0.078588895
0002c0 95 95 94 bd 83 05 29 bd 86 da 92 3d 09 b6 f2 bc
       -0.07255093 -0.041265022 0.07170586 -0.029627817
0002d0 a4 64 47 bd be 84 3d bd 63 86 a1 bd 95 2d cd 3c
       -0.048679963 -0.04626917 -0.0788696 0.02504615
0002e0 f2 f5 56 bc d7 91 aa bb 44 57 b2 bd 42 25 c0 bc
       -0.013120161 -0.0052053737 -0.08708051 -0.023455266
0002f0 77 a5 a3 3c 67 23 33 3c 27 54 ac bd 51 9c 1e bd
       0.01997636 0.010933734 -0.08414488 -0.038723294
000300 61 4b eb 3d f8 2b 53 bd 7c 6a 81 bd 09 05 4a bd
       0.11488987 -0.051555604 -0.063191384 -0.04932121
000310 d2 7f 9a bc 11 ae 15 bc 9b 57 9a 3d 51 56 a9 bd
       -0.018859778 -0.009135739 0.07536241 -0.08268417
000320 cf 04 b5 bd de db 2b 3d 2f dd 72 bd ae b5 cf bc
       -0.08838808 0.04195773 -0.05929297 -0.025355186
000330 ee 3a 7c 3d 86 79 2b bc ae 2c 2b 3d 89 dd 21 bb
       0.061579637 -0.010465985 0.041790657 -0.0024698696
000340 96 11 02 3d 30 76 f9 3c dc f9 57 bc 17 48 7a bd
       0.031755053 0.030451864 -0.01318213 -0.061103906
000350 a7 00 d6 3b 54 42 b7 bd 5a 4a 16 bd 83 84 b7 3c
       0.0065308395 -0.08948198 -0.036692 0.022402054
000360 58 73 26 3d 21 a8 cf bc 9f d7 fc 3c c3 b8 ca 3d
       0.040637344 -0.025348725 0.030864535 0.09898522
000370 85 20 bb 3c 5a ef 55 bd d3 36 0c 3d 11 a1 80 3d
       0.022842655 -0.052230217 0.034231972 0.06280721
000380 28 e3 73 3c 05 2f ab bd 8a a3 09 3d 58 b0 c1 bd
       0.014885701 -0.08358578 0.03360323 -0.09457463
000390 f1 71 bd bc 8a 15 cf 3d 77 e3 6e 3c 3c fa 24 3d
       -0.02312562 0.1011153 0.014580599 0.040277705
0003a0 3e 00 58 bc 60 13 97 bc 9f 50 8e bd 15 29 ce bb
       -0.0131836515 -0.018441856 -0.06948971 -0.0062915185
0003b0 c7 5d 6a 3d ef fe 34 bd 5c 9f 8b 3d b5 9c a5 3d
       0.05721834 -0.044188436 0.06817505 0.0808653
0003c0 bf 37 3c bd ad 7d fd bc 36 28 20 3c e7 e8 0b 3d
       -0.0459516 -0.030943716 0.009775212 0.03415766
0003d0 9f b1 65 3d 04 67 47 bd 9e f8 da bc 1d 7a 26 3c
       0.056077596 -0.048682228 -0.026729878 0.01016095
0003e0 3a 69 dc bd e6 ed d6 bd 77 a5 a7 3d 59 8d 39 bc
       -0.10762258 -0.10494594 0.08185857 -0.011325204
0003f0 84 b2 2b bd 67 7d 61 3c 11 9b 40 bd 2c b8 86 3d
       -0.041918293 0.013762808 -0.047022883 0.06578097

weight f4 [128, 256]
000000 13 cb 07 3d 4d e0 e0 3c 79 00 6d 3d 4c 1b 17 3a
       0.03315265 0.027450705 0.05786178 0.00057642604
000010 ee 5c 70 bb cf 07 03 bc ac 7d 07 3d bf 82 ac 3c
       -0.0036676484 -0.007997467 0.033078834 0.021058438
000020 06 fc ba bc 2c ab e2 3c e7 15 db bc b7 e9 35 3a
       -0.022825252 0.027669512 -0.026743842 0.0006939428
000030 bf ff b8 3d 02 ac 20 bd 6f 53 8e 3d b6 26 2a bd
       0.09033155 -0.03922654 0.069495074 -0.041540824
000040 bb 01 8f bd 0f 13 97 bd ed ab 59 3d 86 3a b8 bb
       -0.06982752 -0.07376682 0.053142477 -0.005622211
000050 4b 97 6d 3d 9c 26 ca 3c 15 4d 4c bd 72 20 0e 3d
       0.058005612 0.024676614 -0.0498782 0.03469891
000060 1c 7d ea 3c 46 45 26 3c 9d 42 3e bd d8 73 6c 3d
       0.02862411 0.010148352 -0.046450246 0.057727665
000070 56 7d c7 3d c5 de 3b bd 92 99 f1 3c ae b4 f5 3c
       0.09740703 -0.045866746 0.029492173 0.029993381
000080 c3 09 97 3c a9 4b 57 3d 12 d8 db bb d4 e8 aa 3c
       0.018437272 0.05256239 -0.006709107 0.020862974
000090 3a 76 b5 3b ce a2 0e ba 8c a5 60 3c 92 f2 e3 3c
       0.0055377753 -0.000544113 0.013711344 0.027825627
0000a0 48 86 b0 bc b3 43 35 3d 3e 83 01 bd ef d7 92 3c
       -0.021548405 0.044254016 -0.031619303 0.01792523
0000b0 49 99 80 bd 43 5f 45 3d b5 b2 b6 bc f6 1c 42 3d
       -0.06279237 0.04818655 -0.022302011 0.0473909
0000c0 d1 48 a8 3d d6 5f 82 3d d1 2c 65 bd 34 c0 ed 3c
       0.082170136 0.063659355 -0.055950943 0.029022314
0000d0 c5 db 0f bd aa 2d ed bc 50 88 5a bc d7 0d 92 bd
       -0.035121698 -0.028952438 -0.0133381635 -0.07131546
0000e0 68 bb 0c 3c 8c 8b 16 3d a1 8a 75 3d 72 99 8e 3d
       0.008589603 0.036754176 0.05994666 0.06962861
0000f0 d2 48 3a bd 4d 6b 21 3c 50 89 93 bd 86 7f 9e 3c
       -0.045479603 0.009852243 -0.07203925 0.019347917
000100 e1 79 15 bd 45 00 98 3c b0 04 07 bd 02 c2 56 3d
       -0.036493186 0.018554816 -0.032963455 0.052431114
000110 35 8c 3e 3c 02 90 68 3c e2 80 7b b9 91 da b0 3c
       0.011630108 0.01419449 -0.00023985238 0.021588596
000120 13 cd b6 bc ec 2c 2d bc c5 ce 86 3d 11 d8 1f 3d
       -0.022314584 -0.010569792 0.06582407 0.039024416
000130 aa 17 0b 3d 3d fe 76 bd 8d d4 e2 bc c5 aa ec 3c
       0.033958115 -0.060301054 -0.027689243 0.028890023
000140 11 0d 2f 3d 60 86 56 bd 5b 37 5c 3c 9d 9e e4 bc
       0.04273707 -0.052374244 0.013440932 -0.027907664
000150 61 37 8f bd ff 24 60 3c a0 a0 83 3d 4b 5e 1a 3d
       -0.069929846 0.013680696 0.06427121 0.03768758
000160 e6 09 db bc 04 8c 22 3d 88 4c 14 3d 41 16 77 bb
       -0.026738118 0.03968431 0.0362058 -0.0037702473
000170 25 5b 93 3c f9 60 9c bb a7 0c b7 3c 27 bf ed 3c
       0.017987797 -0.004772302 0.0223449 0.029021813
000180 10 2a c3 3d 7b 3e 52 3d 0a 6f 8a 3d 8a 08 42 3b
       0.09529507 0.051329117 0.0675946 0.002960714
000190 05 3f 1a bd 20 f2 8e 3d f6 ed 38 bd 97 56 08 bc
       -0.037657756 0.069797754 -0.045148812 -0.008321426
0001a0 11 4c 76 bb 14 5e b3 bc 3f 16 00 3d 8f fd 8a 3c
       -0.003758196 -0.021895446 0.031271216 0.01696661
0001b0 6a 61 82 3d bf 67 bc bc 18 03 3f bc 76 5d bf 3b
       0.063662365 -0.022998689 -0.011658452 0.005839999
0001c0 b6 73 81 3d 5b 30 94 bc cd 86 ce bb fa f6 c4 ba
       0.06320898 -0.018089464 -0.0063026906 -0.0015027218
0001d0 09 bc 85 3d 72 f9 a3 3b a8 1b ab 3c 20 bd 96 3b
       0.065300055 0.0050041014 0.020887211 0.004600182
0001e0 c1 79 7b bb 4f b1 85 bc f4 d7 03 3d 2a 03 17 bd
       -0.0038372132 -0.016319899 0.03218837 -0.03686825
0001f0 9a ef 1e 3d a1 42 cc bc 91 b7 06 bd 16 44 9b bc
       0.03880272 -0.024934115 -0.032889906 -0.018953364
000200 44 a6 2c bc 4a 9c bf bc 2f 01 87 bc 0c 78 fe bc
       -0.010537688 -0.023389954 -0.016480057 -0.031063102
000210 e0 2e 8f bc 46 a8 d7 bc c7 59 45 3d 91 e0 67 3c
       -0.017478406 -0.026325356 0.04818132 0.014152662
000220 da 1c 4f 3c 53 a4 5f bd d8 2d a8 bb b3 4f 19 bc
       0.012641156 -0.05460007 -0.005132418 -0.009357381
000230 17 4f 64 bd 24 fb 47 3d fb 40 09 bd 98 76 89 bc
       -0.05573949 0.04882349 -0.033509236 -0.016780183
000240 0f 32 8a 3c 5e 3b c3 bc 29 9b 5f 3d d6 22 d5 3c
       0.016869573 -0.02383202 0.05459133 0.026017588
000250 97 d8 33 3d ea 04 0d 3a 5c 87 4e 3c 9d a7 4e 3d
       0.043907728 0.00053794554 0.012605514 0.050452817
000260 7e b3 96 bd 3a e0 14 3d 8d 6a 3a 3d 37 aa 3b bd
       -0.07358454 0.03634665 0.04551177 -0.045816626
000270 7f 78 e0 3c 2b d4 85 3d a3 dc 1a bb 29 1f a8 bb
       0.027401207 0.065346085 -0.0023630045 -0.0051306677
000280 fb 3e 5a bd 82 91 33 3c 1d 37 a1 bd 91 60 ec bb
       -0.05328272 0.010959985 -0.0787184 -0.00721366
000290 6b 75 25 3d 84 78 3d 3d 73 50 65 3c ca 74 e6 3b
       0.04039518 0.04625751 0.013996231 0.0070329653
0002a0 74 82 2e bb 7e 2a e0 ba b6 48 78 bd 63 e3 66 3d
       -0.002662805 -0.0017102507 -0.060616218 0.056369197
0002b0 75 03 3b bc 8a 02 00 3c 11 43 50 3c 8d e8 33 3d
       -0.011414398 0.007813105 0.012711302 0.04392295
0002c0 c3 b7 80 3d ec f7 a9 bb 97 ba 16 bd 25 13 39 3c
       0.0628505 -0.0051870253 -0.03679904 0.011296068
0002d0 5e 02 58 bd 08 29 46 bd 9a 56 0a 3c 17 fa 95 3d
       -0.052736633 -0.048378974 0.008443499 0.073230915
0002e0 80 52 26 3d 35 7e b4 3c 63 8b fb 3b e6 ad 61 3d
       0.040606022 0.022032836 0.0076765283 0.055097483
0002f0 c3 ee 6e bd 42 7a ac 3c 82 23 22 3c 1c 61 a2 bb
       -0.05833317 0.02105439 0.009896161 -0.004955424
000300 29 c1 40 3c 80 fe 02 3d d3 26 75 bc 2f 1f d5 bb
       0.011764803 0.03198099 -0.01496287 -0.0065039615
000310 c0 a1 60 3c 90 b4 33 3d fc 97 95 3c 1b b0 95 bc
       0.013710439 0.04387337 0.018260948 -0.01827245
000320 9f c5 e7 bc 44 47 01 3c 29 66 65 3c 38 14 65 3d
       -0.028292475 0.007890526 0.014001408 0.055927485
000330 e1 72 ee bc df 79 f1 3c 8c c1 25 bd 76 3a 21 3d
       -0.029107513 0.029477058 -0.040467784 0.039362393
000340 14 23 06 bd cf f2 06 3d f2 54 b4 bb 9b 37 30 bd
       -0.032748297 0.032946404 -0.0055032903 -0.04302178
000350 8f ae 09 3d 0d 9a 0c ba e1 44 1a 3d 20 9b f4 bc
       0.033613738 -0.00053635315 0.037663344 -0.029859126
000360 bb 26 24 bc e6 ae 76 bd 90 63 e6 bc 53 cd 0f bc
       -0.010019 -0.06022539 -0.028123647 -0.00877698
000370 36 4b 26 3c 31 a2 64 bd fd da 53 bd 8c 9d a8 3b
       0.010149768 -0.05581874 -0.051722515 0.005145734
000380 e0 b5 13 3d 1c 8a 02 3b af 9f 12 3d a8 59 1a 3c
       0.03606212 0.0019918745 0.035796817 0.00942079
000390 d8 1a 48 bd f6 af 8f 3c 53 78 a0 bd b4 ff 34 3b
       -0.048853725 0.01753996 -0.0783545 0.0027618231
0003a0 30 d5 cf 3c 82 18 2d bd f6 fb 41 bd 6c df cd 3b
       0.02537021 -0.0422597 -0.04735943 0.0062827375
0003b0 ae 2e 83 bd c0 05 3a 3b 9f 1d 9f 3d 20 e4 28 bd
       -0.06405388 0.0028384775 0.07769322 -0.041233182
0003c0 c9 2f a6 3c e4 5b 0a bd 0e 01 fb bc fb 63 12 3d
       0.020286458 -0.03377904 -0.030640151 0.03573988
0003d0 c0 c4 c2 3b 0f 42 5c 3d d0 2c 72 bd fc 14 0a 3d
       0.0059438646 0.053773936 -0.059124768 0.03371142
0003e0 69 f9 76 3c 38 d1 65 3c 4a a7 70 bc 98 fa 56 bc
       0.015074112 0.014026932 -0.014688322 -0.01312127
0003f0 d7 53 cb 3d d9 1d ce 39 7d 3c eb 3c 11 94 69 bc
       0.099281006 0.0003931362 0.028715366 -0.014256493

bias f4 [128]
000000 fc 00 c4 bc ec 35 63 3d c2 88 23 bd 74 d4 23 bd
       -0.02392625 0.055471346 -0.039925344 -0.039997533
000010 6c 09 91 3c 25 3c 01 bd 8c f3 b3 3c 22 6d 25 3d
       0.017704688 -0.0315515 0.021966718 0.04038728
000020 f2 f7 2e 3d 61 5a 54 bb 83 83 e4 3c 0d b9 00 bd
       0.042716928 -0.0032402503 0.02789474 -0.03142648
000030 d5 43 48 bd 56 2c 42 bc 15 e4 28 3c 09 58 12 bd
       -0.048892815 -0.011851391 0.010308285 -0.035728488
000040 67 fb 33 bc b3 f7 06 3d 72 1b 3d 3d 1c e2 d5 bc
       -0.010985232 0.032951068 0.046168752 -0.026108794
000050 89 08 be 3c a1 b0 61 bc b9 08 4a 3c db ea 74 bd
       0.02319743 -0.013775022 0.012331181 -0.059794288
000060 fa c3 04 bd d6 46 45 3d cb 73 e5 3b 67 ff 16 bc
       -0.03241346 0.048163258 0.007002329 -0.009216166
000070 15 03 4f 3c e3 cc 3e 3c dd f6 62 bc 63 13 22 bd
       0.012635012 0.0116455285 -0.013852802 -0.03956927
000080 72 44 dd 3c c1 be 2c bd 55 5e 82 bc 77 42 45 bd
       0.027010176 -0.042174105 -0.015914122 -0.04815909
000090 3f 0b 90 bc 84 fb bd 3c 11 46 00 3d e9 8b c5 bb
       -0.017583488 0.023191221 0.03131682 -0.0060286415
0000a0 4f 81 26 3d bd 1b 80 3c bd dd ab 3c 64 c1 01 39
       0.040650662 0.015638227 0.020979756 0.00012374442
0000b0 9f ea dc bc 65 7e 9f ba f7 ff 5d 3d 1c bd f5 3c
       -0.026967345 -0.0012168406 0.054199185 0.029997401
0000c0 bb 0e d4 bc d0 51 84 3c e9 17 11 bd 79 f7 81 bd
       -0.02588593 0.016152292 -0.035423193 -0.0634603
0000d0 ad 56 a4 bc 12 0b 61 3c 56 6b 21 3b 3f 97 35 bd
       -0.020060861 0.0137355495 0.0024630628 -0.044333693
0000e0 0f 59 15 bb 9f 08 03 bd a0 91 b0 3c c5 41 43 bd
       -0.0022788679 -0.031990644 0.021553814 -0.047670145
0000f0 52 07 44 bc 20 01 33 bb 25 30 29 38 6a 74 a6 3c
       -0.011964636 -0.0027313903 4.0337578e-05 0.020319182
000100 99 f2 fb 3c 5c d1 52 bc b3 2f 89 bc 7f 9c bf bb
       0.030755328 -0.012867298 -0.016746378 -0.005847513
000110 bf 9e 24 3d 37 53 4a 3d dc f6 73 3c 7d 46 4e 3d
       0.040190455 0.049395766 0.014890399 0.05036019
000120 90 99 1b bd 93 90 0d 3d 27 e3 f2 bc 75 13 94 bd
       -0.037988245 0.034561705 -0.02964933 -0.07230274
000130 9a d2 e2 bc dd 4e d1 3a eb 90 97 3c b7 26 eb bc
       -0.027688313 0.0015968938 0.01850172 -0.028704984
000140 32 b6 8d 3c ed 21 df 3a c1 38 0d bd 12 ad 34 bd
       0.017298792 0.001702366 -0.034477953 -0.044110365
000150 08 17 a9 bc 1f 46 43 bd e3 58 11 3c ad d9 11 3d
       -0.020640865 -0.047674295 0.00887129 0.035607982
000160 7c f9 8d 3b d5 48 41 3d 82 f6 bd 3c c1 38 15 bd
       0.0043327194 0.0471886 0.023188833 -0.036431078
000170 58 54 1e bd 99 e5 8f 3b 27 41 6d bd 8f 62 8c 3c
       -0.038654655 0.004391384 -0.057923462 0.01713684
000180 46 bb c0 3b bf 97 c8 ba 42 db 18 3d b2 a1 71 bd
       0.0058816997 -0.0015304013 0.037318476 -0.058992095
000190 eb 0f c6 3c a8 32 b2 bc 71 e2 1d 3d 9f b9 25 3d
       0.024177512 -0.02175267 0.03854603 0.040460225
0001a0 ef bf 2c bd 13 60 a9 bc e6 f2 d2 3c 31 5d 88 3c
       -0.04217523 -0.020675695 0.025750589 0.016646
0001b0 d5 e7 37 bd a4 a8 c3 3c 84 21 b5 3c b2 ee 47 bd
       -0.044898827 0.023884125 0.022110708 -0.048811622
0001c0 4f d8 45 ba 09 ed 31 3d 50 10 27 bd de 5e 2d 3d
       -0.0007547186 0.043438945 -0.04078704 0.0423268
0001d0 1e 81 6c 3c 6b f0 59 bc e8 5f c0 bc 07 41 c7 3c
       0.014435081 -0.013301949 -0.023483232 0.024323
0001e0 e0 7c 47 bc 95 82 bc 3b a4 a3 4b bd 6f d5 46 3d
       -0.012175769 0.0057528713 -0.049716607 0.04854339
0001f0 45 46 f8 3c 75 cc 97 bc ee 2d 74 bd 78 dd 07 3d
       0.030306945 -0.01853011 -0.059614114 0.033170193

weight f4 [128, 128]
000000 49 c7 46 bd b9 44 b1 bb e6 d6 ae 3d 45 1b 26 3d
       -0.048529897 -0.0054098037 0.085370824 0.04055335
000010 96 3a 24 bd 38 79 2c 3d 7d 1c 2f bd 98 4f 70 3b
       -0.040094934 0.04210779 -0.042751778 0.0036668535
000020 25 49 67 bb bf 3d 35 3d 17 4d 35 bc 17 5f ca 3d
       -0.00352914 0.04424834 -0.011065743 0.09881418
000030 73 e5 4f 3d 07 c8 1f bc 04 e3 0b bd 22 75 3f 3c
       0.05075593 -0.00975228 -0.034152046 0.0116856415
000040 7c 1c 8e bd 4c 6d 9c 3c bc 14 24 bd d4 8c 91 bd
       -0.06939027 0.019095086 -0.040058836 -0.07106939
000050 c2 df fa 3c 8b 0e ed 3c 1f b4 ba 3d a6 d5 f7 bb
       0.030624274 0.028937599 0.091163866 -0.0075633107
000060 90 33 16 3c 2b 1d a8 3d 96 08 89 3d 89 89 2d bd
       0.009167567 0.08208688 0.06691091 -0.042367492
000070 c1 e0 51 bd 94 78 b9 3d db d8 ca bc be 08 a7 39
       -0.051239733 0.090562016 -0.024761608 0.00031859236
000080 6b cc e5 bd 79 2b 92 bb 67 38 ef bc e9 61 7e 3a
       -0.1122063 -0.0044607488 -0.0292017 0.0009703921
000090 c2 05 88 3d f6 e9 81 bc 85 77 39 bc 47 08 a2 3d
       0.06641723 -0.015858632 -0.01132 0.07911735
0000a0 b1 fb 1e 3d 9d 62 30 bc 00 d0 30 bd 9c 2a 12 bc
       0.03881425 -0.010765699 -0.043167114 -0.008921292
0000b0 b6 43 09 bc 0d 7d 6f bc a6 f0 89 bd cd cd e0 ba
       -0.00837796 -0.014617217 -0.06735353 -0.0017151177
0000c0 bf da 20 bc 92 74 4e bd cb 82 9e bb a6 0d ce 3d
       -0.009817778 -0.05040414 -0.004837369 0.10061197
0000d0 7f af 0d bd 42 6d 6b 3d 99 2c 50 3d 66 01 1b 3d
       -0.034591194 0.057477243 0.05082378 0.03784313
0000e0 aa a3 9f bd d7 e6 2a bc aa 04 11 bd 1d 33 42 3d
       -0.07794888 -0.010431013 -0.03540484 0.047412027
0000f0 cf f4 cc bc d7 b9 8b bc 05 96 90 3c ea 67 a7 3d
       -0.025019078 -0.017056389 0.01764966 0.08174117
000100 68 47 84 3d 2e d9 03 3d 24 fc c5 3d 55 df bf 3c
       0.06458932 0.03218954 0.09667233 0.023421923
000110 24 74 82 bd 9f 8d b0 3d c6 e6 4a bc ad ba 84 bd
       -0.06369808 0.08620762 -0.012384122 -0.06480918
000120 a6 cd 09 3d 8a 4a 68 bd 08 0a 80 bc 64 ff 9b 3d
       0.033643387 -0.05671171 -0.015629783 0.07617071
000130 0b 66 63 3d 67 56 d5 bc 90 39 e0 3a 5c 99 17 3c
       0.055517238 -0.026042176 0.0017106999 0.009252872
000140 49 2d 84 bd f7 12 7d bd d3 ba 9f bd ae 5b c7 3d
       -0.0645395 -0.061785664 -0.07799306 0.097342834
000150 4b b3 e1 3b 56 7b 2d bd a5 32 e9 bc ec f6 7a bd
       0.0068878285 -0.04235395 -0.028466532 -0.06127064
000160 bf ba 00 3d bf 96 b7 bd 1e 45 cd 3c 54 80 49 3c
       0.031428095 -0.089642994 0.025057372 0.012298662
000170 38 73 57 3d 12 2e 5c 3d 3e 84 47 3d 4d 5f 1a bd
       0.052600116 0.053754874 0.0487101 -0.037688542
000180 28 bd 7d bc 44 3d 2a bd c0 0b 1a bd ac 95 82 bc
       -0.015486993 -0.041562334 -0.037608862 -0.01594051
000190 0f ea 50 bd fe 83 de bd 33 b7 7f 3d d8 41 a4 bc
       -0.051004466 -0.10865019 0.06243057 -0.020050928
0001a0 14 f2 56 bc b3 c3 02 3d 13 51 78 3d 22 7b a2 3c
       -0.013119239 0.031924915 0.060624193 0.019834105
0001b0 4c 5d 81 3d 19 7b 52 bd 1c 50 e1 3c 6b b7 07 3c
       0.06316623 -0.051386926 0.02750402 0.008283476
0001c0 53 c2 3f bd 24 ad ae 3d f0 43 63 3c 9a 61 cd bd
       -0.04681618 0.08529118 0.013871178 -0.10028382
0001d0 11 6a 28 3d 09 03 46 bd b5 c4 80 bd a2 e6 24 3d
       0.041116778 -0.04834274 -0.06287519 0.04025901
0001e0 fc cd a8 3c c9 8e 04 bc 41 ae 00 3d 72 91 cf bc
       0.020606034 -0.008090683 0.03141618 -0.025337908
0001f0 64 7f 9e bd a9 0f 76 3d 3b cf 5e bd 28 cd 1e 3d
       -0.077391416 0.06007353 -0.05439685 0.03876987
000200 dc 97 63 3d 26 27 da bd 05 f0 3c 3d aa f6 74 3a
       0.055564746 -0.10651998 0.046127338 0.0009344617
000210 2d 01 77 bc 87 fe 2a bc 04 ac 76 3d 99 55 78 3d
       -0.015075964 -0.010436661 0.06022264 0.060628507
000220 0c ff 63 3d 21 97 19 bd 33 80 5e 3d 14 a6 84 3d
       0.055663154 -0.037497643 0.05432148 0.064769894
000230 40 27 e0 3d d2 a0 de 3b 90 9b eb 3d 19 30 cd bd
       0.10944986 0.0067940736 0.115042806 -0.100189395
000240 6f a3 0e bc da 0f a3 3d 55 93 84 bd 35 3e a0 bd
       -0.008705958 0.07962008 -0.06473414 -0.07824365
000250 f5 4d a7 bc bb 06 aa 3d 80 3c b0 bd 14 53 7d 3d
       -0.020422915 0.08302065 -0.086052895 0.061846808
000260 15 8b 9c 3c 3d dd 65 bd a1 50 d7 3c ef e6 0d bd
       0.019109288 -0.056119192 0.026283564 -0.034644064
000270 c3 aa 9e bc 5d c9 43 bd 87 37 14 3d de d6 22 3c
       -0.019368535 -0.047799457 0.036185768 0.009938924
000280 4f 16 b9 bd 5c 30 16 bd 41 c8 e0 ba e5 17 83 3d
       -0.09037458 -0.036667213 -0.0017149524 0.06401042
000290 1e 58 8b bd 5a 69 38 3d 42 3a 6a 3d 9b c6 c9 bc
       -0.068039164 0.045022346 0.057184465 -0.024630835
0002a0 b4 59 0f bd be 68 2a bd 07 03 99 3b c9 08 52 3c
       -0.034997657 -0.041603796 0.0046695503 0.012819477
0002b0 fa b9 42 bd a8 93 a1 bc 7a a4 c8 3a 74 97 9e bd
       -0.047540642 -0.019723728 0.0015307807 -0.07743731
0002c0 63 4d d1 3d 58 b4 11 bc 48 27 93 3d 57 fa 91 bd
       0.102198385 -0.008893095 0.07185227 -0.07127827
0002d0 b4 ae a5 bc bb fe 98 3c 59 f4 c0 bd 69 47 cd bc
       -0.020224907 0.018676152 -0.094216056 -0.025058465
0002e0 b9 51 20 3d 3b 4f 29 bd 72 9a 3f 3d 1f 3a 7b 3d
       0.039140437 -0.041335326 0.04677815 0.061334725
0002f0 5b 52 01 3c a7 a7 80 3d 40 93 2d 3b 4a aa 42 3c
       0.00789317 0.06281977 0.0026485473 0.01188142
000300 cd 21 be bd 33 56 21 3b 5c e5 a3 3d 61 88 91 3d
       -0.09283791 0.002461803 0.08002731 0.0710609
000310 b5 af c4 3b 82 b3 19 3c 98 93 04 3d 16 f2 28 bd
       0.006002391 0.009381177 0.03236732 -0.041246496
000320 2f da b3 bd 84 7e 73 3d cd c1 95 3d b1 58 e9 bd
       -0.087818496 0.059446827 0.07312355 -0.1139387
000330 93 bf 00 bd 14 bf 42 3b 64 01 59 bd f8 ad 48 3d
       -0.0314327 0.0029715942 -0.05297984 0.048994035
000340 28 f9 6c 3d ee 58 b4 bd 1b d4 b2 3d 92 4a 52 bd
       0.0578548 -0.088060245 0.08731862 -0.051340647
000350 29 c8 dd bc 5a 16 66 bd d2 13 09 bd 5c 9d ed 3c
       -0.027072983 -0.05617366 -0.033466168 0.029005699
000360 03 db b2 bd dd da 8f 3d d4 b8 b6 3b 8d 9d a7 3d
       -0.087331794 0.07024167 0.0055762324 0.08184347
000370 24 f8 b3 3d 17 16 ce bc 61 c3 aa 3d 95 73 aa 3b
       0.087875634 -0.025157018 0.08338047 0.0052017667
000380 8d a5 89 bd d9 b3 4e bc c3 02 a1 3d 8f dc 0c 3b
       -0.067210294 -0.012616121 0.07861855 0.0021493768
000390 a7 d0 19 bc 7c e6 68 bd 06 1b 8f 3d 09 3f 07 bd
       -0.0093881255 -0.056860432 0.06987576 -0.0330191
0003a0 d0 fb 5f bd fc 08 00 3d 02 1f 8f 3d 0c a6 f5 3c
       -0.054683506 0.03125857 0.06988336 0.029986404
0003b0 39 ca 59 3d fe 59 b1 bd 0d 43 fb 3b 8b 08 f6 bc
       0.05317137 -0.08659743 0.007667905 -0.03003337
0003c0 3a 4f 81 bb ec 58 6b bd e3 fc 99 3d 9b 88 3b 3d
       -0.003946212 -0.05745785 0.075189374 0.045784574
0003d0 96 c3 81 bd b6 1b a4 bd ec b0 b4 3d 00 71 13 3d
       -0.06336133 -0.08013098 0.08822808 0.035996437
0003e0 3e 0c 82 bd 8a d4 2f 3c 83 f2 a0 bd cb ca a4 bd
       -0.06349991 0.010731826 -0.078587554 -0.08046492
0003f0 0a e5 c0 bc ed 42 b6 bc 41 4e 61 3d de a2 18 bd
       -0.023546714 -0.02224871 0.05500627 -0.037264697

bias f4 [128]
000000 7d 5a 67 3d 32 f9 5c bc d6 79 17 3d ce 2e 86 bd
       0.05648278 -0.013487147 0.036981426 -0.06551896
000010 a2 34 2c 3d 0e 3e 71 3c 7e d2 9d bd 5e fa 17 bd
       0.042042382 0.014724268 -0.07706164 -0.037104003
000020 5d 70 09 3c d2 85 e5 bc 32 b0 a9 bb 73 c9 0b 3c
       0.008388606 -0.028017912 -0.005178475 0.008531916
000030 dd 5a 04 bc d2 53 68 3d a7 a8 58 bc 83 fe 32 3c
       -0.008078304 0.056720562 -0.013223804 0.010924938
000040 43 4d 9d bd b3 79 fc 3c 0e df f8 3b 0d 80 1d bc
       -0.07680752 0.03081975 0.0075949496 -0.009613049
000050 43 45 76 bd 41 25 7f bc c7 ae 03 bd 87 df df 3a
       -0.060124647 -0.015572847 -0.032149103 0.0017080166
000060 13 44 41 3c 96 7d ee bc fd 56 94 3c a8 ca 80 3d
       0.011796015 -0.029112618 0.018107885 0.062886536
000070 75 07 a7 bd cb ef 86 bd 75 8e cf 3b 50 fa 7f bd
       -0.08155719 -0.06588706 0.006334121 -0.062494576
000080 3f 8f 72 bc b4 7c a2 bb b8 26 a8 bd 40 c4 6d bc
       -0.01480466 -0.0049587134 -0.0821051 -0.014512122
000090 0b 79 2f bc bd 8b 86 3d 48 3a 90 bd fc a0 f3 3a
       -0.010710011 0.06569622 -0.07042366 0.0018587406
0000a0 9e 39 78 3d 15 1c 59 bd 66 20 15 3d f5 77 3f 3d
       0.060601823 -0.053005297 0.03640785 0.04674526
0000b0 e9 53 29 bd 76 d8 62 bc ed 1e d6 bc 1e 04 99 bd
       -0.04133979 -0.013845554 -0.026137793 -0.074714884
0000c0 89 de 12 bd e0 65 a1 3d 71 43 28 bd f4 fa 57 bd
       -0.035856757 0.07880759 -0.041079942 -0.052729562
0000d0 ab c1 f7 3c eb 7e 28 3b d5 53 af bd 0f c7 aa 3b
       0.030243715 0.0025710415 -0.085609116 0.005211718
0000e0 df be 05 3d 05 c1 4d 3d 69 29 5f 3d 0a 76 1b bd
       0.032652732 0.050232906 0.05448285 -0.037954368
0000f0 8b c9 26 3d d9 37 69 bc 02 a5 2b bd f2 b5 b6 bc
       0.04071955 -0.0142345065 -0.04190541 -0.022303555
000100 3e 88 80 bc 6e 9f e2 3c 73 7c bc 3c 0e 57 56 3c
       -0.015689965 0.027663913 0.02300856 0.013082279
000110 21 bd 92 bd 65 e1 14 3d cd 9d de bc be 1c bb bc
       -0.0716498 0.036347765 -0.027174855 -0.022840854
000120 e8 3a 11 bc 3b e5 ac 3c 56 ff b5 bc 61 7d 81 bc
       -0.008864142 0.0211054 -0.02221648 -0.015806856
000130 92 58 1b 3c 33 7c c5 3c 4b 9f cd 3d 6c 1a 3f bd
       0.009481566 0.024107074 0.10040148 -0.046656057
000140 a3 06 08 bd e1 d0 06 bc 83 a0 ff 3c dc 5c 3e 3b
       -0.033209454 -0.008228512 0.031204468 0.0029047048
000150 52 4e 1b 3c 32 0d b1 bd ae f1 c3 bc 3f 1c 78 bc
       0.009479122 -0.08645095 -0.023918953 -0.015143453
000160 d7 01 71 3d 15 06 67 bd cb 11 66 bd 73 71 b2 bc
       0.058839645 -0.056402285 -0.056169312 -0.021782612
000170 c8 13 08 3b 7e 2e ef bc 36 9f 1e 3d bf 04 62 bd
       0.0020763744 -0.029196974 0.038726054 -0.055180307
000180 35 db 3d bc 66 66 21 3d 43 a4 6f 3d 35 da 87 bd
       -0.011587908 0.039404295 0.05850626 -0.066334166
000190 d7 f5 8d 3b d1 5d a6 bd 62 c5 6d 3d 3d 02 67 bc
       0.004332285 -0.08123363 0.058049567 -0.014099655
0001a0 33 73 e0 bc a7 fd a8 3d 0e 1a 88 bc 97 48 35 3d
       -0.027398681 0.08251505 -0.016613986 0.04425868
0001b0 68 a3 53 bd dd 11 8b 3d 87 84 85 3d db 7e 9e bd
       -0.05166951 0.067905165 0.06519418 -0.077390395
0001c0 ea 58 06 bd c1 75 91 3d 2c 68 59 3d 0b 55 3b bd
       -0.03279964 0.07102538 0.05307786 -0.0457354
0001d0 2a 7b bb 3c ea 5a 31 bd 66 06 8b 3d eb b7 59 bd
       0.022885878 -0.043299593 0.0678833 -0.053153913
0001e0 64 62 57 3c cf 90 82 3d ab 3e 83 3c 61 f7 88 bd
       0.013146017 0.06375276 0.016021093 -0.06687809
0001f0 8d 03 49 bc fc 1b 49 bd 0b a8 8d 3d 37 3d 79 3d
       -0.012268913 -0.049098954 0.06916817 0.060849395

weight f4 [12, 128]
000000 67 91 6b bc 2f 44 01 3c 30 60 0b bb f0 6b e4 ba
       -0.014377928 0.007889791 -0.002126705 -0.0017427187
000010 93 84 87 3c 73 a9 ce 3c a5 ef 81 3d 42 0d 23 bd
       0.016542709 0.025227284 0.06344537 -0.039807566
000020 97 76 6a bb eb 26 fa 3a 27 61 c5 bb 9d 0b 22 bc
       -0.0035776251 0.0019085085 -0.0060235444 -0.009890464
000030 d0 8b 39 3b a2 6b 3d bc 54 d5 0d 3c 85 93 a1 3c
       0.0028312095 -0.011561306 0.008656818 0.019723663
000040 4f 3e 51 bd 68 eb be bc 6e 86 af bb b6 70 8c 3c
       -0.051084813 -0.02330561 -0.0053566014 0.017143589
000050 49 e2 fa 3c fc ef b7 3c 70 bf 07 bc e7 b2 5e bb
       0.03062548 0.0224533 -0.008285388 -0.0033981146
000060 42 d2 9a 3c 30 5f 96 3c 26 aa 87 bc d5 29 b8 bc
       0.018899087 0.018355936 -0.016560625 -0.022480885
000070 14 1d f1 bc 7c 60 2f 3c 1e 85 ef bb bf 02 d0 3b
       -0.02943281 0.010704156 -0.00730957 0.0063479836
000080 1b d6 26 3c 4e 4b 3b bc 1b 10 84 3a 3d 7c 0f ba
       0.010182883 -0.011431528 0.0010075601 -0.000547353
000090 1f ca 27 3c 39 13 d1 3b c5 8b 67 3d 78 e8 b1 bc
       0.0102410605 0.0063804653 0.05652978 -0.021717295
0000a0 ee a4 82 bc 81 90 57 bd 4f 45 c4 bc a7 2a db bc
       -0.015947785 -0.052628044 -0.02395883 -0.026753737
0000b0 f9 bd d1 3b 36 5f e6 3c 4d 0d b6 bc 52 c4 d5 3c
       0.0064008203 0.028121572 -0.02222314 0.02609459
0000c0 80 b1 f8 bc ab 91 6b bd 30 eb fb 3b 88 06 26 3c
       -0.030358076 -0.057511967 0.0076879486 0.010133393
0000d0 d5 18 8c 3c 15 33 24 bd 5a 9f 00 bd ab 3c 49 3b
       0.017101685 -0.040087778 -0.03140197 0.0030706327
0000e0 26 b2 2c bc 04 7c 85 3c 5a cc f9 bc bb 04 01 3c
       -0.010540521 0.016294487 -0.03049295 0.007874663
0000f0 56 53 c8 3c 75 d7 a9 bc 7e bb 0d bd 23 66 35 bc
       0.0244538 -0.02073262 -0.034602635 -0.011071715
000100 59 06 1a bd 3a a2 11 bc bd 0b 24 3c 2b 9e ae bc
       -0.03760371 -0.0088887755 0.010012564 -0.021315655
000110 b8 4e 81 bd 26 80 d2 3c bb ca f8 bb 0a 97 05 3c
       -0.063138425 0.025695872 -0.0075925267 0.008153686
000120 eb 9a 4a 3c 6a 6c 74 bb bd f3 12 3c 77 d5 b8 3b
       0.012366037 -0.0037296065 0.008969245 0.0056406814
000130 bf a8 50 bb fb f6 92 3b 32 a3 4d bd 9a f0 2c bc
       -0.0031838862 0.004485009 -0.050204463 -0.010555411
000140 98 a1 b6 ba 07 bd b9 3b cc 83 33 3c 2b 1a 9a 3c
       -0.0013933657 0.005668286 0.010956716 0.018811306
000150 44 09 06 3d 23 f8 e2 3c e5 e8 94 3c d0 d4 55 bc
       0.03272368 0.027706211 0.018177459 -0.013051227
000160 1f 31 d8 3c 3f 6d 55 bc f0 00 13 bb d4 0e 1e bc
       0.02639061 -0.013026535 -0.0022430979 -0.00964709
000170 3c 86 4c 3b 54 b2 04 bd 97 63 78 3c 8a c3 b7 b9
       0.003120794 -0.03239663 0.015160463 -0.00035050168
000180 08 c1 0e bb de ec 99 bc 87 2f 09 bd 21 f4 a2 bc
       -0.0021782536 -0.018789705 -0.03349259 -0.0198918
000190 bb bf 8d 3c e9 06 79 3d ad bc d8 bc b4 d5 d6 bb
       0.017303338 0.060797606 -0.026457155 -0.006556237
0001a0 19 35 6d 3c 1d 1e 06 bd b5 57 9d bc 87 a4 41 3d
       0.0144779915 -0.032743562 -0.019206861 0.047276046
0001b0 04 0a 8e 3c a9 4d 14 3c cf c5 45 bc 94 e3 a2 3b
       0.01733876 0.009051719 -0.012071087 0.004970977
0001c0 ea 1c c3 3b da 3e 39 bd 2a 0a 87 bb a8 04 d3 bc
       0.0059543746 -0.045225956 -0.0041210847 -0.025759056
0001d0 be 20 27 bc 75 83 8f bb b9 9d c1 3c 70 f8 16 bd
       -0.010200677 -0.0043796846 0.023634778 -0.036858022
0001e0 90 5c 0d bc c9 3a 03 bd 34 4d 05 bd 95 f6 0e bc
       -0.008628026 -0.032038484 -0.03254433 -0.008725782
0001f0 d0 88 a7 ba 76 7c 33 bc ad 09 34 bd 06 30 d1 bb
       -0.0012781862 -0.010954967 -0.04395454 -0.0063838987
000200 0d b5 af 3a 49 6b d2 3c cf 46 38 3d 52 ed 41 3d
       0.0013405398 0.025685923 0.044989403 0.047345467
000210 cc ff 32 3b fa 87 9b 3c bb 1d a0 bd e6 0b 3f bc
       0.0027313111 0.018985737 -0.07818171 -0.011660552
000220 3d b0 cb 3a 6e a1 c9 ba 17 52 1a bd b2 18 46 ba
       0.0015540194 -0.0015383193 -0.037675943 -0.00075567805
000230 19 31 92 3c de c2 da bc c5 64 aa bc 38 12 ba bc
       0.017845677 -0.026704248 -0.020800004 -0.022713766
000240 aa 57 aa bc 18 56 4a 3c 98 7a 08 bd dd ee 5d bd
       -0.020793755 0.012349628 -0.03332004 -0.054182876
000250 8d f1 7a bc a1 32 38 3d 45 57 99 bc 97 e9 0f 3d
       -0.015316379 0.04497016 -0.018718371 0.035134878
000260 04 ba ea bc 83 5a a8 3c af 98 6a bc 1b 10 9c 3c
       -0.028653152 0.020550972 -0.014318629 0.019050648
000270 d2 cb 8d bd 1f 9d eb bc ef 92 a1 3c 18 61 bb bc
       -0.06923641 -0.028761445 0.019723384 -0.022873446
000280 33 0f 19 bc 4c ab 3c bc fb 9d 10 bd e7 7e 7a bd
       -0.009342003 -0.01151545 -0.035306912 -0.06115618
000290 41 a4 24 ba 46 6a f9 bc f3 bb 6a bb 1b 07 61 3d
       -0.0006280579 -0.030446183 -0.0035817593 0.054938417
0002a0 30 8b 3e 3d f1 22 08 3c 34 46 dd bb 33 f8 e0 3c
       0.04651946 0.008309112 -0.0067527536 0.0274621
0002b0 62 9b 42 bb 24 f9 3a 3c 48 66 0c bd ff ed 0f 3d
       -0.0029694666 0.011411939 -0.03427723 0.03513908
0002c0 06 44 19 bd cb 09 ec bc 93 ca 16 3c 58 55 95 3a
       -0.037418388 -0.028813263 0.009203571 0.0011393232
0002d0 04 72 06 bc ba 24 6b bd 8d 4d bc 3b 5e f2 0c bb
       -0.008205894 -0.057408072 0.0057465495 -0.0021506767
0002e0 73 47 70 bb 92 00 ac 3b e0 73 31 3b 29 a9 73 bc
       -0.003666368 0.0052490914 0.0027077124 -0.014871874
0002f0 d6 f0 63 bd a5 10 13 3c b3 21 b0 3c 8f 31 21 bc
       -0.0556496 0.008976136 0.021500444 -0.009838476
000300 7d a1 8a bc 83 60 95 3c 08 bc 81 bc c9 58 a6 bb
       -0.016922707 0.018234497 -0.01583673 -0.005076502
000310 a0 8a 63 bd 60 24 13 bd 92 e5 93 ba b0 14 7d 3c
       -0.055552125 -0.03592336 -0.0011283627 0.015446827
000320 77 df fc 3c 46 e0 86 bc 15 02 a2 bc ed 6b 49 bc
       0.030868275 -0.016464364 -0.019776383 -0.012293798
000330 5b e2 df bc 69 28 d6 3b 9a 89 a1 3d 07 a0 52 bb
       -0.027329614 0.006535579 0.078875735 -0.003213884
000340 b2 39 0b bb a8 22 de 3c 1c 26 89 3d db c8 12 3c
       -0.0021244106 0.027116135 0.06696722 0.0089590205
000350 93 1d ab bc 5e 3c 57 3c 12 8f 0d ba a5 fc 42 bb
       -0.020888126 0.013136951 -0.0005400042 -0.0029752639
000360 5d 9d 1a 3c 9b ef ec 3c d2 77 88 3c 90 f4 65 3c
       0.009436932 0.028922847 0.016658697 0.014035359
000370 e3 95 99 38 01 b3 34 bd 4c cb 98 3c 3c 39 e5 bb
       7.323527e-05 -0.044116024 0.018651627 -0.0069953483
000380 71 cb 38 3c 8b 44 50 bd fa 6e ec 3a ce 4a b2 bc
       0.011278973 -0.050846618 0.0018038445 -0.021764185
000390 42 11 5b bb f2 5f 65 bc f1 99 08 3d 22 f9 39 bc
       -0.0033427035 -0.013999926 0.033349935 -0.011350902
0003a0 64 81 50 bc 69 f3 b0 3c 00 de 4d 3c 6c fe 3f bd
       -0.012726162 0.021600442 0.012565136 -0.046873495
0003b0 2e 5c 8b 3b 9e c0 a7 3c 64 7d 67 3d 9a 79 70 bd
       0.004252932 0.02047759 0.056516066 -0.05870972
0003c0 53 13 2f 3d d1 94 6c 3b f6 21 d3 bb b1 65 b9 bc
       0.04274304 0.0036099444 -0.0064432574 -0.022631498
0003d0 22 01 9c bb 63 e2 bc bb 36 12 b0 3c 6a 58 47 3c
       -0.004760877 -0.005764292 0.021493059 0.012167076
0003e0 b1 1f 08 bb 54 02 f3 bc 7c 3f 05 3c 77 a0 f5 bc
       -0.0020770843 -0.029664196 0.008132812 -0.029983742
0003f0 6c 3c fa bc 22 76 a7 ba ca 8b ce bb 32 7f dc 3c
       -0.03054639 -0.0012776295 -0.0063032852 0.02691612

bias f4 [12]
000000 77 80 04 3d fb 7c c1 3d 62 30 80 3c 7b dd ad bc
       0.032349076 0.09447666 0.01564807 -0.021223774
000010 c4 29 c2 bc d4 71 a2 bd de be 18 3d ab 22 ad bd
       -0.023701556 -0.07931867 0.0372914 -0.08453878
000020 03 42 11 bd 52 7e 7e bd 90 54 15 3d fe 76 a7 3d
       -0.035463344 -0.062132187 0.0364576 0.08176993
